…
18  decoder.residual_stack.residual_blocks.1.residual_block.3.weight                         4             0.42
19                    decoder.sequential_trans_convs.conv2d_1.weight                       262            27.41
20                      decoder.sequential_trans_convs.conv2d_1.bias                         0             0.00
21                    decoder.sequential_trans_convs.conv2d_2.weight                         6             0.63
22                      decoder.sequential_trans_convs.conv2d_2.bias                         0             0.00


 PyTorch print of the model:

VQ_VAE(
  (encoder): Encoder(
    (sequential_convs): Sequential(
      (conv2d_1): Conv2d(3, 32, kernel_size=(4, 4), stride=(2, 2), padding=(1, 1))
      (ReLU_1): ReLU(inplace=True)
      (conv2d_2): Conv2d(32, 64, kernel_size=(4, 4), stride=(2, 2), padding=(1, 1))
      (ReLU_2): ReLU(inplace=True)
      (conv2d_3): Conv2d(64, 128, kernel_size=(4, 4), stride=(2, 2), padding=(1, 1))
      (ReLU_3): ReLU(inplace=True)
    )
    (pre_residual_stack): Conv2d(128, 128, kernel_size=(3, 3), stride=(1, 1), padding=(1, 1))
    (residual_stack): ResidualStack(
      (residual_blocks): ModuleList(
        (0): Residual(
          (residual_block): Sequential(
            (0): ReLU(inplace=True)
            (1): Conv2d(128, 32, kernel_size=(3, 3), stride=(1, 1), padding=(1, 1), bias=False)
            (2): ReLU(inplace=True)
            (3): Conv2d(32, 128, kernel_size=(1, 1), stride=(1, 1), bias=False)
          )
        )
        (1): Residual(
          (residual_block): Sequential(
            (0): ReLU(inplace=True)
            (1): Conv2d(128, 32, kernel_size=(3, 3), stride=(1, 1), padding=(1, 1), bias=False)
            (2): ReLU(inplace=True)
            (3): Conv2d(32, 128, kernel_size=(1, 1), stride=(1, 1), bias=False)
          )
        )
      )
    )
    (channel_adjusting_conv): Conv2d(128, 64, kernel_size=(1, 1), stride=(1, 1))
  )
  (VQ): VectorQuantizer(
    (E): Embedding(512, 64)
  )
  (decoder): Decoder(
    (channel_adjusting_conv): Conv2d(64, 128, kernel_size=(3, 3), stride=(1, 1), padding=(1, 1))
    (residual_stack): ResidualStack(
      (residual_blocks): ModuleList(
        (0): Residual(
          (residual_block): Sequential(
            (0): ReLU(inplace=True)
            (1): Conv2d(128, 32, kernel_size=(3, 3), stride=(1, 1), padding=(1, 1), bias=False)
            (2): ReLU(inplace=True)
            (3): Conv2d(32, 128, kernel_size=(1, 1), stride=(1, 1), bias=False)
          )
        )
        (1): Residual(
          (residual_block): Sequential(
            (0): ReLU(inplace=True)
            (1): Conv2d(128, 32, kernel_size=(3, 3), stride=(1, 1), padding=(1, 1), bias=False)
            (2): ReLU(inplace=True)
            (3): Conv2d(32, 128, kernel_size=(1, 1), stride=(1, 1), bias=False)
          )
        )
      )
    )
    (sequential_trans_convs): Sequential(
      (conv2d_1): ConvTranspose2d(128, 64, kernel_size=(4, 4), stride=(2, 2), padding=(1, 1))
      (ReLU_1): ReLU(inplace=True)
      (conv2d_2): ConvTranspose2d(64, 32, kernel_size=(4, 4), stride=(2, 2), padding=(1, 1))
      (ReLU_2): ReLU(inplace=True)
      (conv2d_3): ConvTranspose2d(32, 3, kernel_size=(4, 4), stride=(2, 2), padding=(1, 1))
    )
  )
)


 Total Trainable Params in thousands: 748 

                                                         Module Name  # of params in thousands  # of params [%]
0                           encoder.sequential_convs.conv2d_1.weight                         1             0.13
1                           encoder.sequential_convs.conv2d_2.weight                        32             4.28
…
13  decoder.residual_stack.residual_blocks.1.residual_block.1.weight                        36             4.81
14  decoder.residual_stack.residual_blocks.1.residual_block.3.weight                         4             0.53
15                    decoder.sequential_trans_convs.conv2d_1.weight                       131            17.51
16                    decoder.sequential_trans_convs.conv2d_2.weight                        32             4.28
17                    decoder.sequential_trans_convs.conv2d_3.weight                         1             0.13


 PyTorch print of the model:

VQ_VAE(
  (encoder): Encoder(
    (sequential_convs): Sequential(
      (conv2d_1): Conv2d(3, 128, kernel_size=(4, 4), stride=(2, 2), padding=(1, 1))
      (ReLU_1): ReLU(inplace=True)
      (conv2d_2): Conv2d(128, 128, kernel_size=(4, 4), stride=(2, 2), padding=(1, 1))
      (ReLU_2): ReLU(inplace=True)
      (conv2d_3): Conv2d(128, 128, kernel_size=(4, 4), stride=(2, 2), padding=(1, 1))
      (ReLU_3): ReLU(inplace=True)
    )
    (pre_residual_stack): Conv2d(128, 128, kernel_size=(3, 3), stride=(1, 1), padding=(1, 1))
    (residual_stack): ResidualStack(
      (residual_blocks): ModuleList(
        (0): Residual(
          (residual_block): Sequential(
            (0): ReLU(inplace=True)
            (1): Conv2d(128, 32, kernel_size=(3, 3), stride=(1, 1), padding=(1, 1), bias=False)
            (2): ReLU(inplace=True)
            (3): Conv2d(32, 128, kernel_size=(1, 1), stride=(1, 1), bias=False)
          )
        )
        (1): Residual(
          (residual_block): Sequential(
            (0): ReLU(inplace=True)
            (1): Conv2d(128, 32, kernel_size=(3, 3), stride=(1, 1), padding=(1, 1), bias=False)
            (2): ReLU(inplace=True)
            (3): Conv2d(32, 128, kernel_size=(1, 1), stride=(1, 1), bias=False)
          )
        )
      )
    )
    (channel_adjusting_conv): Conv2d(128, 64, kernel_size=(1, 1), stride=(1, 1))
  )
  (VQ): VectorQuantizer(
    (E): Embedding(512, 64)
  )
  (decoder): Decoder(
    (channel_adjusting_conv): Conv2d(64, 128, kernel_size=(3, 3), stride=(1, 1), padding=(1, 1))
    (residual_stack): ResidualStack(
      (residual_blocks): ModuleList(
        (0): Residual(
          (residual_block): Sequential(
            (0): ReLU(inplace=True)
            (1): Conv2d(128, 32, kernel_size=(3, 3), stride=(1, 1), padding=(1, 1), bias=False)
            (2): ReLU(inplace=True)
            (3): Conv2d(32, 128, kernel_size=(1, 1), stride=(1, 1), bias=False)
          )
        )
        (1): Residual(
          (residual_block): Sequential(
            (0): ReLU(inplace=True)
            (1): Conv2d(128, 32, kernel_size=(3, 3), stride=(1, 1), padding=(1, 1), bias=False)
            (2): ReLU(inplace=True)
            (3): Conv2d(32, 128, kernel_size=(1, 1), stride=(1, 1), bias=False)
          )
        )
      )
    )
    (sequential_trans_convs): Sequential(
      (conv2d_1): ConvTranspose2d(128, 128, kernel_size=(4, 4), stride=(2, 2), padding=(1, 1))
      (ReLU_1): ReLU(inplace=True)
      (conv2d_2): ConvTranspose2d(128, 128, kernel_size=(4, 4), stride=(2, 2), padding=(1, 1))
      (ReLU_2): ReLU(inplace=True)
      (conv2d_3): ConvTranspose2d(128, 3, kernel_size=(4, 4), stride=(2, 2), padding=(1, 1))
    )
  )
)


 Total Trainable Params in thousands: 1480 

                                                         Module Name  # of params in thousands  # of params [%]
0                           encoder.sequential_convs.conv2d_1.weight                         6             0.41
1                           encoder.sequential_convs.conv2d_2.weight                       262            17.70
…
13  decoder.residual_stack.residual_blocks.1.residual_block.1.weight                        36             2.43
14  decoder.residual_stack.residual_blocks.1.residual_block.3.weight                         4             0.27
15                    decoder.sequential_trans_convs.conv2d_1.weight                       262            17.70
16                    decoder.sequential_trans_convs.conv2d_2.weight                       262            17.70
17                    decoder.sequential_trans_convs.conv2d_3.weight                         6             0.41


 PyTorch print of the model:

VQ_VAE(
  (encoder): Encoder(
    (sequential_convs): Sequential(
      (conv2d_1): Conv2d(3, 16, kernel_size=(4, 4), stride=(2, 2), padding=(1, 1))
      (ReLU_1): ReLU(inplace=True)
      (conv2d_2): Conv2d(16, 32, kernel_size=(4, 4), stride=(2, 2), padding=(1, 1))
      (ReLU_2): ReLU(inplace=True)
      (conv2d_3): Conv2d(32, 64, kernel_size=(4, 4), stride=(2, 2), padding=(1, 1))
      (ReLU_3): ReLU(inplace=True)
      (conv2d_4): Conv2d(64, 128, kernel_size=(4, 4), stride=(2, 2), padding=(1, 1))
      (ReLU_4): ReLU(inplace=True)
    )
    (pre_residual_stack): Conv2d(128, 128, kernel_size=(3, 3), stride=(1, 1), padding=(1, 1))
    (residual_stack): ResidualStack(
      (residual_blocks): ModuleList(
        (0): Residual(
          (residual_block): Sequential(
            (0): ReLU(inplace=True)
            (1): Conv2d(128, 32, kernel_size=(3, 3), stride=(1, 1), padding=(1, 1), bias=False)
            (2): ReLU(inplace=True)
            (3): Conv2d(32, 128, kernel_size=(1, 1), stride=(1, 1), bias=False)
          )
        )
        (1): Residual(
          (residual_block): Sequential(
            (0): ReLU(inplace=True)
            (1): Conv2d(128, 32, kernel_size=(3, 3), stride=(1, 1), padding=(1, 1), bias=False)
            (2): ReLU(inplace=True)
            (3): Conv2d(32, 128, kernel_size=(1, 1), stride=(1, 1), bias=False)
          )
        )
      )
    )
    (channel_adjusting_conv): Conv2d(128, 64, kernel_size=(1, 1), stride=(1, 1))
  )
  (VQ): VectorQuantizer(
    (E): Embedding(2, 64)
  )
  (decoder): Decoder(
    (channel_adjusting_conv): Conv2d(64, 128, kernel_size=(3, 3), stride=(1, 1), padding=(1, 1))
    (residual_stack): ResidualStack(
      (residual_blocks): ModuleList(
        (0): Residual(
          (residual_block): Sequential(
            (0): ReLU(inplace=True)
            (1): Conv2d(128, 32, kernel_size=(3, 3), stride=(1, 1), padding=(1, 1), bias=False)
            (2): ReLU(inplace=True)
            (3): Conv2d(32, 128, kernel_size=(1, 1), stride=(1, 1), bias=False)
          )
        )
        (1): Residual(
          (residual_block): Sequential(
            (0): ReLU(inplace=True)
            (1): Conv2d(128, 32, kernel_size=(3, 3), stride=(1, 1), padding=(1, 1), bias=False)
            (2): ReLU(inplace=True)
            (3): Conv2d(32, 128, kernel_size=(1, 1), stride=(1, 1), bias=False)
          )
        )
      )
    )
    (sequential_trans_convs): Sequential(
      (conv2d_1): ConvTranspose2d(128, 64, kernel_size=(4, 4), stride=(2, 2), padding=(1, 1))
      (ReLU_1): ReLU(inplace=True)
      (conv2d_2): ConvTranspose2d(64, 32, kernel_size=(4, 4), stride=(2, 2), padding=(1, 1))
      (ReLU_2): ReLU(inplace=True)
      (conv2d_3): ConvTranspose2d(32, 16, kernel_size=(4, 4), stride=(2, 2), padding=(1, 1))
      (ReLU_3): ReLU(inplace=True)
      (conv2d_4): ConvTranspose2d(16, 3, kernel_size=(4, 4), stride=(2, 2), padding=(1, 1))
    )
  )
)


 Total Trainable Params in thousands: 730 

                                                         Module Name  # of params in thousands  # of params [%]
0                           encoder.sequential_convs.conv2d_1.weight                         0             0.00
1                           encoder.sequential_convs.conv2d_2.weight                         8             1.10
…
15  decoder.residual_stack.residual_blocks.1.residual_block.3.weight                         4             0.55
16                    decoder.sequential_trans_convs.conv2d_1.weight                       131            17.95
17                    decoder.sequential_trans_convs.conv2d_2.weight                        32             4.38
18                    decoder.sequential_trans_convs.conv2d_3.weight                         8             1.10
19                    decoder.sequential_trans_convs.conv2d_4.weight                         0             0.00


 PyTorch print of the model:

VQ_VAE(
  (encoder): Encoder(
    (sequential_convs): Sequential(
      (conv2d_1): Conv2d(3, 128, kernel_size=(4, 4), stride=(2, 2), padding=(1, 1))
      (ReLU_1): ReLU(inplace=True)
      (conv2d_2): Conv2d(128, 128, kernel_size=(4, 4), stride=(2, 2), padding=(1, 1))
      (ReLU_2): ReLU(inplace=True)
      (conv2d_3): Conv2d(128, 128, kernel_size=(4, 4), stride=(2, 2), padding=(1, 1))
      (ReLU_3): ReLU(inplace=True)
      (conv2d_4): Conv2d(128, 128, kernel_size=(4, 4), stride=(2, 2), padding=(1, 1))
      (ReLU_4): ReLU(inplace=True)
    )
    (pre_residual_stack): Conv2d(128, 128, kernel_size=(3, 3), stride=(1, 1), padding=(1, 1))
    (residual_stack): ResidualStack(
      (residual_blocks): ModuleList(
        (0): Residual(
          (residual_block): Sequential(
            (0): ReLU(inplace=True)
            (1): Conv2d(128, 32, kernel_size=(3, 3), stride=(1, 1), padding=(1, 1), bias=False)
            (2): ReLU(inplace=True)
            (3): Conv2d(32, 128, kernel_size=(1, 1), stride=(1, 1), bias=False)
          )
        )
        (1): Residual(
          (residual_block): Sequential(
            (0): ReLU(inplace=True)
            (1): Conv2d(128, 32, kernel_size=(3, 3), stride=(1, 1), padding=(1, 1), bias=False)
            (2): ReLU(inplace=True)
            (3): Conv2d(32, 128, kernel_size=(1, 1), stride=(1, 1), bias=False)
          )
        )
      )
    )
    (channel_adjusting_conv): Conv2d(128, 64, kernel_size=(1, 1), stride=(1, 1))
  )
  (VQ): VectorQuantizer(
    (E): Embedding(2, 64)
  )
  (decoder): Decoder(
    (channel_adjusting_conv): Conv2d(64, 128, kernel_size=(3, 3), stride=(1, 1), padding=(1, 1))
    (residual_stack): ResidualStack(
      (residual_blocks): ModuleList(
        (0): Residual(
          (residual_block): Sequential(
            (0): ReLU(inplace=True)
            (1): Conv2d(128, 32, kernel_size=(3, 3), stride=(1, 1), padding=(1, 1), bias=False)
            (2): ReLU(inplace=True)
            (3): Conv2d(32, 128, kernel_size=(1, 1), stride=(1, 1), bias=False)
          )
        )
        (1): Residual(
          (residual_block): Sequential(
            (0): ReLU(inplace=True)
            (1): Conv2d(128, 32, kernel_size=(3, 3), stride=(1, 1), padding=(1, 1), bias=False)
            (2): ReLU(inplace=True)
            (3): Conv2d(32, 128, kernel_size=(1, 1), stride=(1, 1), bias=False)
          )
        )
      )
    )
    (sequential_trans_convs): Sequential(
      (conv2d_1): ConvTranspose2d(128, 128, kernel_size=(4, 4), stride=(2, 2), padding=(1, 1))
      (ReLU_1): ReLU(inplace=True)
      (conv2d_2): ConvTranspose2d(128, 128, kernel_size=(4, 4), stride=(2, 2), padding=(1, 1))
      (ReLU_2): ReLU(inplace=True)
      (conv2d_3): ConvTranspose2d(128, 128, kernel_size=(4, 4), stride=(2, 2), padding=(1, 1))
      (ReLU_3): ReLU(inplace=True)
      (conv2d_4): ConvTranspose2d(128, 3, kernel_size=(4, 4), stride=(2, 2), padding=(1, 1))
    )
  )
)


 Total Trainable Params in thousands: 1972 

                                                         Module Name  # of params in thousands  # of params [%]
0                           encoder.sequential_convs.conv2d_1.weight                         6             0.30
1                           encoder.sequential_convs.conv2d_2.weight                       262            13.29
…
