
 PyTorch print of the model:

VQ_VAE(
  (encoder): Manual_Encoder(
    (sequential_convs): Sequential(
      (conv2d_0): Conv2d(3, 128, kernel_size=(4, 4), stride=(2, 2), padding=(1, 1))
      (ReLU_0): ReLU(inplace=True)
      (conv2d_1): Conv2d(128, 256, kernel_size=(4, 4), stride=(2, 2), padding=(1, 1))
      (ReLU_1): ReLU(inplace=True)
    )
    (residual_stack): ResidualStack(
      (residual_blocks): ModuleList(
        (0): Residual(
          (residual_block): Sequential(
            (0): BatchNorm2d(256, eps=1e-05, momentum=0.1, affine=True, track_running_stats=True)
            (1): ReLU(inplace=True)
            (2): Conv2d(256, 32, kernel_size=(3, 3), stride=(1, 1), padding=(1, 1), bias=False)
            (3): BatchNorm2d(32, eps=1e-05, momentum=0.1, affine=True, track_running_stats=True)
            (4): ReLU(inplace=True)
            (5): Conv2d(32, 256, kernel_size=(1, 1), stride=(1, 1), bias=False)
          )
        )
        (1): Residual(
          (residual_block): Sequential(
            (0): BatchNorm2d(256, eps=1e-05, momentum=0.1, affine=True, track_running_stats=True)
            (1): ReLU(inplace=True)
            (2): Conv2d(256, 32, kernel_size=(3, 3), stride=(1, 1), padding=(1, 1), bias=False)
            (3): BatchNorm2d(32, eps=1e-05, momentum=0.1, affine=True, track_running_stats=True)
            (4): ReLU(inplace=True)
            (5): Conv2d(32, 256, kernel_size=(1, 1), stride=(1, 1), bias=False)
          )
        )
      )
    )
    (channel_adjusting_conv): Conv2d(256, 128, kernel_size=(1, 1), stride=(1, 1))
  )
  (VQ): VectorQuantizer(
    (E): Embedding(256, 128)
  )
  (decoder): Manual_Decoder(
    (channel_adjusting_conv): Conv2d(128, 256, kernel_size=(1, 1), stride=(1, 1))
    (residual_stack): ResidualStack(
      (residual_blocks): ModuleList(
        (0): Residual(
          (residual_block): Sequential(
            (0): BatchNorm2d(256, eps=1e-05, momentum=0.1, affine=True, track_running_stats=True)
            (1): ReLU(inplace=True)
            (2): Conv2d(256, 32, kernel_size=(3, 3), stride=(1, 1), padding=(1, 1), bias=False)
            (3): BatchNorm2d(32, eps=1e-05, momentum=0.1, affine=True, track_running_stats=True)
            (4): ReLU(inplace=True)
            (5): Conv2d(32, 256, kernel_size=(1, 1), stride=(1, 1), bias=False)
          )
        )
        (1): Residual(
          (residual_block): Sequential(
            (0): BatchNorm2d(256, eps=1e-05, momentum=0.1, affine=True, track_running_stats=True)
            (1): ReLU(inplace=True)
            (2): Conv2d(256, 32, kernel_size=(3, 3), stride=(1, 1), padding=(1, 1), bias=False)
            (3): BatchNorm2d(32, eps=1e-05, momentum=0.1, affine=True, track_running_stats=True)
            (4): ReLU(inplace=True)
            (5): Conv2d(32, 256, kernel_size=(1, 1), stride=(1, 1), bias=False)
          )
        )
      )
    )
    (sequential_trans_convs): Sequential(
      (trans_conv0): ConvTranspose2d(256, 128, kernel_size=(4, 4), stride=(2, 2), padding=(1, 1))
      (ReLU_0): ReLU(inplace=True)
      (trans_conv1): ConvTranspose2d(128, 64, kernel_size=(4, 4), stride=(2, 2), padding=(1, 1))
      (ReLU_1): ReLU(inplace=True)
    )
    (output_conv_layer): Conv2d(64, 3, kernel_size=(1, 1), stride=(1, 1))
  )
)


 Total Trainable Params in thousands: 1605 

                                                         Module Name  # of params in thousands  # of params [%]
0                           encoder.sequential_convs.conv2d_0.weight                         6             0.37
1                           encoder.sequential_convs.conv2d_1.weight                       524            32.65
…
----------------------------------------------------------------------------------

The model is learning, for K = 256, D= 128, M = 15
Finished [01:16:19 18.01.2023] 600) Started running for K = 256 & D = 128 & M = 15 & beta = 0.25 & max_channel_number = 256 (i.e. bits = 2048) change_channel_size_across_layers by factor = 2:
Total training time is = 0:18:7 h/m/s. 

--------------------------------------------------- 

----- 01:34:27 18.01.2023 END RUN -----
----------------------------------------------------------------------------------


 PyTorch print of the model:

VQ_VAE(
  (encoder): Manual_Encoder(
    (sequential_convs): Sequential(
      (conv2d_0): Conv2d(3, 64, kernel_size=(4, 4), stride=(2, 2), padding=(1, 1))
      (ReLU_0): ReLU(inplace=True)
      (conv2d_1): Conv2d(64, 128, kernel_size=(4, 4), stride=(2, 2), padding=(1, 1))
      (ReLU_1): ReLU(inplace=True)
      (conv2d_2): Conv2d(128, 256, kernel_size=(4, 4), stride=(2, 2), padding=(1, 1))
      (ReLU_2): ReLU(inplace=True)
    )
    (residual_stack): ResidualStack(
      (residual_blocks): ModuleList(
        (0): Residual(
          (residual_block): Sequential(
            (0): BatchNorm2d(256, eps=1e-05, momentum=0.1, affine=True, track_running_stats=True)
            (1): ReLU(inplace=True)
            (2): Conv2d(256, 32, kernel_size=(3, 3), stride=(1, 1), padding=(1, 1), bias=False)
            (3): BatchNorm2d(32, eps=1e-05, momentum=0.1, affine=True, track_running_stats=True)
            (4): ReLU(inplace=True)
            (5): Conv2d(32, 256, kernel_size=(1, 1), stride=(1, 1), bias=False)
          )
        )
        (1): Residual(
          (residual_block): Sequential(
            (0): BatchNorm2d(256, eps=1e-05, momentum=0.1, affine=True, track_running_stats=True)
            (1): ReLU(inplace=True)
            (2): Conv2d(256, 32, kernel_size=(3, 3), stride=(1, 1), padding=(1, 1), bias=False)
            (3): BatchNorm2d(32, eps=1e-05, momentum=0.1, affine=True, track_running_stats=True)
            (4): ReLU(inplace=True)
            (5): Conv2d(32, 256, kernel_size=(1, 1), stride=(1, 1), bias=False)
          )
        )
      )
    )
    (channel_adjusting_conv): Conv2d(256, 128, kernel_size=(1, 1), stride=(1, 1))
  )
  (VQ): VectorQuantizer(
    (E): Embedding(256, 128)
  )
  (decoder): Manual_Decoder(
    (channel_adjusting_conv): Conv2d(128, 256, kernel_size=(1, 1), stride=(1, 1))
    (residual_stack): ResidualStack(
      (residual_blocks): ModuleList(
        (0): Residual(
          (residual_block): Sequential(
            (0): BatchNorm2d(256, eps=1e-05, momentum=0.1, affine=True, track_running_stats=True)
            (1): ReLU(inplace=True)
            (2): Conv2d(256, 32, kernel_size=(3, 3), stride=(1, 1), padding=(1, 1), bias=False)
            (3): BatchNorm2d(32, eps=1e-05, momentum=0.1, affine=True, track_running_stats=True)
            (4): ReLU(inplace=True)
            (5): Conv2d(32, 256, kernel_size=(1, 1), stride=(1, 1), bias=False)
          )
        )
        (1): Residual(
          (residual_block): Sequential(
            (0): BatchNorm2d(256, eps=1e-05, momentum=0.1, affine=True, track_running_stats=True)
            (1): ReLU(inplace=True)
            (2): Conv2d(256, 32, kernel_size=(3, 3), stride=(1, 1), padding=(1, 1), bias=False)
            (3): BatchNorm2d(32, eps=1e-05, momentum=0.1, affine=True, track_running_stats=True)
            (4): ReLU(inplace=True)
            (5): Conv2d(32, 256, kernel_size=(1, 1), stride=(1, 1), bias=False)
          )
        )
      )
    )
    (sequential_trans_convs): Sequential(
      (trans_conv0): ConvTranspose2d(256, 128, kernel_size=(4, 4), stride=(2, 2), padding=(1, 1))
      (ReLU_0): ReLU(inplace=True)
      (trans_conv1): ConvTranspose2d(128, 64, kernel_size=(4, 4), stride=(2, 2), padding=(1, 1))
      (ReLU_1): ReLU(inplace=True)
      (trans_conv2): ConvTranspose2d(64, 32, kernel_size=(4, 4), stride=(2, 2), padding=(1, 1))
      (ReLU_2): ReLU(inplace=True)
    )
    (output_conv_layer): Conv2d(32, 3, kernel_size=(1, 1), stride=(1, 1))
  )
)


 Total Trainable Params in thousands: 1765 

                                                         Module Name  # of params in thousands  # of params [%]
0                           encoder.sequential_convs.conv2d_0.weight                         3             0.17
1                           encoder.sequential_convs.conv2d_1.weight                       131             7.42
…
