Started [23:21:13 31.12.2022] 201) Finished running for K = 2048 & D = 64 & M = 7 & beta = 0.25 & max_channel_number = 128 (i.e. bits = 704) change_channel_size_across_layers = True:

--------------------------------------------------- 


 PyTorch print of the model:

VQ_VAE(
  (encoder): Encoder(
    (sequential_convs): Sequential(
      (conv2d_1): Conv2d(3, 32, kernel_size=(4, 4), stride=(2, 2), padding=(1, 1))
      (ReLU_1): ReLU(inplace=True)
      (conv2d_2): Conv2d(32, 64, kernel_size=(4, 4), stride=(2, 2), padding=(1, 1))
      (ReLU_2): ReLU(inplace=True)
      (conv2d_3): Conv2d(64, 128, kernel_size=(4, 4), stride=(2, 2), padding=(1, 1))
      (ReLU_3): ReLU(inplace=True)
    )
    (pre_residual_stack): Conv2d(128, 128, kernel_size=(3, 3), stride=(1, 1), padding=(1, 1))
    (residual_stack): ResidualStack(
      (residual_blocks): ModuleList(
        (0): Residual(
          (residual_block): Sequential(
            (0): ReLU(inplace=True)
            (1): Conv2d(128, 32, kernel_size=(3, 3), stride=(1, 1), padding=(1, 1), bias=False)
            (2): ReLU(inplace=True)
            (3): Conv2d(32, 128, kernel_size=(1, 1), stride=(1, 1), bias=False)
          )
        )
        (1): Residual(
          (residual_block): Sequential(
            (0): ReLU(inplace=True)
            (1): Conv2d(128, 32, kernel_size=(3, 3), stride=(1, 1), padding=(1, 1), bias=False)
            (2): ReLU(inplace=True)
            (3): Conv2d(32, 128, kernel_size=(1, 1), stride=(1, 1), bias=False)
          )
        )
      )
    )
    (channel_adjusting_conv): Conv2d(128, 64, kernel_size=(1, 1), stride=(1, 1))
  )
  (VQ): VectorQuantizer(
    (E): Embedding(2048, 64)
  )
  (decoder): Decoder(
    (channel_adjusting_conv): Conv2d(64, 128, kernel_size=(3, 3), stride=(1, 1), padding=(1, 1))
    (residual_stack): ResidualStack(
      (residual_blocks): ModuleList(
        (0): Residual(
          (residual_block): Sequential(
            (0): ReLU(inplace=True)
            (1): Conv2d(128, 32, kernel_size=(3, 3), stride=(1, 1), padding=(1, 1), bias=False)
            (2): ReLU(inplace=True)
            (3): Conv2d(32, 128, kernel_size=(1, 1), stride=(1, 1), bias=False)
          )
        )
        (1): Residual(
          (residual_block): Sequential(
            (0): ReLU(inplace=True)
            (1): Conv2d(128, 32, kernel_size=(3, 3), stride=(1, 1), padding=(1, 1), bias=False)
            (2): ReLU(inplace=True)
            (3): Conv2d(32, 128, kernel_size=(1, 1), stride=(1, 1), bias=False)
          )
        )
      )
    )
    (sequential_trans_convs): Sequential(
      (conv2d_1): ConvTranspose2d(128, 64, kernel_size=(4, 4), stride=(2, 2), padding=(1, 1))
      (ReLU_1): ReLU(inplace=True)
      (conv2d_2): ConvTranspose2d(64, 32, kernel_size=(4, 4), stride=(2, 2), padding=(1, 1))
      (ReLU_2): ReLU(inplace=True)
      (conv2d_3): ConvTranspose2d(32, 3, kernel_size=(4, 4), stride=(2, 2), padding=(1, 1))
    )
  )
)


 Total Trainable Params in thousands: 847 

                                                         Module Name  # of params in thousands  # of params [%]
0                           encoder.sequential_convs.conv2d_1.weight                         1             0.12
1                           encoder.sequential_convs.conv2d_2.weight                        32             3.78
…
Finished [00:13:16 01.01.2023] 201) Finished running for K = 2048 & D = 64 & M = 7 & beta = 0.25 & max_channel_number = 128 (i.e. bits = 704) change_channel_size_across_layers = True:
Total training time is = 0:7:3 h/m/s. 

--------------------------------------------------- 

Started [00:13:16 01.01.2023] 202) Finished running for K = 2048 & D = 64 & M = 7 & beta = 0.25 & max_channel_number = 256 (i.e. bits = 704) change_channel_size_across_layers = True:

--------------------------------------------------- 


 PyTorch print of the model:

VQ_VAE(
  (encoder): Encoder(
    (sequential_convs): Sequential(
      (conv2d_1): Conv2d(3, 64, kernel_size=(4, 4), stride=(2, 2), padding=(1, 1))
      (ReLU_1): ReLU(inplace=True)
      (conv2d_2): Conv2d(64, 128, kernel_size=(4, 4), stride=(2, 2), padding=(1, 1))
      (ReLU_2): ReLU(inplace=True)
      (conv2d_3): Conv2d(128, 256, kernel_size=(4, 4), stride=(2, 2), padding=(1, 1))
      (ReLU_3): ReLU(inplace=True)
    )
    (pre_residual_stack): Conv2d(256, 256, kernel_size=(3, 3), stride=(1, 1), padding=(1, 1))
    (residual_stack): ResidualStack(
      (residual_blocks): ModuleList(
        (0): Residual(
          (residual_block): Sequential(
            (0): ReLU(inplace=True)
            (1): Conv2d(256, 32, kernel_size=(3, 3), stride=(1, 1), padding=(1, 1), bias=False)
            (2): ReLU(inplace=True)
            (3): Conv2d(32, 256, kernel_size=(1, 1), stride=(1, 1), bias=False)
          )
        )
        (1): Residual(
          (residual_block): Sequential(
            (0): ReLU(inplace=True)
            (1): Conv2d(256, 32, kernel_size=(3, 3), stride=(1, 1), padding=(1, 1), bias=False)
            (2): ReLU(inplace=True)
            (3): Conv2d(32, 256, kernel_size=(1, 1), stride=(1, 1), bias=False)
          )
        )
      )
    )
    (channel_adjusting_conv): Conv2d(256, 64, kernel_size=(1, 1), stride=(1, 1))
  )
  (VQ): VectorQuantizer(
    (E): Embedding(2048, 64)
  )
  (decoder): Decoder(
    (channel_adjusting_conv): Conv2d(64, 256, kernel_size=(3, 3), stride=(1, 1), padding=(1, 1))
    (residual_stack): ResidualStack(
      (residual_blocks): ModuleList(
        (0): Residual(
          (residual_block): Sequential(
            (0): ReLU(inplace=True)
            (1): Conv2d(256, 32, kernel_size=(3, 3), stride=(1, 1), padding=(1, 1), bias=False)
            (2): ReLU(inplace=True)
            (3): Conv2d(32, 256, kernel_size=(1, 1), stride=(1, 1), bias=False)
          )
        )
        (1): Residual(
          (residual_block): Sequential(
            (0): ReLU(inplace=True)
            (1): Conv2d(256, 32, kernel_size=(3, 3), stride=(1, 1), padding=(1, 1), bias=False)
            (2): ReLU(inplace=True)
            (3): Conv2d(32, 256, kernel_size=(1, 1), stride=(1, 1), bias=False)
          )
        )
      )
    )
    (sequential_trans_convs): Sequential(
      (conv2d_1): ConvTranspose2d(256, 128, kernel_size=(4, 4), stride=(2, 2), padding=(1, 1))
      (ReLU_1): ReLU(inplace=True)
      (conv2d_2): ConvTranspose2d(128, 64, kernel_size=(4, 4), stride=(2, 2), padding=(1, 1))
      (ReLU_2): ReLU(inplace=True)
      (conv2d_3): ConvTranspose2d(64, 3, kernel_size=(4, 4), stride=(2, 2), padding=(1, 1))
    )
  )
)


 Total Trainable Params in thousands: 2523 

                                                         Module Name  # of params in thousands  # of params [%]
0                           encoder.sequential_convs.conv2d_1.weight                         3             0.12
1                           encoder.sequential_convs.conv2d_2.weight                       131             5.19
…
