Started [11:16:27 01.01.2023] 201) Finished running for K = 2048 & D = 64 & M = 7 & beta = 0.25 & max_channel_number = 128 (i.e. bits = 704) change_channel_size_across_layers = True:

--------------------------------------------------- 


 PyTorch print of the model:

VQ_VAE(
  (encoder): Encoder(
    (sequential_convs): Sequential(
      (conv2d_1): Conv2d(3, 32, kernel_size=(4, 4), stride=(2, 2), padding=(1, 1))
      (ReLU_1): ReLU(inplace=True)
      (conv2d_2): Conv2d(32, 64, kernel_size=(4, 4), stride=(2, 2), padding=(1, 1))
      (ReLU_2): ReLU(inplace=True)
      (conv2d_3): Conv2d(64, 128, kernel_size=(4, 4), stride=(2, 2), padding=(1, 1))
      (ReLU_3): ReLU(inplace=True)
    )
    (pre_residual_stack): Conv2d(128, 128, kernel_size=(3, 3), stride=(1, 1), padding=(1, 1))
    (residual_stack): ResidualStack(
      (residual_blocks): ModuleList(
        (0): Residual(
          (residual_block): Sequential(
            (0): ReLU(inplace=True)
            (1): Conv2d(128, 32, kernel_size=(3, 3), stride=(1, 1), padding=(1, 1), bias=False)
            (2): ReLU(inplace=True)
            (3): Conv2d(32, 128, kernel_size=(1, 1), stride=(1, 1), bias=False)
          )
        )
        (1): Residual(
          (residual_block): Sequential(
            (0): ReLU(inplace=True)
            (1): Conv2d(128, 32, kernel_size=(3, 3), stride=(1, 1), padding=(1, 1), bias=False)
            (2): ReLU(inplace=True)
            (3): Conv2d(32, 128, kernel_size=(1, 1), stride=(1, 1), bias=False)
          )
        )
      )
    )
    (channel_adjusting_conv): Conv2d(128, 64, kernel_size=(1, 1), stride=(1, 1))
  )
  (VQ): VectorQuantizer(
    (E): Embedding(2048, 64)
  )
  (decoder): Decoder(
    (channel_adjusting_conv): Conv2d(64, 128, kernel_size=(3, 3), stride=(1, 1), padding=(1, 1))
    (residual_stack): ResidualStack(
      (residual_blocks): ModuleList(
        (0): Residual(
          (residual_block): Sequential(
            (0): ReLU(inplace=True)
            (1): Conv2d(128, 32, kernel_size=(3, 3), stride=(1, 1), padding=(1, 1), bias=False)
            (2): ReLU(inplace=True)
            (3): Conv2d(32, 128, kernel_size=(1, 1), stride=(1, 1), bias=False)
          )
        )
        (1): Residual(
          (residual_block): Sequential(
            (0): ReLU(inplace=True)
            (1): Conv2d(128, 32, kernel_size=(3, 3), stride=(1, 1), padding=(1, 1), bias=False)
            (2): ReLU(inplace=True)
            (3): Conv2d(32, 128, kernel_size=(1, 1), stride=(1, 1), bias=False)
          )
        )
      )
    )
    (sequential_trans_convs): Sequential(
      (conv2d_1): ConvTranspose2d(128, 64, kernel_size=(4, 4), stride=(2, 2), padding=(1, 1))
      (ReLU_1): ReLU(inplace=True)
      (conv2d_2): ConvTranspose2d(64, 32, kernel_size=(4, 4), stride=(2, 2), padding=(1, 1))
      (ReLU_2): ReLU(inplace=True)
      (conv2d_3): ConvTranspose2d(32, 3, kernel_size=(4, 4), stride=(2, 2), padding=(1, 1))
    )
  )
)


 Total Trainable Params in thousands: 847 

                                                         Module Name  # of params in thousands  # of params [%]
0                           encoder.sequential_convs.conv2d_1.weight                         1             0.12
1                           encoder.sequential_convs.conv2d_2.weight                        32             3.78
…
Finished [12:06:36 01.01.2023] 201) Finished running for K = 2048 & D = 64 & M = 7 & beta = 0.25 & max_channel_number = 128 (i.e. bits = 704) change_channel_size_across_layers = True:
Total training time is = 0:7:9 h/m/s. 

--------------------------------------------------- 

Started [12:06:36 01.01.2023] 202) Finished running for K = 2048 & D = 64 & M = 7 & beta = 0.25 & max_channel_number = 256 (i.e. bits = 704) change_channel_size_across_layers = True:

--------------------------------------------------- 


 PyTorch print of the model:

VQ_VAE(
  (encoder): Encoder(
    (sequential_convs): Sequential(
      (conv2d_1): Conv2d(3, 64, kernel_size=(4, 4), stride=(2, 2), padding=(1, 1))
      (ReLU_1): ReLU(inplace=True)
      (conv2d_2): Conv2d(64, 128, kernel_size=(4, 4), stride=(2, 2), padding=(1, 1))
      (ReLU_2): ReLU(inplace=True)
      (conv2d_3): Conv2d(128, 256, kernel_size=(4, 4), stride=(2, 2), padding=(1, 1))
      (ReLU_3): ReLU(inplace=True)
    )
    (pre_residual_stack): Conv2d(256, 256, kernel_size=(3, 3), stride=(1, 1), padding=(1, 1))
    (residual_stack): ResidualStack(
      (residual_blocks): ModuleList(
        (0): Residual(
          (residual_block): Sequential(
            (0): ReLU(inplace=True)
            (1): Conv2d(256, 32, kernel_size=(3, 3), stride=(1, 1), padding=(1, 1), bias=False)
            (2): ReLU(inplace=True)
            (3): Conv2d(32, 256, kernel_size=(1, 1), stride=(1, 1), bias=False)
          )
        )
        (1): Residual(
          (residual_block): Sequential(
            (0): ReLU(inplace=True)
            (1): Conv2d(256, 32, kernel_size=(3, 3), stride=(1, 1), padding=(1, 1), bias=False)
            (2): ReLU(inplace=True)
            (3): Conv2d(32, 256, kernel_size=(1, 1), stride=(1, 1), bias=False)
          )
        )
      )
    )
    (channel_adjusting_conv): Conv2d(256, 64, kernel_size=(1, 1), stride=(1, 1))
  )
  (VQ): VectorQuantizer(
    (E): Embedding(2048, 64)
  )
  (decoder): Decoder(
    (channel_adjusting_conv): Conv2d(64, 256, kernel_size=(3, 3), stride=(1, 1), padding=(1, 1))
    (residual_stack): ResidualStack(
      (residual_blocks): ModuleList(
        (0): Residual(
          (residual_block): Sequential(
            (0): ReLU(inplace=True)
            (1): Conv2d(256, 32, kernel_size=(3, 3), stride=(1, 1), padding=(1, 1), bias=False)
            (2): ReLU(inplace=True)
            (3): Conv2d(32, 256, kernel_size=(1, 1), stride=(1, 1), bias=False)
          )
        )
        (1): Residual(
          (residual_block): Sequential(
            (0): ReLU(inplace=True)
            (1): Conv2d(256, 32, kernel_size=(3, 3), stride=(1, 1), padding=(1, 1), bias=False)
            (2): ReLU(inplace=True)
            (3): Conv2d(32, 256, kernel_size=(1, 1), stride=(1, 1), bias=False)
          )
        )
      )
    )
    (sequential_trans_convs): Sequential(
      (conv2d_1): ConvTranspose2d(256, 128, kernel_size=(4, 4), stride=(2, 2), padding=(1, 1))
      (ReLU_1): ReLU(inplace=True)
      (conv2d_2): ConvTranspose2d(128, 64, kernel_size=(4, 4), stride=(2, 2), padding=(1, 1))
      (ReLU_2): ReLU(inplace=True)
      (conv2d_3): ConvTranspose2d(64, 3, kernel_size=(4, 4), stride=(2, 2), padding=(1, 1))
    )
  )
)


 Total Trainable Params in thousands: 2523 

                                                         Module Name  # of params in thousands  # of params [%]
0                           encoder.sequential_convs.conv2d_1.weight                         3             0.12
1                           encoder.sequential_convs.conv2d_2.weight                       131             5.19
…
Finished [13:14:26 01.01.2023] 202) Finished running for K = 2048 & D = 64 & M = 7 & beta = 0.25 & max_channel_number = 256 (i.e. bits = 704) change_channel_size_across_layers = True:
Total training time is = 0:7:49 h/m/s. 

--------------------------------------------------- 

Started [13:14:26 01.01.2023] 203) Finished running for K = 2048 & D = 64 & M = 7 & beta = 0.25 & max_channel_number = 128 (i.e. bits = 704) change_channel_size_across_layers = False:

--------------------------------------------------- 


 PyTorch print of the model:

VQ_VAE(
  (encoder): Encoder(
    (sequential_convs): Sequential(
      (conv2d_1): Conv2d(3, 128, kernel_size=(4, 4), stride=(2, 2), padding=(1, 1))
      (ReLU_1): ReLU(inplace=True)
      (conv2d_2): Conv2d(128, 128, kernel_size=(4, 4), stride=(2, 2), padding=(1, 1))
      (ReLU_2): ReLU(inplace=True)
      (conv2d_3): Conv2d(128, 128, kernel_size=(4, 4), stride=(2, 2), padding=(1, 1))
      (ReLU_3): ReLU(inplace=True)
    )
    (pre_residual_stack): Conv2d(128, 128, kernel_size=(3, 3), stride=(1, 1), padding=(1, 1))
    (residual_stack): ResidualStack(
      (residual_blocks): ModuleList(
        (0): Residual(
          (residual_block): Sequential(
            (0): ReLU(inplace=True)
            (1): Conv2d(128, 32, kernel_size=(3, 3), stride=(1, 1), padding=(1, 1), bias=False)
            (2): ReLU(inplace=True)
            (3): Conv2d(32, 128, kernel_size=(1, 1), stride=(1, 1), bias=False)
          )
        )
        (1): Residual(
          (residual_block): Sequential(
            (0): ReLU(inplace=True)
            (1): Conv2d(128, 32, kernel_size=(3, 3), stride=(1, 1), padding=(1, 1), bias=False)
            (2): ReLU(inplace=True)
            (3): Conv2d(32, 128, kernel_size=(1, 1), stride=(1, 1), bias=False)
          )
        )
      )
    )
    (channel_adjusting_conv): Conv2d(128, 64, kernel_size=(1, 1), stride=(1, 1))
  )
  (VQ): VectorQuantizer(
    (E): Embedding(2048, 64)
  )
  (decoder): Decoder(
    (channel_adjusting_conv): Conv2d(64, 128, kernel_size=(3, 3), stride=(1, 1), padding=(1, 1))
    (residual_stack): ResidualStack(
      (residual_blocks): ModuleList(
        (0): Residual(
          (residual_block): Sequential(
            (0): ReLU(inplace=True)
            (1): Conv2d(128, 32, kernel_size=(3, 3), stride=(1, 1), padding=(1, 1), bias=False)
            (2): ReLU(inplace=True)
            (3): Conv2d(32, 128, kernel_size=(1, 1), stride=(1, 1), bias=False)
          )
        )
        (1): Residual(
          (residual_block): Sequential(
            (0): ReLU(inplace=True)
            (1): Conv2d(128, 32, kernel_size=(3, 3), stride=(1, 1), padding=(1, 1), bias=False)
            (2): ReLU(inplace=True)
            (3): Conv2d(32, 128, kernel_size=(1, 1), stride=(1, 1), bias=False)
          )
        )
      )
    )
    (sequential_trans_convs): Sequential(
      (conv2d_1): ConvTranspose2d(128, 128, kernel_size=(4, 4), stride=(2, 2), padding=(1, 1))
      (ReLU_1): ReLU(inplace=True)
      (conv2d_2): ConvTranspose2d(128, 128, kernel_size=(4, 4), stride=(2, 2), padding=(1, 1))
      (ReLU_2): ReLU(inplace=True)
      (conv2d_3): ConvTranspose2d(128, 3, kernel_size=(4, 4), stride=(2, 2), padding=(1, 1))
    )
  )
)


 Total Trainable Params in thousands: 1579 

                                                         Module Name  # of params in thousands  # of params [%]
0                           encoder.sequential_convs.conv2d_1.weight                         6             0.38
1                           encoder.sequential_convs.conv2d_2.weight                       262            16.59
…
Finished [14:22:52 01.01.2023] 203) Finished running for K = 2048 & D = 64 & M = 7 & beta = 0.25 & max_channel_number = 128 (i.e. bits = 704) change_channel_size_across_layers = False:
Total training time is = 0:7:25 h/m/s. 

--------------------------------------------------- 

Started [14:22:52 01.01.2023] 204) Finished running for K = 2048 & D = 64 & M = 7 & beta = 0.25 & max_channel_number = 256 (i.e. bits = 704) change_channel_size_across_layers = False:

--------------------------------------------------- 


 PyTorch print of the model:

VQ_VAE(
  (encoder): Encoder(
    (sequential_convs): Sequential(
      (conv2d_1): Conv2d(3, 256, kernel_size=(4, 4), stride=(2, 2), padding=(1, 1))
      (ReLU_1): ReLU(inplace=True)
      (conv2d_2): Conv2d(256, 256, kernel_size=(4, 4), stride=(2, 2), padding=(1, 1))
      (ReLU_2): ReLU(inplace=True)
      (conv2d_3): Conv2d(256, 256, kernel_size=(4, 4), stride=(2, 2), padding=(1, 1))
      (ReLU_3): ReLU(inplace=True)
    )
    (pre_residual_stack): Conv2d(256, 256, kernel_size=(3, 3), stride=(1, 1), padding=(1, 1))
    (residual_stack): ResidualStack(
      (residual_blocks): ModuleList(
        (0): Residual(
          (residual_block): Sequential(
            (0): ReLU(inplace=True)
            (1): Conv2d(256, 32, kernel_size=(3, 3), stride=(1, 1), padding=(1, 1), bias=False)
            (2): ReLU(inplace=True)
            (3): Conv2d(32, 256, kernel_size=(1, 1), stride=(1, 1), bias=False)
          )
        )
        (1): Residual(
          (residual_block): Sequential(
            (0): ReLU(inplace=True)
            (1): Conv2d(256, 32, kernel_size=(3, 3), stride=(1, 1), padding=(1, 1), bias=False)
            (2): ReLU(inplace=True)
            (3): Conv2d(32, 256, kernel_size=(1, 1), stride=(1, 1), bias=False)
          )
        )
      )
    )
    (channel_adjusting_conv): Conv2d(256, 64, kernel_size=(1, 1), stride=(1, 1))
  )
  (VQ): VectorQuantizer(
    (E): Embedding(2048, 64)
  )
  (decoder): Decoder(
    (channel_adjusting_conv): Conv2d(64, 256, kernel_size=(3, 3), stride=(1, 1), padding=(1, 1))
    (residual_stack): ResidualStack(
      (residual_blocks): ModuleList(
        (0): Residual(
          (residual_block): Sequential(
            (0): ReLU(inplace=True)
            (1): Conv2d(256, 32, kernel_size=(3, 3), stride=(1, 1), padding=(1, 1), bias=False)
            (2): ReLU(inplace=True)
            (3): Conv2d(32, 256, kernel_size=(1, 1), stride=(1, 1), bias=False)
          )
        )
        (1): Residual(
          (residual_block): Sequential(
            (0): ReLU(inplace=True)
            (1): Conv2d(256, 32, kernel_size=(3, 3), stride=(1, 1), padding=(1, 1), bias=False)
            (2): ReLU(inplace=True)
            (3): Conv2d(32, 256, kernel_size=(1, 1), stride=(1, 1), bias=False)
          )
        )
      )
    )
    (sequential_trans_convs): Sequential(
      (conv2d_1): ConvTranspose2d(256, 256, kernel_size=(4, 4), stride=(2, 2), padding=(1, 1))
      (ReLU_1): ReLU(inplace=True)
      (conv2d_2): ConvTranspose2d(256, 256, kernel_size=(4, 4), stride=(2, 2), padding=(1, 1))
      (ReLU_2): ReLU(inplace=True)
      (conv2d_3): ConvTranspose2d(256, 3, kernel_size=(4, 4), stride=(2, 2), padding=(1, 1))
    )
  )
)


 Total Trainable Params in thousands: 5423 

                                                         Module Name  # of params in thousands  # of params [%]
0                           encoder.sequential_convs.conv2d_1.weight                        12             0.22
1                           encoder.sequential_convs.conv2d_2.weight                      1048            19.33
…
Finished [16:41:41 01.01.2023] 204) Finished running for K = 2048 & D = 64 & M = 7 & beta = 0.25 & max_channel_number = 256 (i.e. bits = 704) change_channel_size_across_layers = False:
Total training time is = 0:7:49 h/m/s. 

--------------------------------------------------- 

Started [16:41:41 01.01.2023] 205) Finished running for K = 2048 & D = 64 & M = 3 & beta = 0.25 & max_channel_number = 128 (i.e. bits = 176) change_channel_size_across_layers = True:

--------------------------------------------------- 


 PyTorch print of the model:

VQ_VAE(
  (encoder): Encoder(
    (sequential_convs): Sequential(
      (conv2d_1): Conv2d(3, 16, kernel_size=(4, 4), stride=(2, 2), padding=(1, 1))
      (ReLU_1): ReLU(inplace=True)
      (conv2d_2): Conv2d(16, 32, kernel_size=(4, 4), stride=(2, 2), padding=(1, 1))
      (ReLU_2): ReLU(inplace=True)
      (conv2d_3): Conv2d(32, 64, kernel_size=(4, 4), stride=(2, 2), padding=(1, 1))
      (ReLU_3): ReLU(inplace=True)
      (conv2d_4): Conv2d(64, 128, kernel_size=(4, 4), stride=(2, 2), padding=(1, 1))
      (ReLU_4): ReLU(inplace=True)
    )
    (pre_residual_stack): Conv2d(128, 128, kernel_size=(3, 3), stride=(1, 1), padding=(1, 1))
    (residual_stack): ResidualStack(
      (residual_blocks): ModuleList(
        (0): Residual(
          (residual_block): Sequential(
            (0): ReLU(inplace=True)
            (1): Conv2d(128, 32, kernel_size=(3, 3), stride=(1, 1), padding=(1, 1), bias=False)
            (2): ReLU(inplace=True)
            (3): Conv2d(32, 128, kernel_size=(1, 1), stride=(1, 1), bias=False)
          )
        )
        (1): Residual(
          (residual_block): Sequential(
            (0): ReLU(inplace=True)
            (1): Conv2d(128, 32, kernel_size=(3, 3), stride=(1, 1), padding=(1, 1), bias=False)
            (2): ReLU(inplace=True)
            (3): Conv2d(32, 128, kernel_size=(1, 1), stride=(1, 1), bias=False)
          )
        )
      )
    )
    (channel_adjusting_conv): Conv2d(128, 64, kernel_size=(1, 1), stride=(1, 1))
  )
  (VQ): VectorQuantizer(
    (E): Embedding(2048, 64)
  )
  (decoder): Decoder(
    (channel_adjusting_conv): Conv2d(64, 128, kernel_size=(3, 3), stride=(1, 1), padding=(1, 1))
    (residual_stack): ResidualStack(
      (residual_blocks): ModuleList(
        (0): Residual(
          (residual_block): Sequential(
            (0): ReLU(inplace=True)
            (1): Conv2d(128, 32, kernel_size=(3, 3), stride=(1, 1), padding=(1, 1), bias=False)
            (2): ReLU(inplace=True)
            (3): Conv2d(32, 128, kernel_size=(1, 1), stride=(1, 1), bias=False)
          )
        )
        (1): Residual(
          (residual_block): Sequential(
            (0): ReLU(inplace=True)
            (1): Conv2d(128, 32, kernel_size=(3, 3), stride=(1, 1), padding=(1, 1), bias=False)
            (2): ReLU(inplace=True)
            (3): Conv2d(32, 128, kernel_size=(1, 1), stride=(1, 1), bias=False)
          )
        )
      )
    )
    (sequential_trans_convs): Sequential(
      (conv2d_1): ConvTranspose2d(128, 64, kernel_size=(4, 4), stride=(2, 2), padding=(1, 1))
      (ReLU_1): ReLU(inplace=True)
      (conv2d_2): ConvTranspose2d(64, 32, kernel_size=(4, 4), stride=(2, 2), padding=(1, 1))
      (ReLU_2): ReLU(inplace=True)
      (conv2d_3): ConvTranspose2d(32, 16, kernel_size=(4, 4), stride=(2, 2), padding=(1, 1))
      (ReLU_3): ReLU(inplace=True)
      (conv2d_4): ConvTranspose2d(16, 3, kernel_size=(4, 4), stride=(2, 2), padding=(1, 1))
    )
  )
)


 Total Trainable Params in thousands: 861 

                                                         Module Name  # of params in thousands  # of params [%]
0                           encoder.sequential_convs.conv2d_1.weight                         0             0.00
1                           encoder.sequential_convs.conv2d_2.weight                         8             0.93
…
Finished [17:29:49 01.01.2023] 205) Finished running for K = 2048 & D = 64 & M = 3 & beta = 0.25 & max_channel_number = 128 (i.e. bits = 176) change_channel_size_across_layers = True:
Total training time is = 0:3:7 h/m/s. 

--------------------------------------------------- 

Started [17:29:49 01.01.2023] 206) Finished running for K = 2048 & D = 64 & M = 3 & beta = 0.25 & max_channel_number = 256 (i.e. bits = 176) change_channel_size_across_layers = True:

--------------------------------------------------- 


 PyTorch print of the model:

VQ_VAE(
  (encoder): Encoder(
    (sequential_convs): Sequential(
      (conv2d_1): Conv2d(3, 32, kernel_size=(4, 4), stride=(2, 2), padding=(1, 1))
      (ReLU_1): ReLU(inplace=True)
      (conv2d_2): Conv2d(32, 64, kernel_size=(4, 4), stride=(2, 2), padding=(1, 1))
      (ReLU_2): ReLU(inplace=True)
      (conv2d_3): Conv2d(64, 128, kernel_size=(4, 4), stride=(2, 2), padding=(1, 1))
      (ReLU_3): ReLU(inplace=True)
      (conv2d_4): Conv2d(128, 256, kernel_size=(4, 4), stride=(2, 2), padding=(1, 1))
      (ReLU_4): ReLU(inplace=True)
    )
    (pre_residual_stack): Conv2d(256, 256, kernel_size=(3, 3), stride=(1, 1), padding=(1, 1))
    (residual_stack): ResidualStack(
      (residual_blocks): ModuleList(
        (0): Residual(
          (residual_block): Sequential(
            (0): ReLU(inplace=True)
            (1): Conv2d(256, 32, kernel_size=(3, 3), stride=(1, 1), padding=(1, 1), bias=False)
            (2): ReLU(inplace=True)
            (3): Conv2d(32, 256, kernel_size=(1, 1), stride=(1, 1), bias=False)
          )
        )
        (1): Residual(
          (residual_block): Sequential(
            (0): ReLU(inplace=True)
            (1): Conv2d(256, 32, kernel_size=(3, 3), stride=(1, 1), padding=(1, 1), bias=False)
            (2): ReLU(inplace=True)
            (3): Conv2d(32, 256, kernel_size=(1, 1), stride=(1, 1), bias=False)
          )
        )
      )
    )
    (channel_adjusting_conv): Conv2d(256, 64, kernel_size=(1, 1), stride=(1, 1))
  )
  (VQ): VectorQuantizer(
    (E): Embedding(2048, 64)
  )
  (decoder): Decoder(
    (channel_adjusting_conv): Conv2d(64, 256, kernel_size=(3, 3), stride=(1, 1), padding=(1, 1))
    (residual_stack): ResidualStack(
      (residual_blocks): ModuleList(
        (0): Residual(
          (residual_block): Sequential(
            (0): ReLU(inplace=True)
            (1): Conv2d(256, 32, kernel_size=(3, 3), stride=(1, 1), padding=(1, 1), bias=False)
            (2): ReLU(inplace=True)
            (3): Conv2d(32, 256, kernel_size=(1, 1), stride=(1, 1), bias=False)
          )
        )
        (1): Residual(
          (residual_block): Sequential(
            (0): ReLU(inplace=True)
            (1): Conv2d(256, 32, kernel_size=(3, 3), stride=(1, 1), padding=(1, 1), bias=False)
            (2): ReLU(inplace=True)
            (3): Conv2d(32, 256, kernel_size=(1, 1), stride=(1, 1), bias=False)
          )
        )
      )
    )
    (sequential_trans_convs): Sequential(
      (conv2d_1): ConvTranspose2d(256, 128, kernel_size=(4, 4), stride=(2, 2), padding=(1, 1))
      (ReLU_1): ReLU(inplace=True)
      (conv2d_2): ConvTranspose2d(128, 64, kernel_size=(4, 4), stride=(2, 2), padding=(1, 1))
      (ReLU_2): ReLU(inplace=True)
      (conv2d_3): ConvTranspose2d(64, 32, kernel_size=(4, 4), stride=(2, 2), padding=(1, 1))
      (ReLU_3): ReLU(inplace=True)
      (conv2d_4): ConvTranspose2d(32, 3, kernel_size=(4, 4), stride=(2, 2), padding=(1, 1))
    )
  )
)


 Total Trainable Params in thousands: 2583 

                                                         Module Name  # of params in thousands  # of params [%]
0                           encoder.sequential_convs.conv2d_1.weight                         1             0.04
1                           encoder.sequential_convs.conv2d_2.weight                        32             1.24
…
Finished [18:19:30 01.01.2023] 206) Finished running for K = 2048 & D = 64 & M = 3 & beta = 0.25 & max_channel_number = 256 (i.e. bits = 176) change_channel_size_across_layers = True:
Total training time is = 0:3:41 h/m/s. 

--------------------------------------------------- 

Started [18:19:30 01.01.2023] 207) Finished running for K = 2048 & D = 64 & M = 3 & beta = 0.25 & max_channel_number = 128 (i.e. bits = 176) change_channel_size_across_layers = False:

--------------------------------------------------- 


 PyTorch print of the model:

VQ_VAE(
  (encoder): Encoder(
    (sequential_convs): Sequential(
      (conv2d_1): Conv2d(3, 128, kernel_size=(4, 4), stride=(2, 2), padding=(1, 1))
      (ReLU_1): ReLU(inplace=True)
      (conv2d_2): Conv2d(128, 128, kernel_size=(4, 4), stride=(2, 2), padding=(1, 1))
      (ReLU_2): ReLU(inplace=True)
      (conv2d_3): Conv2d(128, 128, kernel_size=(4, 4), stride=(2, 2), padding=(1, 1))
      (ReLU_3): ReLU(inplace=True)
      (conv2d_4): Conv2d(128, 128, kernel_size=(4, 4), stride=(2, 2), padding=(1, 1))
      (ReLU_4): ReLU(inplace=True)
    )
    (pre_residual_stack): Conv2d(128, 128, kernel_size=(3, 3), stride=(1, 1), padding=(1, 1))
    (residual_stack): ResidualStack(
      (residual_blocks): ModuleList(
        (0): Residual(
          (residual_block): Sequential(
            (0): ReLU(inplace=True)
            (1): Conv2d(128, 32, kernel_size=(3, 3), stride=(1, 1), padding=(1, 1), bias=False)
            (2): ReLU(inplace=True)
            (3): Conv2d(32, 128, kernel_size=(1, 1), stride=(1, 1), bias=False)
          )
        )
        (1): Residual(
          (residual_block): Sequential(
            (0): ReLU(inplace=True)
            (1): Conv2d(128, 32, kernel_size=(3, 3), stride=(1, 1), padding=(1, 1), bias=False)
            (2): ReLU(inplace=True)
            (3): Conv2d(32, 128, kernel_size=(1, 1), stride=(1, 1), bias=False)
          )
        )
      )
    )
    (channel_adjusting_conv): Conv2d(128, 64, kernel_size=(1, 1), stride=(1, 1))
  )
  (VQ): VectorQuantizer(
    (E): Embedding(2048, 64)
  )
  (decoder): Decoder(
    (channel_adjusting_conv): Conv2d(64, 128, kernel_size=(3, 3), stride=(1, 1), padding=(1, 1))
    (residual_stack): ResidualStack(
      (residual_blocks): ModuleList(
        (0): Residual(
          (residual_block): Sequential(
            (0): ReLU(inplace=True)
            (1): Conv2d(128, 32, kernel_size=(3, 3), stride=(1, 1), padding=(1, 1), bias=False)
            (2): ReLU(inplace=True)
            (3): Conv2d(32, 128, kernel_size=(1, 1), stride=(1, 1), bias=False)
          )
        )
        (1): Residual(
          (residual_block): Sequential(
            (0): ReLU(inplace=True)
            (1): Conv2d(128, 32, kernel_size=(3, 3), stride=(1, 1), padding=(1, 1), bias=False)
            (2): ReLU(inplace=True)
            (3): Conv2d(32, 128, kernel_size=(1, 1), stride=(1, 1), bias=False)
          )
        )
      )
    )
    (sequential_trans_convs): Sequential(
      (conv2d_1): ConvTranspose2d(128, 128, kernel_size=(4, 4), stride=(2, 2), padding=(1, 1))
      (ReLU_1): ReLU(inplace=True)
      (conv2d_2): ConvTranspose2d(128, 128, kernel_size=(4, 4), stride=(2, 2), padding=(1, 1))
      (ReLU_2): ReLU(inplace=True)
      (conv2d_3): ConvTranspose2d(128, 128, kernel_size=(4, 4), stride=(2, 2), padding=(1, 1))
      (ReLU_3): ReLU(inplace=True)
      (conv2d_4): ConvTranspose2d(128, 3, kernel_size=(4, 4), stride=(2, 2), padding=(1, 1))
    )
  )
)


 Total Trainable Params in thousands: 2103 

                                                         Module Name  # of params in thousands  # of params [%]
0                           encoder.sequential_convs.conv2d_1.weight                         6             0.29
1                           encoder.sequential_convs.conv2d_2.weight                       262            12.46
…
Finished [19:24:43 01.01.2023] 207) Finished running for K = 2048 & D = 64 & M = 3 & beta = 0.25 & max_channel_number = 128 (i.e. bits = 176) change_channel_size_across_layers = False:
Total training time is = 0:3:13 h/m/s. 

--------------------------------------------------- 

Started [19:24:43 01.01.2023] 208) Finished running for K = 2048 & D = 64 & M = 3 & beta = 0.25 & max_channel_number = 256 (i.e. bits = 176) change_channel_size_across_layers = False:

--------------------------------------------------- 


 PyTorch print of the model:

VQ_VAE(
  (encoder): Encoder(
    (sequential_convs): Sequential(
      (conv2d_1): Conv2d(3, 256, kernel_size=(4, 4), stride=(2, 2), padding=(1, 1))
      (ReLU_1): ReLU(inplace=True)
      (conv2d_2): Conv2d(256, 256, kernel_size=(4, 4), stride=(2, 2), padding=(1, 1))
      (ReLU_2): ReLU(inplace=True)
      (conv2d_3): Conv2d(256, 256, kernel_size=(4, 4), stride=(2, 2), padding=(1, 1))
      (ReLU_3): ReLU(inplace=True)
      (conv2d_4): Conv2d(256, 256, kernel_size=(4, 4), stride=(2, 2), padding=(1, 1))
      (ReLU_4): ReLU(inplace=True)
    )
    (pre_residual_stack): Conv2d(256, 256, kernel_size=(3, 3), stride=(1, 1), padding=(1, 1))
    (residual_stack): ResidualStack(
      (residual_blocks): ModuleList(
        (0): Residual(
          (residual_block): Sequential(
            (0): ReLU(inplace=True)
            (1): Conv2d(256, 32, kernel_size=(3, 3), stride=(1, 1), padding=(1, 1), bias=False)
            (2): ReLU(inplace=True)
            (3): Conv2d(32, 256, kernel_size=(1, 1), stride=(1, 1), bias=False)
          )
        )
        (1): Residual(
          (residual_block): Sequential(
            (0): ReLU(inplace=True)
            (1): Conv2d(256, 32, kernel_size=(3, 3), stride=(1, 1), padding=(1, 1), bias=False)
            (2): ReLU(inplace=True)
            (3): Conv2d(32, 256, kernel_size=(1, 1), stride=(1, 1), bias=False)
          )
        )
      )
    )
    (channel_adjusting_conv): Conv2d(256, 64, kernel_size=(1, 1), stride=(1, 1))
  )
  (VQ): VectorQuantizer(
    (E): Embedding(2048, 64)
  )
  (decoder): Decoder(
    (channel_adjusting_conv): Conv2d(64, 256, kernel_size=(3, 3), stride=(1, 1), padding=(1, 1))
    (residual_stack): ResidualStack(
      (residual_blocks): ModuleList(
        (0): Residual(
          (residual_block): Sequential(
            (0): ReLU(inplace=True)
            (1): Conv2d(256, 32, kernel_size=(3, 3), stride=(1, 1), padding=(1, 1), bias=False)
            (2): ReLU(inplace=True)
            (3): Conv2d(32, 256, kernel_size=(1, 1), stride=(1, 1), bias=False)
          )
        )
        (1): Residual(
          (residual_block): Sequential(
            (0): ReLU(inplace=True)
            (1): Conv2d(256, 32, kernel_size=(3, 3), stride=(1, 1), padding=(1, 1), bias=False)
            (2): ReLU(inplace=True)
            (3): Conv2d(32, 256, kernel_size=(1, 1), stride=(1, 1), bias=False)
          )
        )
      )
    )
    (sequential_trans_convs): Sequential(
      (conv2d_1): ConvTranspose2d(256, 256, kernel_size=(4, 4), stride=(2, 2), padding=(1, 1))
      (ReLU_1): ReLU(inplace=True)
      (conv2d_2): ConvTranspose2d(256, 256, kernel_size=(4, 4), stride=(2, 2), padding=(1, 1))
      (ReLU_2): ReLU(inplace=True)
      (conv2d_3): ConvTranspose2d(256, 256, kernel_size=(4, 4), stride=(2, 2), padding=(1, 1))
      (ReLU_3): ReLU(inplace=True)
      (conv2d_4): ConvTranspose2d(256, 3, kernel_size=(4, 4), stride=(2, 2), padding=(1, 1))
    )
  )
)


 Total Trainable Params in thousands: 7519 

                                                         Module Name  # of params in thousands  # of params [%]
0                           encoder.sequential_convs.conv2d_1.weight                        12             0.16
1                           encoder.sequential_convs.conv2d_2.weight                      1048            13.94
…
Finished [21:40:39 01.01.2023] 208) Finished running for K = 2048 & D = 64 & M = 3 & beta = 0.25 & max_channel_number = 256 (i.e. bits = 176) change_channel_size_across_layers = False:
Total training time is = 0:3:56 h/m/s. 

--------------------------------------------------- 

Started [21:40:39 01.01.2023] 209) Finished running for K = 2048 & D = 64 & M = 1 & beta = 0.25 & max_channel_number = 128 (i.e. bits = 44) change_channel_size_across_layers = True:

--------------------------------------------------- 


 PyTorch print of the model:

VQ_VAE(
  (encoder): Encoder(
    (sequential_convs): Sequential(
      (conv2d_1): Conv2d(3, 8, kernel_size=(4, 4), stride=(2, 2), padding=(1, 1))
      (ReLU_1): ReLU(inplace=True)
      (conv2d_2): Conv2d(8, 16, kernel_size=(4, 4), stride=(2, 2), padding=(1, 1))
      (ReLU_2): ReLU(inplace=True)
      (conv2d_3): Conv2d(16, 32, kernel_size=(4, 4), stride=(2, 2), padding=(1, 1))
      (ReLU_3): ReLU(inplace=True)
      (conv2d_4): Conv2d(32, 64, kernel_size=(4, 4), stride=(2, 2), padding=(1, 1))
      (ReLU_4): ReLU(inplace=True)
      (conv2d_5): Conv2d(64, 128, kernel_size=(4, 4), stride=(2, 2), padding=(1, 1))
      (ReLU_5): ReLU(inplace=True)
    )
    (pre_residual_stack): Conv2d(128, 128, kernel_size=(3, 3), stride=(1, 1), padding=(1, 1))
    (residual_stack): ResidualStack(
      (residual_blocks): ModuleList(
        (0): Residual(
          (residual_block): Sequential(
            (0): ReLU(inplace=True)
            (1): Conv2d(128, 32, kernel_size=(3, 3), stride=(1, 1), padding=(1, 1), bias=False)
            (2): ReLU(inplace=True)
            (3): Conv2d(32, 128, kernel_size=(1, 1), stride=(1, 1), bias=False)
          )
        )
        (1): Residual(
          (residual_block): Sequential(
            (0): ReLU(inplace=True)
            (1): Conv2d(128, 32, kernel_size=(3, 3), stride=(1, 1), padding=(1, 1), bias=False)
            (2): ReLU(inplace=True)
            (3): Conv2d(32, 128, kernel_size=(1, 1), stride=(1, 1), bias=False)
          )
        )
      )
    )
    (channel_adjusting_conv): Conv2d(128, 64, kernel_size=(1, 1), stride=(1, 1))
  )
  (VQ): VectorQuantizer(
    (E): Embedding(2048, 64)
  )
  (decoder): Decoder(
    (channel_adjusting_conv): Conv2d(64, 128, kernel_size=(3, 3), stride=(1, 1), padding=(1, 1))
    (residual_stack): ResidualStack(
      (residual_blocks): ModuleList(
        (0): Residual(
          (residual_block): Sequential(
            (0): ReLU(inplace=True)
            (1): Conv2d(128, 32, kernel_size=(3, 3), stride=(1, 1), padding=(1, 1), bias=False)
            (2): ReLU(inplace=True)
            (3): Conv2d(32, 128, kernel_size=(1, 1), stride=(1, 1), bias=False)
          )
        )
        (1): Residual(
          (residual_block): Sequential(
            (0): ReLU(inplace=True)
            (1): Conv2d(128, 32, kernel_size=(3, 3), stride=(1, 1), padding=(1, 1), bias=False)
            (2): ReLU(inplace=True)
            (3): Conv2d(32, 128, kernel_size=(1, 1), stride=(1, 1), bias=False)
          )
        )
      )
    )
    (sequential_trans_convs): Sequential(
      (conv2d_1): ConvTranspose2d(128, 64, kernel_size=(4, 4), stride=(2, 2), padding=(1, 1))
      (ReLU_1): ReLU(inplace=True)
      (conv2d_2): ConvTranspose2d(64, 32, kernel_size=(4, 4), stride=(2, 2), padding=(1, 1))
      (ReLU_2): ReLU(inplace=True)
      (conv2d_3): ConvTranspose2d(32, 16, kernel_size=(4, 4), stride=(2, 2), padding=(1, 1))
      (ReLU_3): ReLU(inplace=True)
      (conv2d_4): ConvTranspose2d(16, 8, kernel_size=(4, 4), stride=(2, 2), padding=(1, 1))
      (ReLU_4): ReLU(inplace=True)
      (conv2d_5): ConvTranspose2d(8, 3, kernel_size=(4, 4), stride=(2, 2), padding=(1, 1))
    )
  )
)


 Total Trainable Params in thousands: 865 

                                                         Module Name  # of params in thousands  # of params [%]
0                           encoder.sequential_convs.conv2d_1.weight                         0             0.00
1                           encoder.sequential_convs.conv2d_2.weight                         2             0.23
…
Finished [22:31:53 01.01.2023] 209) Finished running for K = 2048 & D = 64 & M = 1 & beta = 0.25 & max_channel_number = 128 (i.e. bits = 44) change_channel_size_across_layers = True:
Total training time is = 0:1:13 h/m/s. 

--------------------------------------------------- 

Started [22:31:53 01.01.2023] 210) Finished running for K = 2048 & D = 64 & M = 1 & beta = 0.25 & max_channel_number = 256 (i.e. bits = 44) change_channel_size_across_layers = True:

--------------------------------------------------- 


 PyTorch print of the model:

VQ_VAE(
  (encoder): Encoder(
    (sequential_convs): Sequential(
      (conv2d_1): Conv2d(3, 16, kernel_size=(4, 4), stride=(2, 2), padding=(1, 1))
      (ReLU_1): ReLU(inplace=True)
      (conv2d_2): Conv2d(16, 32, kernel_size=(4, 4), stride=(2, 2), padding=(1, 1))
      (ReLU_2): ReLU(inplace=True)
      (conv2d_3): Conv2d(32, 64, kernel_size=(4, 4), stride=(2, 2), padding=(1, 1))
      (ReLU_3): ReLU(inplace=True)
      (conv2d_4): Conv2d(64, 128, kernel_size=(4, 4), stride=(2, 2), padding=(1, 1))
      (ReLU_4): ReLU(inplace=True)
      (conv2d_5): Conv2d(128, 256, kernel_size=(4, 4), stride=(2, 2), padding=(1, 1))
      (ReLU_5): ReLU(inplace=True)
    )
    (pre_residual_stack): Conv2d(256, 256, kernel_size=(3, 3), stride=(1, 1), padding=(1, 1))
    (residual_stack): ResidualStack(
      (residual_blocks): ModuleList(
        (0): Residual(
          (residual_block): Sequential(
            (0): ReLU(inplace=True)
            (1): Conv2d(256, 32, kernel_size=(3, 3), stride=(1, 1), padding=(1, 1), bias=False)
            (2): ReLU(inplace=True)
            (3): Conv2d(32, 256, kernel_size=(1, 1), stride=(1, 1), bias=False)
          )
        )
        (1): Residual(
          (residual_block): Sequential(
            (0): ReLU(inplace=True)
            (1): Conv2d(256, 32, kernel_size=(3, 3), stride=(1, 1), padding=(1, 1), bias=False)
            (2): ReLU(inplace=True)
            (3): Conv2d(32, 256, kernel_size=(1, 1), stride=(1, 1), bias=False)
          )
        )
      )
    )
    (channel_adjusting_conv): Conv2d(256, 64, kernel_size=(1, 1), stride=(1, 1))
  )
  (VQ): VectorQuantizer(
    (E): Embedding(2048, 64)
  )
  (decoder): Decoder(
    (channel_adjusting_conv): Conv2d(64, 256, kernel_size=(3, 3), stride=(1, 1), padding=(1, 1))
    (residual_stack): ResidualStack(
      (residual_blocks): ModuleList(
        (0): Residual(
          (residual_block): Sequential(
            (0): ReLU(inplace=True)
            (1): Conv2d(256, 32, kernel_size=(3, 3), stride=(1, 1), padding=(1, 1), bias=False)
            (2): ReLU(inplace=True)
            (3): Conv2d(32, 256, kernel_size=(1, 1), stride=(1, 1), bias=False)
          )
        )
        (1): Residual(
          (residual_block): Sequential(
            (0): ReLU(inplace=True)
            (1): Conv2d(256, 32, kernel_size=(3, 3), stride=(1, 1), padding=(1, 1), bias=False)
            (2): ReLU(inplace=True)
            (3): Conv2d(32, 256, kernel_size=(1, 1), stride=(1, 1), bias=False)
          )
        )
      )
    )
    (sequential_trans_convs): Sequential(
      (conv2d_1): ConvTranspose2d(256, 128, kernel_size=(4, 4), stride=(2, 2), padding=(1, 1))
      (ReLU_1): ReLU(inplace=True)
      (conv2d_2): ConvTranspose2d(128, 64, kernel_size=(4, 4), stride=(2, 2), padding=(1, 1))
      (ReLU_2): ReLU(inplace=True)
      (conv2d_3): ConvTranspose2d(64, 32, kernel_size=(4, 4), stride=(2, 2), padding=(1, 1))
      (ReLU_3): ReLU(inplace=True)
      (conv2d_4): ConvTranspose2d(32, 16, kernel_size=(4, 4), stride=(2, 2), padding=(1, 1))
      (ReLU_4): ReLU(inplace=True)
      (conv2d_5): ConvTranspose2d(16, 3, kernel_size=(4, 4), stride=(2, 2), padding=(1, 1))
    )
  )
)


 Total Trainable Params in thousands: 2597 

                                                         Module Name  # of params in thousands  # of params [%]
0                           encoder.sequential_convs.conv2d_1.weight                         0             0.00
1                           encoder.sequential_convs.conv2d_2.weight                         8             0.31
…
Finished [23:22:34 01.01.2023] 210) Finished running for K = 2048 & D = 64 & M = 1 & beta = 0.25 & max_channel_number = 256 (i.e. bits = 44) change_channel_size_across_layers = True:
Total training time is = 0:1:40 h/m/s. 

--------------------------------------------------- 

Started [23:22:34 01.01.2023] 211) Finished running for K = 2048 & D = 64 & M = 1 & beta = 0.25 & max_channel_number = 128 (i.e. bits = 44) change_channel_size_across_layers = False:

--------------------------------------------------- 


 PyTorch print of the model:

VQ_VAE(
  (encoder): Encoder(
    (sequential_convs): Sequential(
      (conv2d_1): Conv2d(3, 128, kernel_size=(4, 4), stride=(2, 2), padding=(1, 1))
      (ReLU_1): ReLU(inplace=True)
      (conv2d_2): Conv2d(128, 128, kernel_size=(4, 4), stride=(2, 2), padding=(1, 1))
      (ReLU_2): ReLU(inplace=True)
      (conv2d_3): Conv2d(128, 128, kernel_size=(4, 4), stride=(2, 2), padding=(1, 1))
      (ReLU_3): ReLU(inplace=True)
      (conv2d_4): Conv2d(128, 128, kernel_size=(4, 4), stride=(2, 2), padding=(1, 1))
      (ReLU_4): ReLU(inplace=True)
      (conv2d_5): Conv2d(128, 128, kernel_size=(4, 4), stride=(2, 2), padding=(1, 1))
      (ReLU_5): ReLU(inplace=True)
    )
    (pre_residual_stack): Conv2d(128, 128, kernel_size=(3, 3), stride=(1, 1), padding=(1, 1))
    (residual_stack): ResidualStack(
      (residual_blocks): ModuleList(
        (0): Residual(
          (residual_block): Sequential(
            (0): ReLU(inplace=True)
            (1): Conv2d(128, 32, kernel_size=(3, 3), stride=(1, 1), padding=(1, 1), bias=False)
            (2): ReLU(inplace=True)
            (3): Conv2d(32, 128, kernel_size=(1, 1), stride=(1, 1), bias=False)
          )
        )
        (1): Residual(
          (residual_block): Sequential(
            (0): ReLU(inplace=True)
            (1): Conv2d(128, 32, kernel_size=(3, 3), stride=(1, 1), padding=(1, 1), bias=False)
            (2): ReLU(inplace=True)
            (3): Conv2d(32, 128, kernel_size=(1, 1), stride=(1, 1), bias=False)
          )
        )
      )
    )
    (channel_adjusting_conv): Conv2d(128, 64, kernel_size=(1, 1), stride=(1, 1))
  )
  (VQ): VectorQuantizer(
    (E): Embedding(2048, 64)
  )
  (decoder): Decoder(
    (channel_adjusting_conv): Conv2d(64, 128, kernel_size=(3, 3), stride=(1, 1), padding=(1, 1))
    (residual_stack): ResidualStack(
      (residual_blocks): ModuleList(
        (0): Residual(
          (residual_block): Sequential(
            (0): ReLU(inplace=True)
            (1): Conv2d(128, 32, kernel_size=(3, 3), stride=(1, 1), padding=(1, 1), bias=False)
            (2): ReLU(inplace=True)
            (3): Conv2d(32, 128, kernel_size=(1, 1), stride=(1, 1), bias=False)
          )
        )
        (1): Residual(
          (residual_block): Sequential(
            (0): ReLU(inplace=True)
            (1): Conv2d(128, 32, kernel_size=(3, 3), stride=(1, 1), padding=(1, 1), bias=False)
            (2): ReLU(inplace=True)
            (3): Conv2d(32, 128, kernel_size=(1, 1), stride=(1, 1), bias=False)
          )
        )
      )
    )
    (sequential_trans_convs): Sequential(
      (conv2d_1): ConvTranspose2d(128, 128, kernel_size=(4, 4), stride=(2, 2), padding=(1, 1))
      (ReLU_1): ReLU(inplace=True)
      (conv2d_2): ConvTranspose2d(128, 128, kernel_size=(4, 4), stride=(2, 2), padding=(1, 1))
      (ReLU_2): ReLU(inplace=True)
      (conv2d_3): ConvTranspose2d(128, 128, kernel_size=(4, 4), stride=(2, 2), padding=(1, 1))
      (ReLU_3): ReLU(inplace=True)
      (conv2d_4): ConvTranspose2d(128, 128, kernel_size=(4, 4), stride=(2, 2), padding=(1, 1))
      (ReLU_4): ReLU(inplace=True)
      (conv2d_5): ConvTranspose2d(128, 3, kernel_size=(4, 4), stride=(2, 2), padding=(1, 1))
    )
  )
)


 Total Trainable Params in thousands: 2627 

                                                         Module Name  # of params in thousands  # of params [%]
0                           encoder.sequential_convs.conv2d_1.weight                         6             0.23
1                           encoder.sequential_convs.conv2d_2.weight                       262             9.97
…
Finished [00:28:12 02.01.2023] 211) Finished running for K = 2048 & D = 64 & M = 1 & beta = 0.25 & max_channel_number = 128 (i.e. bits = 44) change_channel_size_across_layers = False:
Total training time is = 0:1:37 h/m/s. 

--------------------------------------------------- 

Started [00:28:12 02.01.2023] 212) Finished running for K = 2048 & D = 64 & M = 1 & beta = 0.25 & max_channel_number = 256 (i.e. bits = 44) change_channel_size_across_layers = False:

--------------------------------------------------- 


 PyTorch print of the model:

VQ_VAE(
  (encoder): Encoder(
    (sequential_convs): Sequential(
      (conv2d_1): Conv2d(3, 256, kernel_size=(4, 4), stride=(2, 2), padding=(1, 1))
      (ReLU_1): ReLU(inplace=True)
      (conv2d_2): Conv2d(256, 256, kernel_size=(4, 4), stride=(2, 2), padding=(1, 1))
      (ReLU_2): ReLU(inplace=True)
      (conv2d_3): Conv2d(256, 256, kernel_size=(4, 4), stride=(2, 2), padding=(1, 1))
      (ReLU_3): ReLU(inplace=True)
      (conv2d_4): Conv2d(256, 256, kernel_size=(4, 4), stride=(2, 2), padding=(1, 1))
      (ReLU_4): ReLU(inplace=True)
      (conv2d_5): Conv2d(256, 256, kernel_size=(4, 4), stride=(2, 2), padding=(1, 1))
      (ReLU_5): ReLU(inplace=True)
    )
    (pre_residual_stack): Conv2d(256, 256, kernel_size=(3, 3), stride=(1, 1), padding=(1, 1))
    (residual_stack): ResidualStack(
      (residual_blocks): ModuleList(
        (0): Residual(
          (residual_block): Sequential(
            (0): ReLU(inplace=True)
            (1): Conv2d(256, 32, kernel_size=(3, 3), stride=(1, 1), padding=(1, 1), bias=False)
            (2): ReLU(inplace=True)
            (3): Conv2d(32, 256, kernel_size=(1, 1), stride=(1, 1), bias=False)
          )
        )
        (1): Residual(
          (residual_block): Sequential(
            (0): ReLU(inplace=True)
            (1): Conv2d(256, 32, kernel_size=(3, 3), stride=(1, 1), padding=(1, 1), bias=False)
            (2): ReLU(inplace=True)
            (3): Conv2d(32, 256, kernel_size=(1, 1), stride=(1, 1), bias=False)
          )
        )
      )
    )
    (channel_adjusting_conv): Conv2d(256, 64, kernel_size=(1, 1), stride=(1, 1))
  )
  (VQ): VectorQuantizer(
    (E): Embedding(2048, 64)
  )
  (decoder): Decoder(
    (channel_adjusting_conv): Conv2d(64, 256, kernel_size=(3, 3), stride=(1, 1), padding=(1, 1))
    (residual_stack): ResidualStack(
      (residual_blocks): ModuleList(
        (0): Residual(
          (residual_block): Sequential(
            (0): ReLU(inplace=True)
            (1): Conv2d(256, 32, kernel_size=(3, 3), stride=(1, 1), padding=(1, 1), bias=False)
            (2): ReLU(inplace=True)
            (3): Conv2d(32, 256, kernel_size=(1, 1), stride=(1, 1), bias=False)
          )
        )
        (1): Residual(
          (residual_block): Sequential(
            (0): ReLU(inplace=True)
            (1): Conv2d(256, 32, kernel_size=(3, 3), stride=(1, 1), padding=(1, 1), bias=False)
            (2): ReLU(inplace=True)
            (3): Conv2d(32, 256, kernel_size=(1, 1), stride=(1, 1), bias=False)
          )
        )
      )
    )
    (sequential_trans_convs): Sequential(
      (conv2d_1): ConvTranspose2d(256, 256, kernel_size=(4, 4), stride=(2, 2), padding=(1, 1))
      (ReLU_1): ReLU(inplace=True)
      (conv2d_2): ConvTranspose2d(256, 256, kernel_size=(4, 4), stride=(2, 2), padding=(1, 1))
      (ReLU_2): ReLU(inplace=True)
      (conv2d_3): ConvTranspose2d(256, 256, kernel_size=(4, 4), stride=(2, 2), padding=(1, 1))
      (ReLU_3): ReLU(inplace=True)
      (conv2d_4): ConvTranspose2d(256, 256, kernel_size=(4, 4), stride=(2, 2), padding=(1, 1))
      (ReLU_4): ReLU(inplace=True)
      (conv2d_5): ConvTranspose2d(256, 3, kernel_size=(4, 4), stride=(2, 2), padding=(1, 1))
    )
  )
)


 Total Trainable Params in thousands: 9615 

                                                         Module Name  # of params in thousands  # of params [%]
0                           encoder.sequential_convs.conv2d_1.weight                        12             0.12
1                           encoder.sequential_convs.conv2d_2.weight                      1048            10.90
…
Finished [02:45:32 02.01.2023] 212) Finished running for K = 2048 & D = 64 & M = 1 & beta = 0.25 & max_channel_number = 256 (i.e. bits = 44) change_channel_size_across_layers = False:
Total training time is = 0:1:20 h/m/s. 

--------------------------------------------------- 

Started [02:45:32 02.01.2023] 213) Finished running for K = 2048 & D = 64 & M = 0 & beta = 0.25 & max_channel_number = 128 (i.e. bits = 11) change_channel_size_across_layers = True:

--------------------------------------------------- 


 PyTorch print of the model:

VQ_VAE(
  (encoder): Encoder(
    (sequential_convs): Sequential(
      (conv2d_1): Conv2d(3, 4, kernel_size=(4, 4), stride=(2, 2), padding=(1, 1))
      (ReLU_1): ReLU(inplace=True)
      (conv2d_2): Conv2d(4, 8, kernel_size=(4, 4), stride=(2, 2), padding=(1, 1))
      (ReLU_2): ReLU(inplace=True)
      (conv2d_3): Conv2d(8, 16, kernel_size=(4, 4), stride=(2, 2), padding=(1, 1))
      (ReLU_3): ReLU(inplace=True)
      (conv2d_4): Conv2d(16, 32, kernel_size=(4, 4), stride=(2, 2), padding=(1, 1))
      (ReLU_4): ReLU(inplace=True)
      (conv2d_5): Conv2d(32, 64, kernel_size=(4, 4), stride=(2, 2), padding=(1, 1))
      (ReLU_5): ReLU(inplace=True)
      (conv2d_6): Conv2d(64, 128, kernel_size=(4, 4), stride=(2, 2), padding=(1, 1))
      (ReLU_6): ReLU(inplace=True)
    )
    (pre_residual_stack): Conv2d(128, 128, kernel_size=(3, 3), stride=(1, 1), padding=(1, 1))
    (residual_stack): ResidualStack(
      (residual_blocks): ModuleList(
        (0): Residual(
          (residual_block): Sequential(
            (0): ReLU(inplace=True)
            (1): Conv2d(128, 32, kernel_size=(3, 3), stride=(1, 1), padding=(1, 1), bias=False)
            (2): ReLU(inplace=True)
            (3): Conv2d(32, 128, kernel_size=(1, 1), stride=(1, 1), bias=False)
          )
        )
        (1): Residual(
          (residual_block): Sequential(
            (0): ReLU(inplace=True)
            (1): Conv2d(128, 32, kernel_size=(3, 3), stride=(1, 1), padding=(1, 1), bias=False)
            (2): ReLU(inplace=True)
            (3): Conv2d(32, 128, kernel_size=(1, 1), stride=(1, 1), bias=False)
          )
        )
      )
    )
    (channel_adjusting_conv): Conv2d(128, 64, kernel_size=(1, 1), stride=(1, 1))
  )
  (VQ): VectorQuantizer(
    (E): Embedding(2048, 64)
  )
  (decoder): Decoder(
    (channel_adjusting_conv): Conv2d(64, 128, kernel_size=(3, 3), stride=(1, 1), padding=(1, 1))
    (residual_stack): ResidualStack(
      (residual_blocks): ModuleList(
        (0): Residual(
          (residual_block): Sequential(
            (0): ReLU(inplace=True)
            (1): Conv2d(128, 32, kernel_size=(3, 3), stride=(1, 1), padding=(1, 1), bias=False)
            (2): ReLU(inplace=True)
            (3): Conv2d(32, 128, kernel_size=(1, 1), stride=(1, 1), bias=False)
          )
        )
        (1): Residual(
          (residual_block): Sequential(
            (0): ReLU(inplace=True)
            (1): Conv2d(128, 32, kernel_size=(3, 3), stride=(1, 1), padding=(1, 1), bias=False)
            (2): ReLU(inplace=True)
            (3): Conv2d(32, 128, kernel_size=(1, 1), stride=(1, 1), bias=False)
          )
        )
      )
    )
    (sequential_trans_convs): Sequential(
      (conv2d_1): ConvTranspose2d(128, 64, kernel_size=(4, 4), stride=(2, 2), padding=(1, 1))
      (ReLU_1): ReLU(inplace=True)
      (conv2d_2): ConvTranspose2d(64, 32, kernel_size=(4, 4), stride=(2, 2), padding=(1, 1))
      (ReLU_2): ReLU(inplace=True)
      (conv2d_3): ConvTranspose2d(32, 16, kernel_size=(4, 4), stride=(2, 2), padding=(1, 1))
      (ReLU_3): ReLU(inplace=True)
      (conv2d_4): ConvTranspose2d(16, 8, kernel_size=(4, 4), stride=(2, 2), padding=(1, 1))
      (ReLU_4): ReLU(inplace=True)
      (conv2d_5): ConvTranspose2d(8, 4, kernel_size=(4, 4), stride=(2, 2), padding=(1, 1))
      (ReLU_5): ReLU(inplace=True)
      (conv2d_6): ConvTranspose2d(4, 3, kernel_size=(4, 4), stride=(2, 2), padding=(1, 1))
    )
  )
)


 Total Trainable Params in thousands: 865 

                                                         Module Name  # of params in thousands  # of params [%]
0                           encoder.sequential_convs.conv2d_1.weight                         0             0.00
1                           encoder.sequential_convs.conv2d_2.weight                         0             0.00
…
Finished [03:37:09 02.01.2023] 213) Finished running for K = 2048 & D = 64 & M = 0 & beta = 0.25 & max_channel_number = 128 (i.e. bits = 11) change_channel_size_across_layers = True:
Total training time is = 0:0:36 h/m/s. 

--------------------------------------------------- 

Started [03:37:09 02.01.2023] 214) Finished running for K = 2048 & D = 64 & M = 0 & beta = 0.25 & max_channel_number = 256 (i.e. bits = 11) change_channel_size_across_layers = True:

--------------------------------------------------- 


 PyTorch print of the model:

VQ_VAE(
  (encoder): Encoder(
    (sequential_convs): Sequential(
      (conv2d_1): Conv2d(3, 8, kernel_size=(4, 4), stride=(2, 2), padding=(1, 1))
      (ReLU_1): ReLU(inplace=True)
      (conv2d_2): Conv2d(8, 16, kernel_size=(4, 4), stride=(2, 2), padding=(1, 1))
      (ReLU_2): ReLU(inplace=True)
      (conv2d_3): Conv2d(16, 32, kernel_size=(4, 4), stride=(2, 2), padding=(1, 1))
      (ReLU_3): ReLU(inplace=True)
      (conv2d_4): Conv2d(32, 64, kernel_size=(4, 4), stride=(2, 2), padding=(1, 1))
      (ReLU_4): ReLU(inplace=True)
      (conv2d_5): Conv2d(64, 128, kernel_size=(4, 4), stride=(2, 2), padding=(1, 1))
      (ReLU_5): ReLU(inplace=True)
      (conv2d_6): Conv2d(128, 256, kernel_size=(4, 4), stride=(2, 2), padding=(1, 1))
      (ReLU_6): ReLU(inplace=True)
    )
    (pre_residual_stack): Conv2d(256, 256, kernel_size=(3, 3), stride=(1, 1), padding=(1, 1))
    (residual_stack): ResidualStack(
      (residual_blocks): ModuleList(
        (0): Residual(
          (residual_block): Sequential(
            (0): ReLU(inplace=True)
            (1): Conv2d(256, 32, kernel_size=(3, 3), stride=(1, 1), padding=(1, 1), bias=False)
            (2): ReLU(inplace=True)
            (3): Conv2d(32, 256, kernel_size=(1, 1), stride=(1, 1), bias=False)
          )
        )
        (1): Residual(
          (residual_block): Sequential(
            (0): ReLU(inplace=True)
            (1): Conv2d(256, 32, kernel_size=(3, 3), stride=(1, 1), padding=(1, 1), bias=False)
            (2): ReLU(inplace=True)
            (3): Conv2d(32, 256, kernel_size=(1, 1), stride=(1, 1), bias=False)
          )
        )
      )
    )
    (channel_adjusting_conv): Conv2d(256, 64, kernel_size=(1, 1), stride=(1, 1))
  )
  (VQ): VectorQuantizer(
    (E): Embedding(2048, 64)
  )
  (decoder): Decoder(
    (channel_adjusting_conv): Conv2d(64, 256, kernel_size=(3, 3), stride=(1, 1), padding=(1, 1))
    (residual_stack): ResidualStack(
      (residual_blocks): ModuleList(
        (0): Residual(
          (residual_block): Sequential(
            (0): ReLU(inplace=True)
            (1): Conv2d(256, 32, kernel_size=(3, 3), stride=(1, 1), padding=(1, 1), bias=False)
            (2): ReLU(inplace=True)
            (3): Conv2d(32, 256, kernel_size=(1, 1), stride=(1, 1), bias=False)
          )
        )
        (1): Residual(
          (residual_block): Sequential(
            (0): ReLU(inplace=True)
            (1): Conv2d(256, 32, kernel_size=(3, 3), stride=(1, 1), padding=(1, 1), bias=False)
            (2): ReLU(inplace=True)
            (3): Conv2d(32, 256, kernel_size=(1, 1), stride=(1, 1), bias=False)
          )
        )
      )
    )
    (sequential_trans_convs): Sequential(
      (conv2d_1): ConvTranspose2d(256, 128, kernel_size=(4, 4), stride=(2, 2), padding=(1, 1))
      (ReLU_1): ReLU(inplace=True)
      (conv2d_2): ConvTranspose2d(128, 64, kernel_size=(4, 4), stride=(2, 2), padding=(1, 1))
      (ReLU_2): ReLU(inplace=True)
      (conv2d_3): ConvTranspose2d(64, 32, kernel_size=(4, 4), stride=(2, 2), padding=(1, 1))
      (ReLU_3): ReLU(inplace=True)
      (conv2d_4): ConvTranspose2d(32, 16, kernel_size=(4, 4), stride=(2, 2), padding=(1, 1))
      (ReLU_4): ReLU(inplace=True)
      (conv2d_5): ConvTranspose2d(16, 8, kernel_size=(4, 4), stride=(2, 2), padding=(1, 1))
      (ReLU_5): ReLU(inplace=True)
      (conv2d_6): ConvTranspose2d(8, 3, kernel_size=(4, 4), stride=(2, 2), padding=(1, 1))
    )
  )
)


 Total Trainable Params in thousands: 2601 

                                                         Module Name  # of params in thousands  # of params [%]
0                           encoder.sequential_convs.conv2d_1.weight                         0             0.00
1                           encoder.sequential_convs.conv2d_2.weight                         2             0.08
…
Finished [04:29:25 02.01.2023] 214) Finished running for K = 2048 & D = 64 & M = 0 & beta = 0.25 & max_channel_number = 256 (i.e. bits = 11) change_channel_size_across_layers = True:
Total training time is = 0:0:16 h/m/s. 

--------------------------------------------------- 

Started [04:29:25 02.01.2023] 215) Finished running for K = 2048 & D = 64 & M = 0 & beta = 0.25 & max_channel_number = 128 (i.e. bits = 11) change_channel_size_across_layers = False:

--------------------------------------------------- 


 PyTorch print of the model:

VQ_VAE(
  (encoder): Encoder(
    (sequential_convs): Sequential(
      (conv2d_1): Conv2d(3, 128, kernel_size=(4, 4), stride=(2, 2), padding=(1, 1))
      (ReLU_1): ReLU(inplace=True)
      (conv2d_2): Conv2d(128, 128, kernel_size=(4, 4), stride=(2, 2), padding=(1, 1))
      (ReLU_2): ReLU(inplace=True)
      (conv2d_3): Conv2d(128, 128, kernel_size=(4, 4), stride=(2, 2), padding=(1, 1))
      (ReLU_3): ReLU(inplace=True)
      (conv2d_4): Conv2d(128, 128, kernel_size=(4, 4), stride=(2, 2), padding=(1, 1))
      (ReLU_4): ReLU(inplace=True)
      (conv2d_5): Conv2d(128, 128, kernel_size=(4, 4), stride=(2, 2), padding=(1, 1))
      (ReLU_5): ReLU(inplace=True)
      (conv2d_6): Conv2d(128, 128, kernel_size=(4, 4), stride=(2, 2), padding=(1, 1))
      (ReLU_6): ReLU(inplace=True)
    )
    (pre_residual_stack): Conv2d(128, 128, kernel_size=(3, 3), stride=(1, 1), padding=(1, 1))
    (residual_stack): ResidualStack(
      (residual_blocks): ModuleList(
        (0): Residual(
          (residual_block): Sequential(
            (0): ReLU(inplace=True)
            (1): Conv2d(128, 32, kernel_size=(3, 3), stride=(1, 1), padding=(1, 1), bias=False)
            (2): ReLU(inplace=True)
            (3): Conv2d(32, 128, kernel_size=(1, 1), stride=(1, 1), bias=False)
          )
        )
        (1): Residual(
          (residual_block): Sequential(
            (0): ReLU(inplace=True)
            (1): Conv2d(128, 32, kernel_size=(3, 3), stride=(1, 1), padding=(1, 1), bias=False)
            (2): ReLU(inplace=True)
            (3): Conv2d(32, 128, kernel_size=(1, 1), stride=(1, 1), bias=False)
          )
        )
      )
    )
    (channel_adjusting_conv): Conv2d(128, 64, kernel_size=(1, 1), stride=(1, 1))
  )
  (VQ): VectorQuantizer(
    (E): Embedding(2048, 64)
  )
  (decoder): Decoder(
    (channel_adjusting_conv): Conv2d(64, 128, kernel_size=(3, 3), stride=(1, 1), padding=(1, 1))
    (residual_stack): ResidualStack(
      (residual_blocks): ModuleList(
        (0): Residual(
          (residual_block): Sequential(
            (0): ReLU(inplace=True)
            (1): Conv2d(128, 32, kernel_size=(3, 3), stride=(1, 1), padding=(1, 1), bias=False)
            (2): ReLU(inplace=True)
            (3): Conv2d(32, 128, kernel_size=(1, 1), stride=(1, 1), bias=False)
          )
        )
        (1): Residual(
          (residual_block): Sequential(
            (0): ReLU(inplace=True)
            (1): Conv2d(128, 32, kernel_size=(3, 3), stride=(1, 1), padding=(1, 1), bias=False)
            (2): ReLU(inplace=True)
            (3): Conv2d(32, 128, kernel_size=(1, 1), stride=(1, 1), bias=False)
          )
        )
      )
    )
    (sequential_trans_convs): Sequential(
      (conv2d_1): ConvTranspose2d(128, 128, kernel_size=(4, 4), stride=(2, 2), padding=(1, 1))
      (ReLU_1): ReLU(inplace=True)
      (conv2d_2): ConvTranspose2d(128, 128, kernel_size=(4, 4), stride=(2, 2), padding=(1, 1))
      (ReLU_2): ReLU(inplace=True)
      (conv2d_3): ConvTranspose2d(128, 128, kernel_size=(4, 4), stride=(2, 2), padding=(1, 1))
      (ReLU_3): ReLU(inplace=True)
      (conv2d_4): ConvTranspose2d(128, 128, kernel_size=(4, 4), stride=(2, 2), padding=(1, 1))
      (ReLU_4): ReLU(inplace=True)
      (conv2d_5): ConvTranspose2d(128, 128, kernel_size=(4, 4), stride=(2, 2), padding=(1, 1))
      (ReLU_5): ReLU(inplace=True)
      (conv2d_6): ConvTranspose2d(128, 3, kernel_size=(4, 4), stride=(2, 2), padding=(1, 1))
    )
  )
)


 Total Trainable Params in thousands: 3151 

                                                         Module Name  # of params in thousands  # of params [%]
0                           encoder.sequential_convs.conv2d_1.weight                         6             0.19
1                           encoder.sequential_convs.conv2d_2.weight                       262             8.31
…
Finished [05:36:02 02.01.2023] 215) Finished running for K = 2048 & D = 64 & M = 0 & beta = 0.25 & max_channel_number = 128 (i.e. bits = 11) change_channel_size_across_layers = False:
Total training time is = 0:0:37 h/m/s. 

--------------------------------------------------- 

Started [05:36:02 02.01.2023] 216) Finished running for K = 2048 & D = 64 & M = 0 & beta = 0.25 & max_channel_number = 256 (i.e. bits = 11) change_channel_size_across_layers = False:

--------------------------------------------------- 


 PyTorch print of the model:

VQ_VAE(
  (encoder): Encoder(
    (sequential_convs): Sequential(
      (conv2d_1): Conv2d(3, 256, kernel_size=(4, 4), stride=(2, 2), padding=(1, 1))
      (ReLU_1): ReLU(inplace=True)
      (conv2d_2): Conv2d(256, 256, kernel_size=(4, 4), stride=(2, 2), padding=(1, 1))
      (ReLU_2): ReLU(inplace=True)
      (conv2d_3): Conv2d(256, 256, kernel_size=(4, 4), stride=(2, 2), padding=(1, 1))
      (ReLU_3): ReLU(inplace=True)
      (conv2d_4): Conv2d(256, 256, kernel_size=(4, 4), stride=(2, 2), padding=(1, 1))
      (ReLU_4): ReLU(inplace=True)
      (conv2d_5): Conv2d(256, 256, kernel_size=(4, 4), stride=(2, 2), padding=(1, 1))
      (ReLU_5): ReLU(inplace=True)
      (conv2d_6): Conv2d(256, 256, kernel_size=(4, 4), stride=(2, 2), padding=(1, 1))
      (ReLU_6): ReLU(inplace=True)
    )
    (pre_residual_stack): Conv2d(256, 256, kernel_size=(3, 3), stride=(1, 1), padding=(1, 1))
    (residual_stack): ResidualStack(
      (residual_blocks): ModuleList(
        (0): Residual(
          (residual_block): Sequential(
            (0): ReLU(inplace=True)
            (1): Conv2d(256, 32, kernel_size=(3, 3), stride=(1, 1), padding=(1, 1), bias=False)
            (2): ReLU(inplace=True)
            (3): Conv2d(32, 256, kernel_size=(1, 1), stride=(1, 1), bias=False)
          )
        )
        (1): Residual(
          (residual_block): Sequential(
            (0): ReLU(inplace=True)
            (1): Conv2d(256, 32, kernel_size=(3, 3), stride=(1, 1), padding=(1, 1), bias=False)
            (2): ReLU(inplace=True)
            (3): Conv2d(32, 256, kernel_size=(1, 1), stride=(1, 1), bias=False)
          )
        )
      )
    )
    (channel_adjusting_conv): Conv2d(256, 64, kernel_size=(1, 1), stride=(1, 1))
  )
  (VQ): VectorQuantizer(
    (E): Embedding(2048, 64)
  )
  (decoder): Decoder(
    (channel_adjusting_conv): Conv2d(64, 256, kernel_size=(3, 3), stride=(1, 1), padding=(1, 1))
    (residual_stack): ResidualStack(
      (residual_blocks): ModuleList(
        (0): Residual(
          (residual_block): Sequential(
            (0): ReLU(inplace=True)
            (1): Conv2d(256, 32, kernel_size=(3, 3), stride=(1, 1), padding=(1, 1), bias=False)
            (2): ReLU(inplace=True)
            (3): Conv2d(32, 256, kernel_size=(1, 1), stride=(1, 1), bias=False)
          )
        )
        (1): Residual(
          (residual_block): Sequential(
            (0): ReLU(inplace=True)
            (1): Conv2d(256, 32, kernel_size=(3, 3), stride=(1, 1), padding=(1, 1), bias=False)
            (2): ReLU(inplace=True)
            (3): Conv2d(32, 256, kernel_size=(1, 1), stride=(1, 1), bias=False)
          )
        )
      )
    )
    (sequential_trans_convs): Sequential(
      (conv2d_1): ConvTranspose2d(256, 256, kernel_size=(4, 4), stride=(2, 2), padding=(1, 1))
      (ReLU_1): ReLU(inplace=True)
      (conv2d_2): ConvTranspose2d(256, 256, kernel_size=(4, 4), stride=(2, 2), padding=(1, 1))
      (ReLU_2): ReLU(inplace=True)
      (conv2d_3): ConvTranspose2d(256, 256, kernel_size=(4, 4), stride=(2, 2), padding=(1, 1))
      (ReLU_3): ReLU(inplace=True)
      (conv2d_4): ConvTranspose2d(256, 256, kernel_size=(4, 4), stride=(2, 2), padding=(1, 1))
      (ReLU_4): ReLU(inplace=True)
      (conv2d_5): ConvTranspose2d(256, 256, kernel_size=(4, 4), stride=(2, 2), padding=(1, 1))
      (ReLU_5): ReLU(inplace=True)
      (conv2d_6): ConvTranspose2d(256, 3, kernel_size=(4, 4), stride=(2, 2), padding=(1, 1))
    )
  )
)


 Total Trainable Params in thousands: 11711 

                                                         Module Name  # of params in thousands  # of params [%]
0                           encoder.sequential_convs.conv2d_1.weight                        12             0.10
1                           encoder.sequential_convs.conv2d_2.weight                      1048             8.95
…
Finished [07:55:00 02.01.2023] 216) Finished running for K = 2048 & D = 64 & M = 0 & beta = 0.25 & max_channel_number = 256 (i.e. bits = 11) change_channel_size_across_layers = False:
Total training time is = 0:0:57 h/m/s. 

--------------------------------------------------- 

Started [07:55:00 02.01.2023] 217) Finished running for K = 1024 & D = 64 & M = 7 & beta = 0.25 & max_channel_number = 128 (i.e. bits = 640) change_channel_size_across_layers = True:

--------------------------------------------------- 


 PyTorch print of the model:

VQ_VAE(
  (encoder): Encoder(
    (sequential_convs): Sequential(
      (conv2d_1): Conv2d(3, 32, kernel_size=(4, 4), stride=(2, 2), padding=(1, 1))
      (ReLU_1): ReLU(inplace=True)
      (conv2d_2): Conv2d(32, 64, kernel_size=(4, 4), stride=(2, 2), padding=(1, 1))
      (ReLU_2): ReLU(inplace=True)
      (conv2d_3): Conv2d(64, 128, kernel_size=(4, 4), stride=(2, 2), padding=(1, 1))
      (ReLU_3): ReLU(inplace=True)
    )
    (pre_residual_stack): Conv2d(128, 128, kernel_size=(3, 3), stride=(1, 1), padding=(1, 1))
    (residual_stack): ResidualStack(
      (residual_blocks): ModuleList(
        (0): Residual(
          (residual_block): Sequential(
            (0): ReLU(inplace=True)
            (1): Conv2d(128, 32, kernel_size=(3, 3), stride=(1, 1), padding=(1, 1), bias=False)
            (2): ReLU(inplace=True)
            (3): Conv2d(32, 128, kernel_size=(1, 1), stride=(1, 1), bias=False)
          )
        )
        (1): Residual(
          (residual_block): Sequential(
            (0): ReLU(inplace=True)
            (1): Conv2d(128, 32, kernel_size=(3, 3), stride=(1, 1), padding=(1, 1), bias=False)
            (2): ReLU(inplace=True)
            (3): Conv2d(32, 128, kernel_size=(1, 1), stride=(1, 1), bias=False)
          )
        )
      )
    )
    (channel_adjusting_conv): Conv2d(128, 64, kernel_size=(1, 1), stride=(1, 1))
  )
  (VQ): VectorQuantizer(
    (E): Embedding(1024, 64)
  )
  (decoder): Decoder(
    (channel_adjusting_conv): Conv2d(64, 128, kernel_size=(3, 3), stride=(1, 1), padding=(1, 1))
    (residual_stack): ResidualStack(
      (residual_blocks): ModuleList(
        (0): Residual(
          (residual_block): Sequential(
            (0): ReLU(inplace=True)
            (1): Conv2d(128, 32, kernel_size=(3, 3), stride=(1, 1), padding=(1, 1), bias=False)
            (2): ReLU(inplace=True)
            (3): Conv2d(32, 128, kernel_size=(1, 1), stride=(1, 1), bias=False)
          )
        )
        (1): Residual(
          (residual_block): Sequential(
            (0): ReLU(inplace=True)
            (1): Conv2d(128, 32, kernel_size=(3, 3), stride=(1, 1), padding=(1, 1), bias=False)
            (2): ReLU(inplace=True)
            (3): Conv2d(32, 128, kernel_size=(1, 1), stride=(1, 1), bias=False)
          )
        )
      )
    )
    (sequential_trans_convs): Sequential(
      (conv2d_1): ConvTranspose2d(128, 64, kernel_size=(4, 4), stride=(2, 2), padding=(1, 1))
      (ReLU_1): ReLU(inplace=True)
      (conv2d_2): ConvTranspose2d(64, 32, kernel_size=(4, 4), stride=(2, 2), padding=(1, 1))
      (ReLU_2): ReLU(inplace=True)
      (conv2d_3): ConvTranspose2d(32, 3, kernel_size=(4, 4), stride=(2, 2), padding=(1, 1))
    )
  )
)


 Total Trainable Params in thousands: 781 

                                                         Module Name  # of params in thousands  # of params [%]
0                           encoder.sequential_convs.conv2d_1.weight                         1             0.13
1                           encoder.sequential_convs.conv2d_2.weight                        32             4.10
…
Finished [08:43:43 02.01.2023] 217) Finished running for K = 1024 & D = 64 & M = 7 & beta = 0.25 & max_channel_number = 128 (i.e. bits = 640) change_channel_size_across_layers = True:
Total training time is = 0:7:43 h/m/s. 

--------------------------------------------------- 

Started [08:43:43 02.01.2023] 218) Finished running for K = 1024 & D = 64 & M = 7 & beta = 0.25 & max_channel_number = 256 (i.e. bits = 640) change_channel_size_across_layers = True:

--------------------------------------------------- 


 PyTorch print of the model:

VQ_VAE(
  (encoder): Encoder(
    (sequential_convs): Sequential(
      (conv2d_1): Conv2d(3, 64, kernel_size=(4, 4), stride=(2, 2), padding=(1, 1))
      (ReLU_1): ReLU(inplace=True)
      (conv2d_2): Conv2d(64, 128, kernel_size=(4, 4), stride=(2, 2), padding=(1, 1))
      (ReLU_2): ReLU(inplace=True)
      (conv2d_3): Conv2d(128, 256, kernel_size=(4, 4), stride=(2, 2), padding=(1, 1))
      (ReLU_3): ReLU(inplace=True)
    )
    (pre_residual_stack): Conv2d(256, 256, kernel_size=(3, 3), stride=(1, 1), padding=(1, 1))
    (residual_stack): ResidualStack(
      (residual_blocks): ModuleList(
        (0): Residual(
          (residual_block): Sequential(
            (0): ReLU(inplace=True)
            (1): Conv2d(256, 32, kernel_size=(3, 3), stride=(1, 1), padding=(1, 1), bias=False)
            (2): ReLU(inplace=True)
            (3): Conv2d(32, 256, kernel_size=(1, 1), stride=(1, 1), bias=False)
          )
        )
        (1): Residual(
          (residual_block): Sequential(
            (0): ReLU(inplace=True)
            (1): Conv2d(256, 32, kernel_size=(3, 3), stride=(1, 1), padding=(1, 1), bias=False)
            (2): ReLU(inplace=True)
            (3): Conv2d(32, 256, kernel_size=(1, 1), stride=(1, 1), bias=False)
          )
        )
      )
    )
    (channel_adjusting_conv): Conv2d(256, 64, kernel_size=(1, 1), stride=(1, 1))
  )
  (VQ): VectorQuantizer(
    (E): Embedding(1024, 64)
  )
  (decoder): Decoder(
    (channel_adjusting_conv): Conv2d(64, 256, kernel_size=(3, 3), stride=(1, 1), padding=(1, 1))
    (residual_stack): ResidualStack(
      (residual_blocks): ModuleList(
        (0): Residual(
          (residual_block): Sequential(
            (0): ReLU(inplace=True)
            (1): Conv2d(256, 32, kernel_size=(3, 3), stride=(1, 1), padding=(1, 1), bias=False)
            (2): ReLU(inplace=True)
            (3): Conv2d(32, 256, kernel_size=(1, 1), stride=(1, 1), bias=False)
          )
        )
        (1): Residual(
          (residual_block): Sequential(
            (0): ReLU(inplace=True)
            (1): Conv2d(256, 32, kernel_size=(3, 3), stride=(1, 1), padding=(1, 1), bias=False)
            (2): ReLU(inplace=True)
            (3): Conv2d(32, 256, kernel_size=(1, 1), stride=(1, 1), bias=False)
          )
        )
      )
    )
    (sequential_trans_convs): Sequential(
      (conv2d_1): ConvTranspose2d(256, 128, kernel_size=(4, 4), stride=(2, 2), padding=(1, 1))
      (ReLU_1): ReLU(inplace=True)
      (conv2d_2): ConvTranspose2d(128, 64, kernel_size=(4, 4), stride=(2, 2), padding=(1, 1))
      (ReLU_2): ReLU(inplace=True)
      (conv2d_3): ConvTranspose2d(64, 3, kernel_size=(4, 4), stride=(2, 2), padding=(1, 1))
    )
  )
)


 Total Trainable Params in thousands: 2457 

                                                         Module Name  # of params in thousands  # of params [%]
0                           encoder.sequential_convs.conv2d_1.weight                         3             0.12
1                           encoder.sequential_convs.conv2d_2.weight                       131             5.33
…
Finished [09:50:05 02.01.2023] 218) Finished running for K = 1024 & D = 64 & M = 7 & beta = 0.25 & max_channel_number = 256 (i.e. bits = 640) change_channel_size_across_layers = True:
Total training time is = 0:7:21 h/m/s. 

--------------------------------------------------- 

Started [09:50:05 02.01.2023] 219) Finished running for K = 1024 & D = 64 & M = 7 & beta = 0.25 & max_channel_number = 128 (i.e. bits = 640) change_channel_size_across_layers = False:

--------------------------------------------------- 


 PyTorch print of the model:

VQ_VAE(
  (encoder): Encoder(
    (sequential_convs): Sequential(
      (conv2d_1): Conv2d(3, 128, kernel_size=(4, 4), stride=(2, 2), padding=(1, 1))
      (ReLU_1): ReLU(inplace=True)
      (conv2d_2): Conv2d(128, 128, kernel_size=(4, 4), stride=(2, 2), padding=(1, 1))
      (ReLU_2): ReLU(inplace=True)
      (conv2d_3): Conv2d(128, 128, kernel_size=(4, 4), stride=(2, 2), padding=(1, 1))
      (ReLU_3): ReLU(inplace=True)
    )
    (pre_residual_stack): Conv2d(128, 128, kernel_size=(3, 3), stride=(1, 1), padding=(1, 1))
    (residual_stack): ResidualStack(
      (residual_blocks): ModuleList(
        (0): Residual(
          (residual_block): Sequential(
            (0): ReLU(inplace=True)
            (1): Conv2d(128, 32, kernel_size=(3, 3), stride=(1, 1), padding=(1, 1), bias=False)
            (2): ReLU(inplace=True)
            (3): Conv2d(32, 128, kernel_size=(1, 1), stride=(1, 1), bias=False)
          )
        )
        (1): Residual(
          (residual_block): Sequential(
            (0): ReLU(inplace=True)
            (1): Conv2d(128, 32, kernel_size=(3, 3), stride=(1, 1), padding=(1, 1), bias=False)
            (2): ReLU(inplace=True)
            (3): Conv2d(32, 128, kernel_size=(1, 1), stride=(1, 1), bias=False)
          )
        )
      )
    )
    (channel_adjusting_conv): Conv2d(128, 64, kernel_size=(1, 1), stride=(1, 1))
  )
  (VQ): VectorQuantizer(
    (E): Embedding(1024, 64)
  )
  (decoder): Decoder(
    (channel_adjusting_conv): Conv2d(64, 128, kernel_size=(3, 3), stride=(1, 1), padding=(1, 1))
    (residual_stack): ResidualStack(
      (residual_blocks): ModuleList(
        (0): Residual(
          (residual_block): Sequential(
            (0): ReLU(inplace=True)
            (1): Conv2d(128, 32, kernel_size=(3, 3), stride=(1, 1), padding=(1, 1), bias=False)
            (2): ReLU(inplace=True)
            (3): Conv2d(32, 128, kernel_size=(1, 1), stride=(1, 1), bias=False)
          )
        )
        (1): Residual(
          (residual_block): Sequential(
            (0): ReLU(inplace=True)
            (1): Conv2d(128, 32, kernel_size=(3, 3), stride=(1, 1), padding=(1, 1), bias=False)
            (2): ReLU(inplace=True)
            (3): Conv2d(32, 128, kernel_size=(1, 1), stride=(1, 1), bias=False)
          )
        )
      )
    )
    (sequential_trans_convs): Sequential(
      (conv2d_1): ConvTranspose2d(128, 128, kernel_size=(4, 4), stride=(2, 2), padding=(1, 1))
      (ReLU_1): ReLU(inplace=True)
      (conv2d_2): ConvTranspose2d(128, 128, kernel_size=(4, 4), stride=(2, 2), padding=(1, 1))
      (ReLU_2): ReLU(inplace=True)
      (conv2d_3): ConvTranspose2d(128, 3, kernel_size=(4, 4), stride=(2, 2), padding=(1, 1))
    )
  )
)


 Total Trainable Params in thousands: 1513 

                                                         Module Name  # of params in thousands  # of params [%]
0                           encoder.sequential_convs.conv2d_1.weight                         6             0.40
1                           encoder.sequential_convs.conv2d_2.weight                       262            17.32
…
Finished [10:56:55 02.01.2023] 219) Finished running for K = 1024 & D = 64 & M = 7 & beta = 0.25 & max_channel_number = 128 (i.e. bits = 640) change_channel_size_across_layers = False:
Total training time is = 0:7:50 h/m/s. 

--------------------------------------------------- 

Started [10:56:55 02.01.2023] 220) Finished running for K = 1024 & D = 64 & M = 7 & beta = 0.25 & max_channel_number = 256 (i.e. bits = 640) change_channel_size_across_layers = False:

--------------------------------------------------- 


 PyTorch print of the model:

VQ_VAE(
  (encoder): Encoder(
    (sequential_convs): Sequential(
      (conv2d_1): Conv2d(3, 256, kernel_size=(4, 4), stride=(2, 2), padding=(1, 1))
      (ReLU_1): ReLU(inplace=True)
      (conv2d_2): Conv2d(256, 256, kernel_size=(4, 4), stride=(2, 2), padding=(1, 1))
      (ReLU_2): ReLU(inplace=True)
      (conv2d_3): Conv2d(256, 256, kernel_size=(4, 4), stride=(2, 2), padding=(1, 1))
      (ReLU_3): ReLU(inplace=True)
    )
    (pre_residual_stack): Conv2d(256, 256, kernel_size=(3, 3), stride=(1, 1), padding=(1, 1))
    (residual_stack): ResidualStack(
      (residual_blocks): ModuleList(
        (0): Residual(
          (residual_block): Sequential(
            (0): ReLU(inplace=True)
            (1): Conv2d(256, 32, kernel_size=(3, 3), stride=(1, 1), padding=(1, 1), bias=False)
            (2): ReLU(inplace=True)
            (3): Conv2d(32, 256, kernel_size=(1, 1), stride=(1, 1), bias=False)
          )
        )
        (1): Residual(
          (residual_block): Sequential(
            (0): ReLU(inplace=True)
            (1): Conv2d(256, 32, kernel_size=(3, 3), stride=(1, 1), padding=(1, 1), bias=False)
            (2): ReLU(inplace=True)
            (3): Conv2d(32, 256, kernel_size=(1, 1), stride=(1, 1), bias=False)
          )
        )
      )
    )
    (channel_adjusting_conv): Conv2d(256, 64, kernel_size=(1, 1), stride=(1, 1))
  )
  (VQ): VectorQuantizer(
    (E): Embedding(1024, 64)
  )
  (decoder): Decoder(
    (channel_adjusting_conv): Conv2d(64, 256, kernel_size=(3, 3), stride=(1, 1), padding=(1, 1))
    (residual_stack): ResidualStack(
      (residual_blocks): ModuleList(
        (0): Residual(
          (residual_block): Sequential(
            (0): ReLU(inplace=True)
            (1): Conv2d(256, 32, kernel_size=(3, 3), stride=(1, 1), padding=(1, 1), bias=False)
            (2): ReLU(inplace=True)
            (3): Conv2d(32, 256, kernel_size=(1, 1), stride=(1, 1), bias=False)
          )
        )
        (1): Residual(
          (residual_block): Sequential(
            (0): ReLU(inplace=True)
            (1): Conv2d(256, 32, kernel_size=(3, 3), stride=(1, 1), padding=(1, 1), bias=False)
            (2): ReLU(inplace=True)
            (3): Conv2d(32, 256, kernel_size=(1, 1), stride=(1, 1), bias=False)
          )
        )
      )
    )
    (sequential_trans_convs): Sequential(
      (conv2d_1): ConvTranspose2d(256, 256, kernel_size=(4, 4), stride=(2, 2), padding=(1, 1))
      (ReLU_1): ReLU(inplace=True)
      (conv2d_2): ConvTranspose2d(256, 256, kernel_size=(4, 4), stride=(2, 2), padding=(1, 1))
      (ReLU_2): ReLU(inplace=True)
      (conv2d_3): ConvTranspose2d(256, 3, kernel_size=(4, 4), stride=(2, 2), padding=(1, 1))
    )
  )
)


 Total Trainable Params in thousands: 5357 

                                                         Module Name  # of params in thousands  # of params [%]
0                           encoder.sequential_convs.conv2d_1.weight                        12             0.22
1                           encoder.sequential_convs.conv2d_2.weight                      1048            19.56
…
Finished [13:14:56 02.01.2023] 220) Finished running for K = 1024 & D = 64 & M = 7 & beta = 0.25 & max_channel_number = 256 (i.e. bits = 640) change_channel_size_across_layers = False:
Total training time is = 0:7:0 h/m/s. 

--------------------------------------------------- 

Started [13:14:56 02.01.2023] 221) Finished running for K = 1024 & D = 64 & M = 3 & beta = 0.25 & max_channel_number = 128 (i.e. bits = 160) change_channel_size_across_layers = True:

--------------------------------------------------- 


 PyTorch print of the model:

VQ_VAE(
  (encoder): Encoder(
    (sequential_convs): Sequential(
      (conv2d_1): Conv2d(3, 16, kernel_size=(4, 4), stride=(2, 2), padding=(1, 1))
      (ReLU_1): ReLU(inplace=True)
      (conv2d_2): Conv2d(16, 32, kernel_size=(4, 4), stride=(2, 2), padding=(1, 1))
      (ReLU_2): ReLU(inplace=True)
      (conv2d_3): Conv2d(32, 64, kernel_size=(4, 4), stride=(2, 2), padding=(1, 1))
      (ReLU_3): ReLU(inplace=True)
      (conv2d_4): Conv2d(64, 128, kernel_size=(4, 4), stride=(2, 2), padding=(1, 1))
      (ReLU_4): ReLU(inplace=True)
    )
    (pre_residual_stack): Conv2d(128, 128, kernel_size=(3, 3), stride=(1, 1), padding=(1, 1))
    (residual_stack): ResidualStack(
      (residual_blocks): ModuleList(
        (0): Residual(
          (residual_block): Sequential(
            (0): ReLU(inplace=True)
            (1): Conv2d(128, 32, kernel_size=(3, 3), stride=(1, 1), padding=(1, 1), bias=False)
            (2): ReLU(inplace=True)
            (3): Conv2d(32, 128, kernel_size=(1, 1), stride=(1, 1), bias=False)
          )
        )
        (1): Residual(
          (residual_block): Sequential(
            (0): ReLU(inplace=True)
            (1): Conv2d(128, 32, kernel_size=(3, 3), stride=(1, 1), padding=(1, 1), bias=False)
            (2): ReLU(inplace=True)
            (3): Conv2d(32, 128, kernel_size=(1, 1), stride=(1, 1), bias=False)
          )
        )
      )
    )
    (channel_adjusting_conv): Conv2d(128, 64, kernel_size=(1, 1), stride=(1, 1))
  )
  (VQ): VectorQuantizer(
    (E): Embedding(1024, 64)
  )
  (decoder): Decoder(
    (channel_adjusting_conv): Conv2d(64, 128, kernel_size=(3, 3), stride=(1, 1), padding=(1, 1))
    (residual_stack): ResidualStack(
      (residual_blocks): ModuleList(
        (0): Residual(
          (residual_block): Sequential(
            (0): ReLU(inplace=True)
            (1): Conv2d(128, 32, kernel_size=(3, 3), stride=(1, 1), padding=(1, 1), bias=False)
            (2): ReLU(inplace=True)
            (3): Conv2d(32, 128, kernel_size=(1, 1), stride=(1, 1), bias=False)
          )
        )
        (1): Residual(
          (residual_block): Sequential(
            (0): ReLU(inplace=True)
            (1): Conv2d(128, 32, kernel_size=(3, 3), stride=(1, 1), padding=(1, 1), bias=False)
            (2): ReLU(inplace=True)
            (3): Conv2d(32, 128, kernel_size=(1, 1), stride=(1, 1), bias=False)
          )
        )
      )
    )
    (sequential_trans_convs): Sequential(
      (conv2d_1): ConvTranspose2d(128, 64, kernel_size=(4, 4), stride=(2, 2), padding=(1, 1))
      (ReLU_1): ReLU(inplace=True)
      (conv2d_2): ConvTranspose2d(64, 32, kernel_size=(4, 4), stride=(2, 2), padding=(1, 1))
      (ReLU_2): ReLU(inplace=True)
      (conv2d_3): ConvTranspose2d(32, 16, kernel_size=(4, 4), stride=(2, 2), padding=(1, 1))
      (ReLU_3): ReLU(inplace=True)
      (conv2d_4): ConvTranspose2d(16, 3, kernel_size=(4, 4), stride=(2, 2), padding=(1, 1))
    )
  )
)


 Total Trainable Params in thousands: 795 

                                                         Module Name  # of params in thousands  # of params [%]
0                           encoder.sequential_convs.conv2d_1.weight                         0             0.00
1                           encoder.sequential_convs.conv2d_2.weight                         8             1.01
…
Finished [14:03:07 02.01.2023] 221) Finished running for K = 1024 & D = 64 & M = 3 & beta = 0.25 & max_channel_number = 128 (i.e. bits = 160) change_channel_size_across_layers = True:
Total training time is = 0:3:11 h/m/s. 

--------------------------------------------------- 

Started [14:03:07 02.01.2023] 222) Finished running for K = 1024 & D = 64 & M = 3 & beta = 0.25 & max_channel_number = 256 (i.e. bits = 160) change_channel_size_across_layers = True:

--------------------------------------------------- 


 PyTorch print of the model:

VQ_VAE(
  (encoder): Encoder(
    (sequential_convs): Sequential(
      (conv2d_1): Conv2d(3, 32, kernel_size=(4, 4), stride=(2, 2), padding=(1, 1))
      (ReLU_1): ReLU(inplace=True)
      (conv2d_2): Conv2d(32, 64, kernel_size=(4, 4), stride=(2, 2), padding=(1, 1))
      (ReLU_2): ReLU(inplace=True)
      (conv2d_3): Conv2d(64, 128, kernel_size=(4, 4), stride=(2, 2), padding=(1, 1))
      (ReLU_3): ReLU(inplace=True)
      (conv2d_4): Conv2d(128, 256, kernel_size=(4, 4), stride=(2, 2), padding=(1, 1))
      (ReLU_4): ReLU(inplace=True)
    )
    (pre_residual_stack): Conv2d(256, 256, kernel_size=(3, 3), stride=(1, 1), padding=(1, 1))
    (residual_stack): ResidualStack(
      (residual_blocks): ModuleList(
        (0): Residual(
          (residual_block): Sequential(
            (0): ReLU(inplace=True)
            (1): Conv2d(256, 32, kernel_size=(3, 3), stride=(1, 1), padding=(1, 1), bias=False)
            (2): ReLU(inplace=True)
            (3): Conv2d(32, 256, kernel_size=(1, 1), stride=(1, 1), bias=False)
          )
        )
        (1): Residual(
          (residual_block): Sequential(
            (0): ReLU(inplace=True)
            (1): Conv2d(256, 32, kernel_size=(3, 3), stride=(1, 1), padding=(1, 1), bias=False)
            (2): ReLU(inplace=True)
            (3): Conv2d(32, 256, kernel_size=(1, 1), stride=(1, 1), bias=False)
          )
        )
      )
    )
    (channel_adjusting_conv): Conv2d(256, 64, kernel_size=(1, 1), stride=(1, 1))
  )
  (VQ): VectorQuantizer(
    (E): Embedding(1024, 64)
  )
  (decoder): Decoder(
    (channel_adjusting_conv): Conv2d(64, 256, kernel_size=(3, 3), stride=(1, 1), padding=(1, 1))
    (residual_stack): ResidualStack(
      (residual_blocks): ModuleList(
        (0): Residual(
          (residual_block): Sequential(
            (0): ReLU(inplace=True)
            (1): Conv2d(256, 32, kernel_size=(3, 3), stride=(1, 1), padding=(1, 1), bias=False)
            (2): ReLU(inplace=True)
            (3): Conv2d(32, 256, kernel_size=(1, 1), stride=(1, 1), bias=False)
          )
        )
        (1): Residual(
          (residual_block): Sequential(
            (0): ReLU(inplace=True)
            (1): Conv2d(256, 32, kernel_size=(3, 3), stride=(1, 1), padding=(1, 1), bias=False)
            (2): ReLU(inplace=True)
            (3): Conv2d(32, 256, kernel_size=(1, 1), stride=(1, 1), bias=False)
          )
        )
      )
    )
    (sequential_trans_convs): Sequential(
      (conv2d_1): ConvTranspose2d(256, 128, kernel_size=(4, 4), stride=(2, 2), padding=(1, 1))
      (ReLU_1): ReLU(inplace=True)
      (conv2d_2): ConvTranspose2d(128, 64, kernel_size=(4, 4), stride=(2, 2), padding=(1, 1))
      (ReLU_2): ReLU(inplace=True)
      (conv2d_3): ConvTranspose2d(64, 32, kernel_size=(4, 4), stride=(2, 2), padding=(1, 1))
      (ReLU_3): ReLU(inplace=True)
      (conv2d_4): ConvTranspose2d(32, 3, kernel_size=(4, 4), stride=(2, 2), padding=(1, 1))
    )
  )
)


 Total Trainable Params in thousands: 2517 

                                                         Module Name  # of params in thousands  # of params [%]
0                           encoder.sequential_convs.conv2d_1.weight                         1             0.04
1                           encoder.sequential_convs.conv2d_2.weight                        32             1.27
…
Finished [14:52:35 02.01.2023] 222) Finished running for K = 1024 & D = 64 & M = 3 & beta = 0.25 & max_channel_number = 256 (i.e. bits = 160) change_channel_size_across_layers = True:
Total training time is = 0:3:28 h/m/s. 

--------------------------------------------------- 

Started [14:52:35 02.01.2023] 223) Finished running for K = 1024 & D = 64 & M = 3 & beta = 0.25 & max_channel_number = 128 (i.e. bits = 160) change_channel_size_across_layers = False:

--------------------------------------------------- 


 PyTorch print of the model:

VQ_VAE(
  (encoder): Encoder(
    (sequential_convs): Sequential(
      (conv2d_1): Conv2d(3, 128, kernel_size=(4, 4), stride=(2, 2), padding=(1, 1))
      (ReLU_1): ReLU(inplace=True)
      (conv2d_2): Conv2d(128, 128, kernel_size=(4, 4), stride=(2, 2), padding=(1, 1))
      (ReLU_2): ReLU(inplace=True)
      (conv2d_3): Conv2d(128, 128, kernel_size=(4, 4), stride=(2, 2), padding=(1, 1))
      (ReLU_3): ReLU(inplace=True)
      (conv2d_4): Conv2d(128, 128, kernel_size=(4, 4), stride=(2, 2), padding=(1, 1))
      (ReLU_4): ReLU(inplace=True)
    )
    (pre_residual_stack): Conv2d(128, 128, kernel_size=(3, 3), stride=(1, 1), padding=(1, 1))
    (residual_stack): ResidualStack(
      (residual_blocks): ModuleList(
        (0): Residual(
          (residual_block): Sequential(
            (0): ReLU(inplace=True)
            (1): Conv2d(128, 32, kernel_size=(3, 3), stride=(1, 1), padding=(1, 1), bias=False)
            (2): ReLU(inplace=True)
            (3): Conv2d(32, 128, kernel_size=(1, 1), stride=(1, 1), bias=False)
          )
        )
        (1): Residual(
          (residual_block): Sequential(
            (0): ReLU(inplace=True)
            (1): Conv2d(128, 32, kernel_size=(3, 3), stride=(1, 1), padding=(1, 1), bias=False)
            (2): ReLU(inplace=True)
            (3): Conv2d(32, 128, kernel_size=(1, 1), stride=(1, 1), bias=False)
          )
        )
      )
    )
    (channel_adjusting_conv): Conv2d(128, 64, kernel_size=(1, 1), stride=(1, 1))
  )
  (VQ): VectorQuantizer(
    (E): Embedding(1024, 64)
  )
  (decoder): Decoder(
    (channel_adjusting_conv): Conv2d(64, 128, kernel_size=(3, 3), stride=(1, 1), padding=(1, 1))
    (residual_stack): ResidualStack(
      (residual_blocks): ModuleList(
        (0): Residual(
          (residual_block): Sequential(
            (0): ReLU(inplace=True)
            (1): Conv2d(128, 32, kernel_size=(3, 3), stride=(1, 1), padding=(1, 1), bias=False)
            (2): ReLU(inplace=True)
            (3): Conv2d(32, 128, kernel_size=(1, 1), stride=(1, 1), bias=False)
          )
        )
        (1): Residual(
          (residual_block): Sequential(
            (0): ReLU(inplace=True)
            (1): Conv2d(128, 32, kernel_size=(3, 3), stride=(1, 1), padding=(1, 1), bias=False)
            (2): ReLU(inplace=True)
            (3): Conv2d(32, 128, kernel_size=(1, 1), stride=(1, 1), bias=False)
          )
        )
      )
    )
    (sequential_trans_convs): Sequential(
      (conv2d_1): ConvTranspose2d(128, 128, kernel_size=(4, 4), stride=(2, 2), padding=(1, 1))
      (ReLU_1): ReLU(inplace=True)
      (conv2d_2): ConvTranspose2d(128, 128, kernel_size=(4, 4), stride=(2, 2), padding=(1, 1))
      (ReLU_2): ReLU(inplace=True)
      (conv2d_3): ConvTranspose2d(128, 128, kernel_size=(4, 4), stride=(2, 2), padding=(1, 1))
      (ReLU_3): ReLU(inplace=True)
      (conv2d_4): ConvTranspose2d(128, 3, kernel_size=(4, 4), stride=(2, 2), padding=(1, 1))
    )
  )
)


 Total Trainable Params in thousands: 2037 

                                                         Module Name  # of params in thousands  # of params [%]
0                           encoder.sequential_convs.conv2d_1.weight                         6             0.29
1                           encoder.sequential_convs.conv2d_2.weight                       262            12.86
…
Finished [15:57:37 02.01.2023] 223) Finished running for K = 1024 & D = 64 & M = 3 & beta = 0.25 & max_channel_number = 128 (i.e. bits = 160) change_channel_size_across_layers = False:
Total training time is = 0:3:1 h/m/s. 

--------------------------------------------------- 

Started [15:57:37 02.01.2023] 224) Finished running for K = 1024 & D = 64 & M = 3 & beta = 0.25 & max_channel_number = 256 (i.e. bits = 160) change_channel_size_across_layers = False:

--------------------------------------------------- 


 PyTorch print of the model:

VQ_VAE(
  (encoder): Encoder(
    (sequential_convs): Sequential(
      (conv2d_1): Conv2d(3, 256, kernel_size=(4, 4), stride=(2, 2), padding=(1, 1))
      (ReLU_1): ReLU(inplace=True)
      (conv2d_2): Conv2d(256, 256, kernel_size=(4, 4), stride=(2, 2), padding=(1, 1))
      (ReLU_2): ReLU(inplace=True)
      (conv2d_3): Conv2d(256, 256, kernel_size=(4, 4), stride=(2, 2), padding=(1, 1))
      (ReLU_3): ReLU(inplace=True)
      (conv2d_4): Conv2d(256, 256, kernel_size=(4, 4), stride=(2, 2), padding=(1, 1))
      (ReLU_4): ReLU(inplace=True)
    )
    (pre_residual_stack): Conv2d(256, 256, kernel_size=(3, 3), stride=(1, 1), padding=(1, 1))
    (residual_stack): ResidualStack(
      (residual_blocks): ModuleList(
        (0): Residual(
          (residual_block): Sequential(
            (0): ReLU(inplace=True)
            (1): Conv2d(256, 32, kernel_size=(3, 3), stride=(1, 1), padding=(1, 1), bias=False)
            (2): ReLU(inplace=True)
            (3): Conv2d(32, 256, kernel_size=(1, 1), stride=(1, 1), bias=False)
          )
        )
        (1): Residual(
          (residual_block): Sequential(
            (0): ReLU(inplace=True)
            (1): Conv2d(256, 32, kernel_size=(3, 3), stride=(1, 1), padding=(1, 1), bias=False)
            (2): ReLU(inplace=True)
            (3): Conv2d(32, 256, kernel_size=(1, 1), stride=(1, 1), bias=False)
          )
        )
      )
    )
    (channel_adjusting_conv): Conv2d(256, 64, kernel_size=(1, 1), stride=(1, 1))
  )
  (VQ): VectorQuantizer(
    (E): Embedding(1024, 64)
  )
  (decoder): Decoder(
    (channel_adjusting_conv): Conv2d(64, 256, kernel_size=(3, 3), stride=(1, 1), padding=(1, 1))
    (residual_stack): ResidualStack(
      (residual_blocks): ModuleList(
        (0): Residual(
          (residual_block): Sequential(
            (0): ReLU(inplace=True)
            (1): Conv2d(256, 32, kernel_size=(3, 3), stride=(1, 1), padding=(1, 1), bias=False)
            (2): ReLU(inplace=True)
            (3): Conv2d(32, 256, kernel_size=(1, 1), stride=(1, 1), bias=False)
          )
        )
        (1): Residual(
          (residual_block): Sequential(
            (0): ReLU(inplace=True)
            (1): Conv2d(256, 32, kernel_size=(3, 3), stride=(1, 1), padding=(1, 1), bias=False)
            (2): ReLU(inplace=True)
            (3): Conv2d(32, 256, kernel_size=(1, 1), stride=(1, 1), bias=False)
          )
        )
      )
    )
    (sequential_trans_convs): Sequential(
      (conv2d_1): ConvTranspose2d(256, 256, kernel_size=(4, 4), stride=(2, 2), padding=(1, 1))
      (ReLU_1): ReLU(inplace=True)
      (conv2d_2): ConvTranspose2d(256, 256, kernel_size=(4, 4), stride=(2, 2), padding=(1, 1))
      (ReLU_2): ReLU(inplace=True)
      (conv2d_3): ConvTranspose2d(256, 256, kernel_size=(4, 4), stride=(2, 2), padding=(1, 1))
      (ReLU_3): ReLU(inplace=True)
      (conv2d_4): ConvTranspose2d(256, 3, kernel_size=(4, 4), stride=(2, 2), padding=(1, 1))
    )
  )
)


 Total Trainable Params in thousands: 7453 

                                                         Module Name  # of params in thousands  # of params [%]
0                           encoder.sequential_convs.conv2d_1.weight                        12             0.16
1                           encoder.sequential_convs.conv2d_2.weight                      1048            14.06
…
Finished [18:13:33 02.01.2023] 224) Finished running for K = 1024 & D = 64 & M = 3 & beta = 0.25 & max_channel_number = 256 (i.e. bits = 160) change_channel_size_across_layers = False:
Total training time is = 0:3:56 h/m/s. 

--------------------------------------------------- 

Started [18:13:33 02.01.2023] 225) Finished running for K = 1024 & D = 64 & M = 1 & beta = 0.25 & max_channel_number = 128 (i.e. bits = 40) change_channel_size_across_layers = True:

--------------------------------------------------- 


 PyTorch print of the model:

VQ_VAE(
  (encoder): Encoder(
    (sequential_convs): Sequential(
      (conv2d_1): Conv2d(3, 8, kernel_size=(4, 4), stride=(2, 2), padding=(1, 1))
      (ReLU_1): ReLU(inplace=True)
      (conv2d_2): Conv2d(8, 16, kernel_size=(4, 4), stride=(2, 2), padding=(1, 1))
      (ReLU_2): ReLU(inplace=True)
      (conv2d_3): Conv2d(16, 32, kernel_size=(4, 4), stride=(2, 2), padding=(1, 1))
      (ReLU_3): ReLU(inplace=True)
      (conv2d_4): Conv2d(32, 64, kernel_size=(4, 4), stride=(2, 2), padding=(1, 1))
      (ReLU_4): ReLU(inplace=True)
      (conv2d_5): Conv2d(64, 128, kernel_size=(4, 4), stride=(2, 2), padding=(1, 1))
      (ReLU_5): ReLU(inplace=True)
    )
    (pre_residual_stack): Conv2d(128, 128, kernel_size=(3, 3), stride=(1, 1), padding=(1, 1))
    (residual_stack): ResidualStack(
      (residual_blocks): ModuleList(
        (0): Residual(
          (residual_block): Sequential(
            (0): ReLU(inplace=True)
            (1): Conv2d(128, 32, kernel_size=(3, 3), stride=(1, 1), padding=(1, 1), bias=False)
            (2): ReLU(inplace=True)
            (3): Conv2d(32, 128, kernel_size=(1, 1), stride=(1, 1), bias=False)
          )
        )
        (1): Residual(
          (residual_block): Sequential(
            (0): ReLU(inplace=True)
            (1): Conv2d(128, 32, kernel_size=(3, 3), stride=(1, 1), padding=(1, 1), bias=False)
            (2): ReLU(inplace=True)
            (3): Conv2d(32, 128, kernel_size=(1, 1), stride=(1, 1), bias=False)
          )
        )
      )
    )
    (channel_adjusting_conv): Conv2d(128, 64, kernel_size=(1, 1), stride=(1, 1))
  )
  (VQ): VectorQuantizer(
    (E): Embedding(1024, 64)
  )
  (decoder): Decoder(
    (channel_adjusting_conv): Conv2d(64, 128, kernel_size=(3, 3), stride=(1, 1), padding=(1, 1))
    (residual_stack): ResidualStack(
      (residual_blocks): ModuleList(
        (0): Residual(
          (residual_block): Sequential(
            (0): ReLU(inplace=True)
            (1): Conv2d(128, 32, kernel_size=(3, 3), stride=(1, 1), padding=(1, 1), bias=False)
            (2): ReLU(inplace=True)
            (3): Conv2d(32, 128, kernel_size=(1, 1), stride=(1, 1), bias=False)
          )
        )
        (1): Residual(
          (residual_block): Sequential(
            (0): ReLU(inplace=True)
            (1): Conv2d(128, 32, kernel_size=(3, 3), stride=(1, 1), padding=(1, 1), bias=False)
            (2): ReLU(inplace=True)
            (3): Conv2d(32, 128, kernel_size=(1, 1), stride=(1, 1), bias=False)
          )
        )
      )
    )
    (sequential_trans_convs): Sequential(
      (conv2d_1): ConvTranspose2d(128, 64, kernel_size=(4, 4), stride=(2, 2), padding=(1, 1))
      (ReLU_1): ReLU(inplace=True)
      (conv2d_2): ConvTranspose2d(64, 32, kernel_size=(4, 4), stride=(2, 2), padding=(1, 1))
      (ReLU_2): ReLU(inplace=True)
      (conv2d_3): ConvTranspose2d(32, 16, kernel_size=(4, 4), stride=(2, 2), padding=(1, 1))
      (ReLU_3): ReLU(inplace=True)
      (conv2d_4): ConvTranspose2d(16, 8, kernel_size=(4, 4), stride=(2, 2), padding=(1, 1))
      (ReLU_4): ReLU(inplace=True)
      (conv2d_5): ConvTranspose2d(8, 3, kernel_size=(4, 4), stride=(2, 2), padding=(1, 1))
    )
  )
)


 Total Trainable Params in thousands: 799 

                                                         Module Name  # of params in thousands  # of params [%]
0                           encoder.sequential_convs.conv2d_1.weight                         0             0.00
1                           encoder.sequential_convs.conv2d_2.weight                         2             0.25
…
Finished [19:03:50 02.01.2023] 225) Finished running for K = 1024 & D = 64 & M = 1 & beta = 0.25 & max_channel_number = 128 (i.e. bits = 40) change_channel_size_across_layers = True:
Total training time is = 0:1:17 h/m/s. 

--------------------------------------------------- 

Started [19:03:50 02.01.2023] 226) Finished running for K = 1024 & D = 64 & M = 1 & beta = 0.25 & max_channel_number = 256 (i.e. bits = 40) change_channel_size_across_layers = True:

--------------------------------------------------- 


 PyTorch print of the model:

VQ_VAE(
  (encoder): Encoder(
    (sequential_convs): Sequential(
      (conv2d_1): Conv2d(3, 16, kernel_size=(4, 4), stride=(2, 2), padding=(1, 1))
      (ReLU_1): ReLU(inplace=True)
      (conv2d_2): Conv2d(16, 32, kernel_size=(4, 4), stride=(2, 2), padding=(1, 1))
      (ReLU_2): ReLU(inplace=True)
      (conv2d_3): Conv2d(32, 64, kernel_size=(4, 4), stride=(2, 2), padding=(1, 1))
      (ReLU_3): ReLU(inplace=True)
      (conv2d_4): Conv2d(64, 128, kernel_size=(4, 4), stride=(2, 2), padding=(1, 1))
      (ReLU_4): ReLU(inplace=True)
      (conv2d_5): Conv2d(128, 256, kernel_size=(4, 4), stride=(2, 2), padding=(1, 1))
      (ReLU_5): ReLU(inplace=True)
    )
    (pre_residual_stack): Conv2d(256, 256, kernel_size=(3, 3), stride=(1, 1), padding=(1, 1))
    (residual_stack): ResidualStack(
      (residual_blocks): ModuleList(
        (0): Residual(
          (residual_block): Sequential(
            (0): ReLU(inplace=True)
            (1): Conv2d(256, 32, kernel_size=(3, 3), stride=(1, 1), padding=(1, 1), bias=False)
            (2): ReLU(inplace=True)
            (3): Conv2d(32, 256, kernel_size=(1, 1), stride=(1, 1), bias=False)
          )
        )
        (1): Residual(
          (residual_block): Sequential(
            (0): ReLU(inplace=True)
            (1): Conv2d(256, 32, kernel_size=(3, 3), stride=(1, 1), padding=(1, 1), bias=False)
            (2): ReLU(inplace=True)
            (3): Conv2d(32, 256, kernel_size=(1, 1), stride=(1, 1), bias=False)
          )
        )
      )
    )
    (channel_adjusting_conv): Conv2d(256, 64, kernel_size=(1, 1), stride=(1, 1))
  )
  (VQ): VectorQuantizer(
    (E): Embedding(1024, 64)
  )
  (decoder): Decoder(
    (channel_adjusting_conv): Conv2d(64, 256, kernel_size=(3, 3), stride=(1, 1), padding=(1, 1))
    (residual_stack): ResidualStack(
      (residual_blocks): ModuleList(
        (0): Residual(
          (residual_block): Sequential(
            (0): ReLU(inplace=True)
            (1): Conv2d(256, 32, kernel_size=(3, 3), stride=(1, 1), padding=(1, 1), bias=False)
            (2): ReLU(inplace=True)
            (3): Conv2d(32, 256, kernel_size=(1, 1), stride=(1, 1), bias=False)
          )
        )
        (1): Residual(
          (residual_block): Sequential(
            (0): ReLU(inplace=True)
            (1): Conv2d(256, 32, kernel_size=(3, 3), stride=(1, 1), padding=(1, 1), bias=False)
            (2): ReLU(inplace=True)
            (3): Conv2d(32, 256, kernel_size=(1, 1), stride=(1, 1), bias=False)
          )
        )
      )
    )
    (sequential_trans_convs): Sequential(
      (conv2d_1): ConvTranspose2d(256, 128, kernel_size=(4, 4), stride=(2, 2), padding=(1, 1))
      (ReLU_1): ReLU(inplace=True)
      (conv2d_2): ConvTranspose2d(128, 64, kernel_size=(4, 4), stride=(2, 2), padding=(1, 1))
      (ReLU_2): ReLU(inplace=True)
      (conv2d_3): ConvTranspose2d(64, 32, kernel_size=(4, 4), stride=(2, 2), padding=(1, 1))
      (ReLU_3): ReLU(inplace=True)
      (conv2d_4): ConvTranspose2d(32, 16, kernel_size=(4, 4), stride=(2, 2), padding=(1, 1))
      (ReLU_4): ReLU(inplace=True)
      (conv2d_5): ConvTranspose2d(16, 3, kernel_size=(4, 4), stride=(2, 2), padding=(1, 1))
    )
  )
)


 Total Trainable Params in thousands: 2531 

                                                         Module Name  # of params in thousands  # of params [%]
0                           encoder.sequential_convs.conv2d_1.weight                         0             0.00
1                           encoder.sequential_convs.conv2d_2.weight                         8             0.32
…
Finished [19:54:27 02.01.2023] 226) Finished running for K = 1024 & D = 64 & M = 1 & beta = 0.25 & max_channel_number = 256 (i.e. bits = 40) change_channel_size_across_layers = True:
Total training time is = 0:1:36 h/m/s. 

--------------------------------------------------- 

Started [19:54:27 02.01.2023] 227) Finished running for K = 1024 & D = 64 & M = 1 & beta = 0.25 & max_channel_number = 128 (i.e. bits = 40) change_channel_size_across_layers = False:

--------------------------------------------------- 


 PyTorch print of the model:

VQ_VAE(
  (encoder): Encoder(
    (sequential_convs): Sequential(
      (conv2d_1): Conv2d(3, 128, kernel_size=(4, 4), stride=(2, 2), padding=(1, 1))
      (ReLU_1): ReLU(inplace=True)
      (conv2d_2): Conv2d(128, 128, kernel_size=(4, 4), stride=(2, 2), padding=(1, 1))
      (ReLU_2): ReLU(inplace=True)
      (conv2d_3): Conv2d(128, 128, kernel_size=(4, 4), stride=(2, 2), padding=(1, 1))
      (ReLU_3): ReLU(inplace=True)
      (conv2d_4): Conv2d(128, 128, kernel_size=(4, 4), stride=(2, 2), padding=(1, 1))
      (ReLU_4): ReLU(inplace=True)
      (conv2d_5): Conv2d(128, 128, kernel_size=(4, 4), stride=(2, 2), padding=(1, 1))
      (ReLU_5): ReLU(inplace=True)
    )
    (pre_residual_stack): Conv2d(128, 128, kernel_size=(3, 3), stride=(1, 1), padding=(1, 1))
    (residual_stack): ResidualStack(
      (residual_blocks): ModuleList(
        (0): Residual(
          (residual_block): Sequential(
            (0): ReLU(inplace=True)
            (1): Conv2d(128, 32, kernel_size=(3, 3), stride=(1, 1), padding=(1, 1), bias=False)
            (2): ReLU(inplace=True)
            (3): Conv2d(32, 128, kernel_size=(1, 1), stride=(1, 1), bias=False)
          )
        )
        (1): Residual(
          (residual_block): Sequential(
            (0): ReLU(inplace=True)
            (1): Conv2d(128, 32, kernel_size=(3, 3), stride=(1, 1), padding=(1, 1), bias=False)
            (2): ReLU(inplace=True)
            (3): Conv2d(32, 128, kernel_size=(1, 1), stride=(1, 1), bias=False)
          )
        )
      )
    )
    (channel_adjusting_conv): Conv2d(128, 64, kernel_size=(1, 1), stride=(1, 1))
  )
  (VQ): VectorQuantizer(
    (E): Embedding(1024, 64)
  )
  (decoder): Decoder(
    (channel_adjusting_conv): Conv2d(64, 128, kernel_size=(3, 3), stride=(1, 1), padding=(1, 1))
    (residual_stack): ResidualStack(
      (residual_blocks): ModuleList(
        (0): Residual(
          (residual_block): Sequential(
            (0): ReLU(inplace=True)
            (1): Conv2d(128, 32, kernel_size=(3, 3), stride=(1, 1), padding=(1, 1), bias=False)
            (2): ReLU(inplace=True)
            (3): Conv2d(32, 128, kernel_size=(1, 1), stride=(1, 1), bias=False)
          )
        )
        (1): Residual(
          (residual_block): Sequential(
            (0): ReLU(inplace=True)
            (1): Conv2d(128, 32, kernel_size=(3, 3), stride=(1, 1), padding=(1, 1), bias=False)
            (2): ReLU(inplace=True)
            (3): Conv2d(32, 128, kernel_size=(1, 1), stride=(1, 1), bias=False)
          )
        )
      )
    )
    (sequential_trans_convs): Sequential(
      (conv2d_1): ConvTranspose2d(128, 128, kernel_size=(4, 4), stride=(2, 2), padding=(1, 1))
      (ReLU_1): ReLU(inplace=True)
      (conv2d_2): ConvTranspose2d(128, 128, kernel_size=(4, 4), stride=(2, 2), padding=(1, 1))
      (ReLU_2): ReLU(inplace=True)
      (conv2d_3): ConvTranspose2d(128, 128, kernel_size=(4, 4), stride=(2, 2), padding=(1, 1))
      (ReLU_3): ReLU(inplace=True)
      (conv2d_4): ConvTranspose2d(128, 128, kernel_size=(4, 4), stride=(2, 2), padding=(1, 1))
      (ReLU_4): ReLU(inplace=True)
      (conv2d_5): ConvTranspose2d(128, 3, kernel_size=(4, 4), stride=(2, 2), padding=(1, 1))
    )
  )
)


 Total Trainable Params in thousands: 2561 

                                                         Module Name  # of params in thousands  # of params [%]
0                           encoder.sequential_convs.conv2d_1.weight                         6             0.23
1                           encoder.sequential_convs.conv2d_2.weight                       262            10.23
…
Finished [20:59:46 02.01.2023] 227) Finished running for K = 1024 & D = 64 & M = 1 & beta = 0.25 & max_channel_number = 128 (i.e. bits = 40) change_channel_size_across_layers = False:
Total training time is = 0:1:18 h/m/s. 

--------------------------------------------------- 

Started [23:11:10 02.01.2023] 228) Finished running for K = 1024 & D = 64 & M = 1 & beta = 0.25 & max_channel_number = 256 (i.e. bits = 40) change_channel_size_across_layers = False:

--------------------------------------------------- 


 PyTorch print of the model:

VQ_VAE(
  (encoder): Encoder(
    (sequential_convs): Sequential(
      (conv2d_1): Conv2d(3, 256, kernel_size=(4, 4), stride=(2, 2), padding=(1, 1))
      (ReLU_1): ReLU(inplace=True)
      (conv2d_2): Conv2d(256, 256, kernel_size=(4, 4), stride=(2, 2), padding=(1, 1))
      (ReLU_2): ReLU(inplace=True)
      (conv2d_3): Conv2d(256, 256, kernel_size=(4, 4), stride=(2, 2), padding=(1, 1))
      (ReLU_3): ReLU(inplace=True)
      (conv2d_4): Conv2d(256, 256, kernel_size=(4, 4), stride=(2, 2), padding=(1, 1))
      (ReLU_4): ReLU(inplace=True)
      (conv2d_5): Conv2d(256, 256, kernel_size=(4, 4), stride=(2, 2), padding=(1, 1))
      (ReLU_5): ReLU(inplace=True)
    )
    (pre_residual_stack): Conv2d(256, 256, kernel_size=(3, 3), stride=(1, 1), padding=(1, 1))
    (residual_stack): ResidualStack(
      (residual_blocks): ModuleList(
        (0): Residual(
          (residual_block): Sequential(
            (0): ReLU(inplace=True)
            (1): Conv2d(256, 32, kernel_size=(3, 3), stride=(1, 1), padding=(1, 1), bias=False)
            (2): ReLU(inplace=True)
            (3): Conv2d(32, 256, kernel_size=(1, 1), stride=(1, 1), bias=False)
          )
        )
        (1): Residual(
          (residual_block): Sequential(
            (0): ReLU(inplace=True)
            (1): Conv2d(256, 32, kernel_size=(3, 3), stride=(1, 1), padding=(1, 1), bias=False)
            (2): ReLU(inplace=True)
            (3): Conv2d(32, 256, kernel_size=(1, 1), stride=(1, 1), bias=False)
          )
        )
      )
    )
    (channel_adjusting_conv): Conv2d(256, 64, kernel_size=(1, 1), stride=(1, 1))
  )
  (VQ): VectorQuantizer(
    (E): Embedding(1024, 64)
  )
  (decoder): Decoder(
    (channel_adjusting_conv): Conv2d(64, 256, kernel_size=(3, 3), stride=(1, 1), padding=(1, 1))
    (residual_stack): ResidualStack(
      (residual_blocks): ModuleList(
        (0): Residual(
          (residual_block): Sequential(
            (0): ReLU(inplace=True)
            (1): Conv2d(256, 32, kernel_size=(3, 3), stride=(1, 1), padding=(1, 1), bias=False)
            (2): ReLU(inplace=True)
            (3): Conv2d(32, 256, kernel_size=(1, 1), stride=(1, 1), bias=False)
          )
        )
        (1): Residual(
          (residual_block): Sequential(
            (0): ReLU(inplace=True)
            (1): Conv2d(256, 32, kernel_size=(3, 3), stride=(1, 1), padding=(1, 1), bias=False)
            (2): ReLU(inplace=True)
            (3): Conv2d(32, 256, kernel_size=(1, 1), stride=(1, 1), bias=False)
          )
        )
      )
    )
    (sequential_trans_convs): Sequential(
      (conv2d_1): ConvTranspose2d(256, 256, kernel_size=(4, 4), stride=(2, 2), padding=(1, 1))
      (ReLU_1): ReLU(inplace=True)
      (conv2d_2): ConvTranspose2d(256, 256, kernel_size=(4, 4), stride=(2, 2), padding=(1, 1))
      (ReLU_2): ReLU(inplace=True)
      (conv2d_3): ConvTranspose2d(256, 256, kernel_size=(4, 4), stride=(2, 2), padding=(1, 1))
      (ReLU_3): ReLU(inplace=True)
      (conv2d_4): ConvTranspose2d(256, 256, kernel_size=(4, 4), stride=(2, 2), padding=(1, 1))
      (ReLU_4): ReLU(inplace=True)
      (conv2d_5): ConvTranspose2d(256, 3, kernel_size=(4, 4), stride=(2, 2), padding=(1, 1))
    )
  )
)


 Total Trainable Params in thousands: 9549 

                                                         Module Name  # of params in thousands  # of params [%]
0                           encoder.sequential_convs.conv2d_1.weight                        12             0.13
1                           encoder.sequential_convs.conv2d_2.weight                      1048            10.97
…
Finished [01:26:54 03.01.2023] 228) Finished running for K = 1024 & D = 64 & M = 1 & beta = 0.25 & max_channel_number = 256 (i.e. bits = 40) change_channel_size_across_layers = False:
Total training time is = 0:1:43 h/m/s. 

--------------------------------------------------- 

Started [01:26:54 03.01.2023] 229) Finished running for K = 1024 & D = 64 & M = 0 & beta = 0.25 & max_channel_number = 128 (i.e. bits = 10) change_channel_size_across_layers = True:

--------------------------------------------------- 


 PyTorch print of the model:

VQ_VAE(
  (encoder): Encoder(
    (sequential_convs): Sequential(
      (conv2d_1): Conv2d(3, 4, kernel_size=(4, 4), stride=(2, 2), padding=(1, 1))
      (ReLU_1): ReLU(inplace=True)
      (conv2d_2): Conv2d(4, 8, kernel_size=(4, 4), stride=(2, 2), padding=(1, 1))
      (ReLU_2): ReLU(inplace=True)
      (conv2d_3): Conv2d(8, 16, kernel_size=(4, 4), stride=(2, 2), padding=(1, 1))
      (ReLU_3): ReLU(inplace=True)
      (conv2d_4): Conv2d(16, 32, kernel_size=(4, 4), stride=(2, 2), padding=(1, 1))
      (ReLU_4): ReLU(inplace=True)
      (conv2d_5): Conv2d(32, 64, kernel_size=(4, 4), stride=(2, 2), padding=(1, 1))
      (ReLU_5): ReLU(inplace=True)
      (conv2d_6): Conv2d(64, 128, kernel_size=(4, 4), stride=(2, 2), padding=(1, 1))
      (ReLU_6): ReLU(inplace=True)
    )
    (pre_residual_stack): Conv2d(128, 128, kernel_size=(3, 3), stride=(1, 1), padding=(1, 1))
    (residual_stack): ResidualStack(
      (residual_blocks): ModuleList(
        (0): Residual(
          (residual_block): Sequential(
            (0): ReLU(inplace=True)
            (1): Conv2d(128, 32, kernel_size=(3, 3), stride=(1, 1), padding=(1, 1), bias=False)
            (2): ReLU(inplace=True)
            (3): Conv2d(32, 128, kernel_size=(1, 1), stride=(1, 1), bias=False)
          )
        )
        (1): Residual(
          (residual_block): Sequential(
            (0): ReLU(inplace=True)
            (1): Conv2d(128, 32, kernel_size=(3, 3), stride=(1, 1), padding=(1, 1), bias=False)
            (2): ReLU(inplace=True)
            (3): Conv2d(32, 128, kernel_size=(1, 1), stride=(1, 1), bias=False)
          )
        )
      )
    )
    (channel_adjusting_conv): Conv2d(128, 64, kernel_size=(1, 1), stride=(1, 1))
  )
  (VQ): VectorQuantizer(
    (E): Embedding(1024, 64)
  )
  (decoder): Decoder(
    (channel_adjusting_conv): Conv2d(64, 128, kernel_size=(3, 3), stride=(1, 1), padding=(1, 1))
    (residual_stack): ResidualStack(
      (residual_blocks): ModuleList(
        (0): Residual(
          (residual_block): Sequential(
            (0): ReLU(inplace=True)
            (1): Conv2d(128, 32, kernel_size=(3, 3), stride=(1, 1), padding=(1, 1), bias=False)
            (2): ReLU(inplace=True)
            (3): Conv2d(32, 128, kernel_size=(1, 1), stride=(1, 1), bias=False)
          )
        )
        (1): Residual(
          (residual_block): Sequential(
            (0): ReLU(inplace=True)
            (1): Conv2d(128, 32, kernel_size=(3, 3), stride=(1, 1), padding=(1, 1), bias=False)
            (2): ReLU(inplace=True)
            (3): Conv2d(32, 128, kernel_size=(1, 1), stride=(1, 1), bias=False)
          )
        )
      )
    )
    (sequential_trans_convs): Sequential(
      (conv2d_1): ConvTranspose2d(128, 64, kernel_size=(4, 4), stride=(2, 2), padding=(1, 1))
      (ReLU_1): ReLU(inplace=True)
      (conv2d_2): ConvTranspose2d(64, 32, kernel_size=(4, 4), stride=(2, 2), padding=(1, 1))
      (ReLU_2): ReLU(inplace=True)
      (conv2d_3): ConvTranspose2d(32, 16, kernel_size=(4, 4), stride=(2, 2), padding=(1, 1))
      (ReLU_3): ReLU(inplace=True)
      (conv2d_4): ConvTranspose2d(16, 8, kernel_size=(4, 4), stride=(2, 2), padding=(1, 1))
      (ReLU_4): ReLU(inplace=True)
      (conv2d_5): ConvTranspose2d(8, 4, kernel_size=(4, 4), stride=(2, 2), padding=(1, 1))
      (ReLU_5): ReLU(inplace=True)
      (conv2d_6): ConvTranspose2d(4, 3, kernel_size=(4, 4), stride=(2, 2), padding=(1, 1))
    )
  )
)


 Total Trainable Params in thousands: 799 

                                                         Module Name  # of params in thousands  # of params [%]
0                           encoder.sequential_convs.conv2d_1.weight                         0             0.00
1                           encoder.sequential_convs.conv2d_2.weight                         0             0.00
…
Finished [02:18:21 03.01.2023] 229) Finished running for K = 1024 & D = 64 & M = 0 & beta = 0.25 & max_channel_number = 128 (i.e. bits = 10) change_channel_size_across_layers = True:
Total training time is = 0:0:26 h/m/s. 

--------------------------------------------------- 

Started [02:18:21 03.01.2023] 230) Finished running for K = 1024 & D = 64 & M = 0 & beta = 0.25 & max_channel_number = 256 (i.e. bits = 10) change_channel_size_across_layers = True:

--------------------------------------------------- 


 PyTorch print of the model:

VQ_VAE(
  (encoder): Encoder(
    (sequential_convs): Sequential(
      (conv2d_1): Conv2d(3, 8, kernel_size=(4, 4), stride=(2, 2), padding=(1, 1))
      (ReLU_1): ReLU(inplace=True)
      (conv2d_2): Conv2d(8, 16, kernel_size=(4, 4), stride=(2, 2), padding=(1, 1))
      (ReLU_2): ReLU(inplace=True)
      (conv2d_3): Conv2d(16, 32, kernel_size=(4, 4), stride=(2, 2), padding=(1, 1))
      (ReLU_3): ReLU(inplace=True)
      (conv2d_4): Conv2d(32, 64, kernel_size=(4, 4), stride=(2, 2), padding=(1, 1))
      (ReLU_4): ReLU(inplace=True)
      (conv2d_5): Conv2d(64, 128, kernel_size=(4, 4), stride=(2, 2), padding=(1, 1))
      (ReLU_5): ReLU(inplace=True)
      (conv2d_6): Conv2d(128, 256, kernel_size=(4, 4), stride=(2, 2), padding=(1, 1))
      (ReLU_6): ReLU(inplace=True)
    )
    (pre_residual_stack): Conv2d(256, 256, kernel_size=(3, 3), stride=(1, 1), padding=(1, 1))
    (residual_stack): ResidualStack(
      (residual_blocks): ModuleList(
        (0): Residual(
          (residual_block): Sequential(
            (0): ReLU(inplace=True)
            (1): Conv2d(256, 32, kernel_size=(3, 3), stride=(1, 1), padding=(1, 1), bias=False)
            (2): ReLU(inplace=True)
            (3): Conv2d(32, 256, kernel_size=(1, 1), stride=(1, 1), bias=False)
          )
        )
        (1): Residual(
          (residual_block): Sequential(
            (0): ReLU(inplace=True)
            (1): Conv2d(256, 32, kernel_size=(3, 3), stride=(1, 1), padding=(1, 1), bias=False)
            (2): ReLU(inplace=True)
            (3): Conv2d(32, 256, kernel_size=(1, 1), stride=(1, 1), bias=False)
          )
        )
      )
    )
    (channel_adjusting_conv): Conv2d(256, 64, kernel_size=(1, 1), stride=(1, 1))
  )
  (VQ): VectorQuantizer(
    (E): Embedding(1024, 64)
  )
  (decoder): Decoder(
    (channel_adjusting_conv): Conv2d(64, 256, kernel_size=(3, 3), stride=(1, 1), padding=(1, 1))
    (residual_stack): ResidualStack(
      (residual_blocks): ModuleList(
        (0): Residual(
          (residual_block): Sequential(
            (0): ReLU(inplace=True)
            (1): Conv2d(256, 32, kernel_size=(3, 3), stride=(1, 1), padding=(1, 1), bias=False)
            (2): ReLU(inplace=True)
            (3): Conv2d(32, 256, kernel_size=(1, 1), stride=(1, 1), bias=False)
          )
        )
        (1): Residual(
          (residual_block): Sequential(
            (0): ReLU(inplace=True)
            (1): Conv2d(256, 32, kernel_size=(3, 3), stride=(1, 1), padding=(1, 1), bias=False)
            (2): ReLU(inplace=True)
            (3): Conv2d(32, 256, kernel_size=(1, 1), stride=(1, 1), bias=False)
          )
        )
      )
    )
    (sequential_trans_convs): Sequential(
      (conv2d_1): ConvTranspose2d(256, 128, kernel_size=(4, 4), stride=(2, 2), padding=(1, 1))
      (ReLU_1): ReLU(inplace=True)
      (conv2d_2): ConvTranspose2d(128, 64, kernel_size=(4, 4), stride=(2, 2), padding=(1, 1))
      (ReLU_2): ReLU(inplace=True)
      (conv2d_3): ConvTranspose2d(64, 32, kernel_size=(4, 4), stride=(2, 2), padding=(1, 1))
      (ReLU_3): ReLU(inplace=True)
      (conv2d_4): ConvTranspose2d(32, 16, kernel_size=(4, 4), stride=(2, 2), padding=(1, 1))
      (ReLU_4): ReLU(inplace=True)
      (conv2d_5): ConvTranspose2d(16, 8, kernel_size=(4, 4), stride=(2, 2), padding=(1, 1))
      (ReLU_5): ReLU(inplace=True)
      (conv2d_6): ConvTranspose2d(8, 3, kernel_size=(4, 4), stride=(2, 2), padding=(1, 1))
    )
  )
)


 Total Trainable Params in thousands: 2535 

                                                         Module Name  # of params in thousands  # of params [%]
0                           encoder.sequential_convs.conv2d_1.weight                         0             0.00
1                           encoder.sequential_convs.conv2d_2.weight                         2             0.08
…
Finished [03:10:03 03.01.2023] 230) Finished running for K = 1024 & D = 64 & M = 0 & beta = 0.25 & max_channel_number = 256 (i.e. bits = 10) change_channel_size_across_layers = True:
Total training time is = 0:0:41 h/m/s. 

--------------------------------------------------- 

Started [03:10:03 03.01.2023] 231) Finished running for K = 1024 & D = 64 & M = 0 & beta = 0.25 & max_channel_number = 128 (i.e. bits = 10) change_channel_size_across_layers = False:

--------------------------------------------------- 


 PyTorch print of the model:

VQ_VAE(
  (encoder): Encoder(
    (sequential_convs): Sequential(
      (conv2d_1): Conv2d(3, 128, kernel_size=(4, 4), stride=(2, 2), padding=(1, 1))
      (ReLU_1): ReLU(inplace=True)
      (conv2d_2): Conv2d(128, 128, kernel_size=(4, 4), stride=(2, 2), padding=(1, 1))
      (ReLU_2): ReLU(inplace=True)
      (conv2d_3): Conv2d(128, 128, kernel_size=(4, 4), stride=(2, 2), padding=(1, 1))
      (ReLU_3): ReLU(inplace=True)
      (conv2d_4): Conv2d(128, 128, kernel_size=(4, 4), stride=(2, 2), padding=(1, 1))
      (ReLU_4): ReLU(inplace=True)
      (conv2d_5): Conv2d(128, 128, kernel_size=(4, 4), stride=(2, 2), padding=(1, 1))
      (ReLU_5): ReLU(inplace=True)
      (conv2d_6): Conv2d(128, 128, kernel_size=(4, 4), stride=(2, 2), padding=(1, 1))
      (ReLU_6): ReLU(inplace=True)
    )
    (pre_residual_stack): Conv2d(128, 128, kernel_size=(3, 3), stride=(1, 1), padding=(1, 1))
    (residual_stack): ResidualStack(
      (residual_blocks): ModuleList(
        (0): Residual(
          (residual_block): Sequential(
            (0): ReLU(inplace=True)
            (1): Conv2d(128, 32, kernel_size=(3, 3), stride=(1, 1), padding=(1, 1), bias=False)
            (2): ReLU(inplace=True)
            (3): Conv2d(32, 128, kernel_size=(1, 1), stride=(1, 1), bias=False)
          )
        )
        (1): Residual(
          (residual_block): Sequential(
            (0): ReLU(inplace=True)
            (1): Conv2d(128, 32, kernel_size=(3, 3), stride=(1, 1), padding=(1, 1), bias=False)
            (2): ReLU(inplace=True)
            (3): Conv2d(32, 128, kernel_size=(1, 1), stride=(1, 1), bias=False)
          )
        )
      )
    )
    (channel_adjusting_conv): Conv2d(128, 64, kernel_size=(1, 1), stride=(1, 1))
  )
  (VQ): VectorQuantizer(
    (E): Embedding(1024, 64)
  )
  (decoder): Decoder(
    (channel_adjusting_conv): Conv2d(64, 128, kernel_size=(3, 3), stride=(1, 1), padding=(1, 1))
    (residual_stack): ResidualStack(
      (residual_blocks): ModuleList(
        (0): Residual(
          (residual_block): Sequential(
            (0): ReLU(inplace=True)
            (1): Conv2d(128, 32, kernel_size=(3, 3), stride=(1, 1), padding=(1, 1), bias=False)
            (2): ReLU(inplace=True)
            (3): Conv2d(32, 128, kernel_size=(1, 1), stride=(1, 1), bias=False)
          )
        )
        (1): Residual(
          (residual_block): Sequential(
            (0): ReLU(inplace=True)
            (1): Conv2d(128, 32, kernel_size=(3, 3), stride=(1, 1), padding=(1, 1), bias=False)
            (2): ReLU(inplace=True)
            (3): Conv2d(32, 128, kernel_size=(1, 1), stride=(1, 1), bias=False)
          )
        )
      )
    )
    (sequential_trans_convs): Sequential(
      (conv2d_1): ConvTranspose2d(128, 128, kernel_size=(4, 4), stride=(2, 2), padding=(1, 1))
      (ReLU_1): ReLU(inplace=True)
      (conv2d_2): ConvTranspose2d(128, 128, kernel_size=(4, 4), stride=(2, 2), padding=(1, 1))
      (ReLU_2): ReLU(inplace=True)
      (conv2d_3): ConvTranspose2d(128, 128, kernel_size=(4, 4), stride=(2, 2), padding=(1, 1))
      (ReLU_3): ReLU(inplace=True)
      (conv2d_4): ConvTranspose2d(128, 128, kernel_size=(4, 4), stride=(2, 2), padding=(1, 1))
      (ReLU_4): ReLU(inplace=True)
      (conv2d_5): ConvTranspose2d(128, 128, kernel_size=(4, 4), stride=(2, 2), padding=(1, 1))
      (ReLU_5): ReLU(inplace=True)
      (conv2d_6): ConvTranspose2d(128, 3, kernel_size=(4, 4), stride=(2, 2), padding=(1, 1))
    )
  )
)


 Total Trainable Params in thousands: 3085 

                                                         Module Name  # of params in thousands  # of params [%]
0                           encoder.sequential_convs.conv2d_1.weight                         6             0.19
1                           encoder.sequential_convs.conv2d_2.weight                       262             8.49
…
Finished [04:16:31 03.01.2023] 231) Finished running for K = 1024 & D = 64 & M = 0 & beta = 0.25 & max_channel_number = 128 (i.e. bits = 10) change_channel_size_across_layers = False:
Total training time is = 0:0:28 h/m/s. 

--------------------------------------------------- 

Started [04:16:31 03.01.2023] 232) Finished running for K = 1024 & D = 64 & M = 0 & beta = 0.25 & max_channel_number = 256 (i.e. bits = 10) change_channel_size_across_layers = False:

--------------------------------------------------- 


 PyTorch print of the model:

VQ_VAE(
  (encoder): Encoder(
    (sequential_convs): Sequential(
      (conv2d_1): Conv2d(3, 256, kernel_size=(4, 4), stride=(2, 2), padding=(1, 1))
      (ReLU_1): ReLU(inplace=True)
      (conv2d_2): Conv2d(256, 256, kernel_size=(4, 4), stride=(2, 2), padding=(1, 1))
      (ReLU_2): ReLU(inplace=True)
      (conv2d_3): Conv2d(256, 256, kernel_size=(4, 4), stride=(2, 2), padding=(1, 1))
      (ReLU_3): ReLU(inplace=True)
      (conv2d_4): Conv2d(256, 256, kernel_size=(4, 4), stride=(2, 2), padding=(1, 1))
      (ReLU_4): ReLU(inplace=True)
      (conv2d_5): Conv2d(256, 256, kernel_size=(4, 4), stride=(2, 2), padding=(1, 1))
      (ReLU_5): ReLU(inplace=True)
      (conv2d_6): Conv2d(256, 256, kernel_size=(4, 4), stride=(2, 2), padding=(1, 1))
      (ReLU_6): ReLU(inplace=True)
    )
    (pre_residual_stack): Conv2d(256, 256, kernel_size=(3, 3), stride=(1, 1), padding=(1, 1))
    (residual_stack): ResidualStack(
      (residual_blocks): ModuleList(
        (0): Residual(
          (residual_block): Sequential(
            (0): ReLU(inplace=True)
            (1): Conv2d(256, 32, kernel_size=(3, 3), stride=(1, 1), padding=(1, 1), bias=False)
            (2): ReLU(inplace=True)
            (3): Conv2d(32, 256, kernel_size=(1, 1), stride=(1, 1), bias=False)
          )
        )
        (1): Residual(
          (residual_block): Sequential(
            (0): ReLU(inplace=True)
            (1): Conv2d(256, 32, kernel_size=(3, 3), stride=(1, 1), padding=(1, 1), bias=False)
            (2): ReLU(inplace=True)
            (3): Conv2d(32, 256, kernel_size=(1, 1), stride=(1, 1), bias=False)
          )
        )
      )
    )
    (channel_adjusting_conv): Conv2d(256, 64, kernel_size=(1, 1), stride=(1, 1))
  )
  (VQ): VectorQuantizer(
    (E): Embedding(1024, 64)
  )
  (decoder): Decoder(
    (channel_adjusting_conv): Conv2d(64, 256, kernel_size=(3, 3), stride=(1, 1), padding=(1, 1))
    (residual_stack): ResidualStack(
      (residual_blocks): ModuleList(
        (0): Residual(
          (residual_block): Sequential(
            (0): ReLU(inplace=True)
            (1): Conv2d(256, 32, kernel_size=(3, 3), stride=(1, 1), padding=(1, 1), bias=False)
            (2): ReLU(inplace=True)
            (3): Conv2d(32, 256, kernel_size=(1, 1), stride=(1, 1), bias=False)
          )
        )
        (1): Residual(
          (residual_block): Sequential(
            (0): ReLU(inplace=True)
            (1): Conv2d(256, 32, kernel_size=(3, 3), stride=(1, 1), padding=(1, 1), bias=False)
            (2): ReLU(inplace=True)
            (3): Conv2d(32, 256, kernel_size=(1, 1), stride=(1, 1), bias=False)
          )
        )
      )
    )
    (sequential_trans_convs): Sequential(
      (conv2d_1): ConvTranspose2d(256, 256, kernel_size=(4, 4), stride=(2, 2), padding=(1, 1))
      (ReLU_1): ReLU(inplace=True)
      (conv2d_2): ConvTranspose2d(256, 256, kernel_size=(4, 4), stride=(2, 2), padding=(1, 1))
      (ReLU_2): ReLU(inplace=True)
      (conv2d_3): ConvTranspose2d(256, 256, kernel_size=(4, 4), stride=(2, 2), padding=(1, 1))
      (ReLU_3): ReLU(inplace=True)
      (conv2d_4): ConvTranspose2d(256, 256, kernel_size=(4, 4), stride=(2, 2), padding=(1, 1))
      (ReLU_4): ReLU(inplace=True)
      (conv2d_5): ConvTranspose2d(256, 256, kernel_size=(4, 4), stride=(2, 2), padding=(1, 1))
      (ReLU_5): ReLU(inplace=True)
      (conv2d_6): ConvTranspose2d(256, 3, kernel_size=(4, 4), stride=(2, 2), padding=(1, 1))
    )
  )
)


 Total Trainable Params in thousands: 11645 

                                                         Module Name  # of params in thousands  # of params [%]
0                           encoder.sequential_convs.conv2d_1.weight                        12             0.10
1                           encoder.sequential_convs.conv2d_2.weight                      1048             9.00
…
Finished [06:35:10 03.01.2023] 232) Finished running for K = 1024 & D = 64 & M = 0 & beta = 0.25 & max_channel_number = 256 (i.e. bits = 10) change_channel_size_across_layers = False:
Total training time is = 0:0:38 h/m/s. 

--------------------------------------------------- 

Started [06:35:10 03.01.2023] 233) Finished running for K = 512 & D = 64 & M = 7 & beta = 0.25 & max_channel_number = 128 (i.e. bits = 576) change_channel_size_across_layers = True:

--------------------------------------------------- 


 PyTorch print of the model:

VQ_VAE(
  (encoder): Encoder(
    (sequential_convs): Sequential(
      (conv2d_1): Conv2d(3, 32, kernel_size=(4, 4), stride=(2, 2), padding=(1, 1))
      (ReLU_1): ReLU(inplace=True)
      (conv2d_2): Conv2d(32, 64, kernel_size=(4, 4), stride=(2, 2), padding=(1, 1))
      (ReLU_2): ReLU(inplace=True)
      (conv2d_3): Conv2d(64, 128, kernel_size=(4, 4), stride=(2, 2), padding=(1, 1))
      (ReLU_3): ReLU(inplace=True)
    )
    (pre_residual_stack): Conv2d(128, 128, kernel_size=(3, 3), stride=(1, 1), padding=(1, 1))
    (residual_stack): ResidualStack(
      (residual_blocks): ModuleList(
        (0): Residual(
          (residual_block): Sequential(
            (0): ReLU(inplace=True)
            (1): Conv2d(128, 32, kernel_size=(3, 3), stride=(1, 1), padding=(1, 1), bias=False)
            (2): ReLU(inplace=True)
            (3): Conv2d(32, 128, kernel_size=(1, 1), stride=(1, 1), bias=False)
          )
        )
        (1): Residual(
          (residual_block): Sequential(
            (0): ReLU(inplace=True)
            (1): Conv2d(128, 32, kernel_size=(3, 3), stride=(1, 1), padding=(1, 1), bias=False)
            (2): ReLU(inplace=True)
            (3): Conv2d(32, 128, kernel_size=(1, 1), stride=(1, 1), bias=False)
          )
        )
      )
    )
    (channel_adjusting_conv): Conv2d(128, 64, kernel_size=(1, 1), stride=(1, 1))
  )
  (VQ): VectorQuantizer(
    (E): Embedding(512, 64)
  )
  (decoder): Decoder(
    (channel_adjusting_conv): Conv2d(64, 128, kernel_size=(3, 3), stride=(1, 1), padding=(1, 1))
    (residual_stack): ResidualStack(
      (residual_blocks): ModuleList(
        (0): Residual(
          (residual_block): Sequential(
            (0): ReLU(inplace=True)
            (1): Conv2d(128, 32, kernel_size=(3, 3), stride=(1, 1), padding=(1, 1), bias=False)
            (2): ReLU(inplace=True)
            (3): Conv2d(32, 128, kernel_size=(1, 1), stride=(1, 1), bias=False)
          )
        )
        (1): Residual(
          (residual_block): Sequential(
            (0): ReLU(inplace=True)
            (1): Conv2d(128, 32, kernel_size=(3, 3), stride=(1, 1), padding=(1, 1), bias=False)
            (2): ReLU(inplace=True)
            (3): Conv2d(32, 128, kernel_size=(1, 1), stride=(1, 1), bias=False)
          )
        )
      )
    )
    (sequential_trans_convs): Sequential(
      (conv2d_1): ConvTranspose2d(128, 64, kernel_size=(4, 4), stride=(2, 2), padding=(1, 1))
      (ReLU_1): ReLU(inplace=True)
      (conv2d_2): ConvTranspose2d(64, 32, kernel_size=(4, 4), stride=(2, 2), padding=(1, 1))
      (ReLU_2): ReLU(inplace=True)
      (conv2d_3): ConvTranspose2d(32, 3, kernel_size=(4, 4), stride=(2, 2), padding=(1, 1))
    )
  )
)


 Total Trainable Params in thousands: 748 

                                                         Module Name  # of params in thousands  # of params [%]
0                           encoder.sequential_convs.conv2d_1.weight                         1             0.13
1                           encoder.sequential_convs.conv2d_2.weight                        32             4.28
…
Finished [07:23:49 03.01.2023] 233) Finished running for K = 512 & D = 64 & M = 7 & beta = 0.25 & max_channel_number = 128 (i.e. bits = 576) change_channel_size_across_layers = True:
Total training time is = 0:7:38 h/m/s. 

--------------------------------------------------- 

Started [07:23:49 03.01.2023] 234) Finished running for K = 512 & D = 64 & M = 7 & beta = 0.25 & max_channel_number = 256 (i.e. bits = 576) change_channel_size_across_layers = True:

--------------------------------------------------- 


 PyTorch print of the model:

VQ_VAE(
  (encoder): Encoder(
    (sequential_convs): Sequential(
      (conv2d_1): Conv2d(3, 64, kernel_size=(4, 4), stride=(2, 2), padding=(1, 1))
      (ReLU_1): ReLU(inplace=True)
      (conv2d_2): Conv2d(64, 128, kernel_size=(4, 4), stride=(2, 2), padding=(1, 1))
      (ReLU_2): ReLU(inplace=True)
      (conv2d_3): Conv2d(128, 256, kernel_size=(4, 4), stride=(2, 2), padding=(1, 1))
      (ReLU_3): ReLU(inplace=True)
    )
    (pre_residual_stack): Conv2d(256, 256, kernel_size=(3, 3), stride=(1, 1), padding=(1, 1))
    (residual_stack): ResidualStack(
      (residual_blocks): ModuleList(
        (0): Residual(
          (residual_block): Sequential(
            (0): ReLU(inplace=True)
            (1): Conv2d(256, 32, kernel_size=(3, 3), stride=(1, 1), padding=(1, 1), bias=False)
            (2): ReLU(inplace=True)
            (3): Conv2d(32, 256, kernel_size=(1, 1), stride=(1, 1), bias=False)
          )
        )
        (1): Residual(
          (residual_block): Sequential(
            (0): ReLU(inplace=True)
            (1): Conv2d(256, 32, kernel_size=(3, 3), stride=(1, 1), padding=(1, 1), bias=False)
            (2): ReLU(inplace=True)
            (3): Conv2d(32, 256, kernel_size=(1, 1), stride=(1, 1), bias=False)
          )
        )
      )
    )
    (channel_adjusting_conv): Conv2d(256, 64, kernel_size=(1, 1), stride=(1, 1))
  )
  (VQ): VectorQuantizer(
    (E): Embedding(512, 64)
  )
  (decoder): Decoder(
    (channel_adjusting_conv): Conv2d(64, 256, kernel_size=(3, 3), stride=(1, 1), padding=(1, 1))
    (residual_stack): ResidualStack(
      (residual_blocks): ModuleList(
        (0): Residual(
          (residual_block): Sequential(
            (0): ReLU(inplace=True)
            (1): Conv2d(256, 32, kernel_size=(3, 3), stride=(1, 1), padding=(1, 1), bias=False)
            (2): ReLU(inplace=True)
            (3): Conv2d(32, 256, kernel_size=(1, 1), stride=(1, 1), bias=False)
          )
        )
        (1): Residual(
          (residual_block): Sequential(
            (0): ReLU(inplace=True)
            (1): Conv2d(256, 32, kernel_size=(3, 3), stride=(1, 1), padding=(1, 1), bias=False)
            (2): ReLU(inplace=True)
            (3): Conv2d(32, 256, kernel_size=(1, 1), stride=(1, 1), bias=False)
          )
        )
      )
    )
    (sequential_trans_convs): Sequential(
      (conv2d_1): ConvTranspose2d(256, 128, kernel_size=(4, 4), stride=(2, 2), padding=(1, 1))
      (ReLU_1): ReLU(inplace=True)
      (conv2d_2): ConvTranspose2d(128, 64, kernel_size=(4, 4), stride=(2, 2), padding=(1, 1))
      (ReLU_2): ReLU(inplace=True)
      (conv2d_3): ConvTranspose2d(64, 3, kernel_size=(4, 4), stride=(2, 2), padding=(1, 1))
    )
  )
)


 Total Trainable Params in thousands: 2424 

                                                         Module Name  # of params in thousands  # of params [%]
0                           encoder.sequential_convs.conv2d_1.weight                         3             0.12
1                           encoder.sequential_convs.conv2d_2.weight                       131             5.40
…
Finished [08:29:46 03.01.2023] 234) Finished running for K = 512 & D = 64 & M = 7 & beta = 0.25 & max_channel_number = 256 (i.e. bits = 576) change_channel_size_across_layers = True:
Total training time is = 0:7:57 h/m/s. 

--------------------------------------------------- 

Started [08:29:46 03.01.2023] 235) Finished running for K = 512 & D = 64 & M = 7 & beta = 0.25 & max_channel_number = 128 (i.e. bits = 576) change_channel_size_across_layers = False:

--------------------------------------------------- 


 PyTorch print of the model:

VQ_VAE(
  (encoder): Encoder(
    (sequential_convs): Sequential(
      (conv2d_1): Conv2d(3, 128, kernel_size=(4, 4), stride=(2, 2), padding=(1, 1))
      (ReLU_1): ReLU(inplace=True)
      (conv2d_2): Conv2d(128, 128, kernel_size=(4, 4), stride=(2, 2), padding=(1, 1))
      (ReLU_2): ReLU(inplace=True)
      (conv2d_3): Conv2d(128, 128, kernel_size=(4, 4), stride=(2, 2), padding=(1, 1))
      (ReLU_3): ReLU(inplace=True)
    )
    (pre_residual_stack): Conv2d(128, 128, kernel_size=(3, 3), stride=(1, 1), padding=(1, 1))
    (residual_stack): ResidualStack(
      (residual_blocks): ModuleList(
        (0): Residual(
          (residual_block): Sequential(
            (0): ReLU(inplace=True)
            (1): Conv2d(128, 32, kernel_size=(3, 3), stride=(1, 1), padding=(1, 1), bias=False)
            (2): ReLU(inplace=True)
            (3): Conv2d(32, 128, kernel_size=(1, 1), stride=(1, 1), bias=False)
          )
        )
        (1): Residual(
          (residual_block): Sequential(
            (0): ReLU(inplace=True)
            (1): Conv2d(128, 32, kernel_size=(3, 3), stride=(1, 1), padding=(1, 1), bias=False)
            (2): ReLU(inplace=True)
            (3): Conv2d(32, 128, kernel_size=(1, 1), stride=(1, 1), bias=False)
          )
        )
      )
    )
    (channel_adjusting_conv): Conv2d(128, 64, kernel_size=(1, 1), stride=(1, 1))
  )
  (VQ): VectorQuantizer(
    (E): Embedding(512, 64)
  )
  (decoder): Decoder(
    (channel_adjusting_conv): Conv2d(64, 128, kernel_size=(3, 3), stride=(1, 1), padding=(1, 1))
    (residual_stack): ResidualStack(
      (residual_blocks): ModuleList(
        (0): Residual(
          (residual_block): Sequential(
            (0): ReLU(inplace=True)
            (1): Conv2d(128, 32, kernel_size=(3, 3), stride=(1, 1), padding=(1, 1), bias=False)
            (2): ReLU(inplace=True)
            (3): Conv2d(32, 128, kernel_size=(1, 1), stride=(1, 1), bias=False)
          )
        )
        (1): Residual(
          (residual_block): Sequential(
            (0): ReLU(inplace=True)
            (1): Conv2d(128, 32, kernel_size=(3, 3), stride=(1, 1), padding=(1, 1), bias=False)
            (2): ReLU(inplace=True)
            (3): Conv2d(32, 128, kernel_size=(1, 1), stride=(1, 1), bias=False)
          )
        )
      )
    )
    (sequential_trans_convs): Sequential(
      (conv2d_1): ConvTranspose2d(128, 128, kernel_size=(4, 4), stride=(2, 2), padding=(1, 1))
      (ReLU_1): ReLU(inplace=True)
      (conv2d_2): ConvTranspose2d(128, 128, kernel_size=(4, 4), stride=(2, 2), padding=(1, 1))
      (ReLU_2): ReLU(inplace=True)
      (conv2d_3): ConvTranspose2d(128, 3, kernel_size=(4, 4), stride=(2, 2), padding=(1, 1))
    )
  )
)


 Total Trainable Params in thousands: 1480 

                                                         Module Name  # of params in thousands  # of params [%]
0                           encoder.sequential_convs.conv2d_1.weight                         6             0.41
1                           encoder.sequential_convs.conv2d_2.weight                       262            17.70
…
Finished [09:35:55 03.01.2023] 235) Finished running for K = 512 & D = 64 & M = 7 & beta = 0.25 & max_channel_number = 128 (i.e. bits = 576) change_channel_size_across_layers = False:
Total training time is = 0:7:8 h/m/s. 

--------------------------------------------------- 

Started [09:35:55 03.01.2023] 236) Finished running for K = 512 & D = 64 & M = 7 & beta = 0.25 & max_channel_number = 256 (i.e. bits = 576) change_channel_size_across_layers = False:

--------------------------------------------------- 


 PyTorch print of the model:

VQ_VAE(
  (encoder): Encoder(
    (sequential_convs): Sequential(
      (conv2d_1): Conv2d(3, 256, kernel_size=(4, 4), stride=(2, 2), padding=(1, 1))
      (ReLU_1): ReLU(inplace=True)
      (conv2d_2): Conv2d(256, 256, kernel_size=(4, 4), stride=(2, 2), padding=(1, 1))
      (ReLU_2): ReLU(inplace=True)
      (conv2d_3): Conv2d(256, 256, kernel_size=(4, 4), stride=(2, 2), padding=(1, 1))
      (ReLU_3): ReLU(inplace=True)
    )
    (pre_residual_stack): Conv2d(256, 256, kernel_size=(3, 3), stride=(1, 1), padding=(1, 1))
    (residual_stack): ResidualStack(
      (residual_blocks): ModuleList(
        (0): Residual(
          (residual_block): Sequential(
            (0): ReLU(inplace=True)
            (1): Conv2d(256, 32, kernel_size=(3, 3), stride=(1, 1), padding=(1, 1), bias=False)
            (2): ReLU(inplace=True)
            (3): Conv2d(32, 256, kernel_size=(1, 1), stride=(1, 1), bias=False)
          )
        )
        (1): Residual(
          (residual_block): Sequential(
            (0): ReLU(inplace=True)
            (1): Conv2d(256, 32, kernel_size=(3, 3), stride=(1, 1), padding=(1, 1), bias=False)
            (2): ReLU(inplace=True)
            (3): Conv2d(32, 256, kernel_size=(1, 1), stride=(1, 1), bias=False)
          )
        )
      )
    )
    (channel_adjusting_conv): Conv2d(256, 64, kernel_size=(1, 1), stride=(1, 1))
  )
  (VQ): VectorQuantizer(
    (E): Embedding(512, 64)
  )
  (decoder): Decoder(
    (channel_adjusting_conv): Conv2d(64, 256, kernel_size=(3, 3), stride=(1, 1), padding=(1, 1))
    (residual_stack): ResidualStack(
      (residual_blocks): ModuleList(
        (0): Residual(
          (residual_block): Sequential(
            (0): ReLU(inplace=True)
            (1): Conv2d(256, 32, kernel_size=(3, 3), stride=(1, 1), padding=(1, 1), bias=False)
            (2): ReLU(inplace=True)
            (3): Conv2d(32, 256, kernel_size=(1, 1), stride=(1, 1), bias=False)
          )
        )
        (1): Residual(
          (residual_block): Sequential(
            (0): ReLU(inplace=True)
            (1): Conv2d(256, 32, kernel_size=(3, 3), stride=(1, 1), padding=(1, 1), bias=False)
            (2): ReLU(inplace=True)
            (3): Conv2d(32, 256, kernel_size=(1, 1), stride=(1, 1), bias=False)
          )
        )
      )
    )
    (sequential_trans_convs): Sequential(
      (conv2d_1): ConvTranspose2d(256, 256, kernel_size=(4, 4), stride=(2, 2), padding=(1, 1))
      (ReLU_1): ReLU(inplace=True)
      (conv2d_2): ConvTranspose2d(256, 256, kernel_size=(4, 4), stride=(2, 2), padding=(1, 1))
      (ReLU_2): ReLU(inplace=True)
      (conv2d_3): ConvTranspose2d(256, 3, kernel_size=(4, 4), stride=(2, 2), padding=(1, 1))
    )
  )
)


 Total Trainable Params in thousands: 5324 

                                                         Module Name  # of params in thousands  # of params [%]
0                           encoder.sequential_convs.conv2d_1.weight                        12             0.23
1                           encoder.sequential_convs.conv2d_2.weight                      1048            19.68
…
Finished [11:52:44 03.01.2023] 236) Finished running for K = 512 & D = 64 & M = 7 & beta = 0.25 & max_channel_number = 256 (i.e. bits = 576) change_channel_size_across_layers = False:
Total training time is = 0:7:49 h/m/s. 

--------------------------------------------------- 

Started [11:52:44 03.01.2023] 237) Finished running for K = 512 & D = 64 & M = 3 & beta = 0.25 & max_channel_number = 128 (i.e. bits = 144) change_channel_size_across_layers = True:

--------------------------------------------------- 


 PyTorch print of the model:

VQ_VAE(
  (encoder): Encoder(
    (sequential_convs): Sequential(
      (conv2d_1): Conv2d(3, 16, kernel_size=(4, 4), stride=(2, 2), padding=(1, 1))
      (ReLU_1): ReLU(inplace=True)
      (conv2d_2): Conv2d(16, 32, kernel_size=(4, 4), stride=(2, 2), padding=(1, 1))
      (ReLU_2): ReLU(inplace=True)
      (conv2d_3): Conv2d(32, 64, kernel_size=(4, 4), stride=(2, 2), padding=(1, 1))
      (ReLU_3): ReLU(inplace=True)
      (conv2d_4): Conv2d(64, 128, kernel_size=(4, 4), stride=(2, 2), padding=(1, 1))
      (ReLU_4): ReLU(inplace=True)
    )
    (pre_residual_stack): Conv2d(128, 128, kernel_size=(3, 3), stride=(1, 1), padding=(1, 1))
    (residual_stack): ResidualStack(
      (residual_blocks): ModuleList(
        (0): Residual(
          (residual_block): Sequential(
            (0): ReLU(inplace=True)
            (1): Conv2d(128, 32, kernel_size=(3, 3), stride=(1, 1), padding=(1, 1), bias=False)
            (2): ReLU(inplace=True)
            (3): Conv2d(32, 128, kernel_size=(1, 1), stride=(1, 1), bias=False)
          )
        )
        (1): Residual(
          (residual_block): Sequential(
            (0): ReLU(inplace=True)
            (1): Conv2d(128, 32, kernel_size=(3, 3), stride=(1, 1), padding=(1, 1), bias=False)
            (2): ReLU(inplace=True)
            (3): Conv2d(32, 128, kernel_size=(1, 1), stride=(1, 1), bias=False)
          )
        )
      )
    )
    (channel_adjusting_conv): Conv2d(128, 64, kernel_size=(1, 1), stride=(1, 1))
  )
  (VQ): VectorQuantizer(
    (E): Embedding(512, 64)
  )
  (decoder): Decoder(
    (channel_adjusting_conv): Conv2d(64, 128, kernel_size=(3, 3), stride=(1, 1), padding=(1, 1))
    (residual_stack): ResidualStack(
      (residual_blocks): ModuleList(
        (0): Residual(
          (residual_block): Sequential(
            (0): ReLU(inplace=True)
            (1): Conv2d(128, 32, kernel_size=(3, 3), stride=(1, 1), padding=(1, 1), bias=False)
            (2): ReLU(inplace=True)
            (3): Conv2d(32, 128, kernel_size=(1, 1), stride=(1, 1), bias=False)
          )
        )
        (1): Residual(
          (residual_block): Sequential(
            (0): ReLU(inplace=True)
            (1): Conv2d(128, 32, kernel_size=(3, 3), stride=(1, 1), padding=(1, 1), bias=False)
            (2): ReLU(inplace=True)
            (3): Conv2d(32, 128, kernel_size=(1, 1), stride=(1, 1), bias=False)
          )
        )
      )
    )
    (sequential_trans_convs): Sequential(
      (conv2d_1): ConvTranspose2d(128, 64, kernel_size=(4, 4), stride=(2, 2), padding=(1, 1))
      (ReLU_1): ReLU(inplace=True)
      (conv2d_2): ConvTranspose2d(64, 32, kernel_size=(4, 4), stride=(2, 2), padding=(1, 1))
      (ReLU_2): ReLU(inplace=True)
      (conv2d_3): ConvTranspose2d(32, 16, kernel_size=(4, 4), stride=(2, 2), padding=(1, 1))
      (ReLU_3): ReLU(inplace=True)
      (conv2d_4): ConvTranspose2d(16, 3, kernel_size=(4, 4), stride=(2, 2), padding=(1, 1))
    )
  )
)


 Total Trainable Params in thousands: 762 

                                                         Module Name  # of params in thousands  # of params [%]
0                           encoder.sequential_convs.conv2d_1.weight                         0             0.00
1                           encoder.sequential_convs.conv2d_2.weight                         8             1.05
…
Finished [12:40:43 03.01.2023] 237) Finished running for K = 512 & D = 64 & M = 3 & beta = 0.25 & max_channel_number = 128 (i.e. bits = 144) change_channel_size_across_layers = True:
Total training time is = 0:3:58 h/m/s. 

--------------------------------------------------- 

Started [12:40:43 03.01.2023] 238) Finished running for K = 512 & D = 64 & M = 3 & beta = 0.25 & max_channel_number = 256 (i.e. bits = 144) change_channel_size_across_layers = True:

--------------------------------------------------- 


 PyTorch print of the model:

VQ_VAE(
  (encoder): Encoder(
    (sequential_convs): Sequential(
      (conv2d_1): Conv2d(3, 32, kernel_size=(4, 4), stride=(2, 2), padding=(1, 1))
      (ReLU_1): ReLU(inplace=True)
      (conv2d_2): Conv2d(32, 64, kernel_size=(4, 4), stride=(2, 2), padding=(1, 1))
      (ReLU_2): ReLU(inplace=True)
      (conv2d_3): Conv2d(64, 128, kernel_size=(4, 4), stride=(2, 2), padding=(1, 1))
      (ReLU_3): ReLU(inplace=True)
      (conv2d_4): Conv2d(128, 256, kernel_size=(4, 4), stride=(2, 2), padding=(1, 1))
      (ReLU_4): ReLU(inplace=True)
    )
    (pre_residual_stack): Conv2d(256, 256, kernel_size=(3, 3), stride=(1, 1), padding=(1, 1))
    (residual_stack): ResidualStack(
      (residual_blocks): ModuleList(
        (0): Residual(
          (residual_block): Sequential(
            (0): ReLU(inplace=True)
            (1): Conv2d(256, 32, kernel_size=(3, 3), stride=(1, 1), padding=(1, 1), bias=False)
            (2): ReLU(inplace=True)
            (3): Conv2d(32, 256, kernel_size=(1, 1), stride=(1, 1), bias=False)
          )
        )
        (1): Residual(
          (residual_block): Sequential(
            (0): ReLU(inplace=True)
            (1): Conv2d(256, 32, kernel_size=(3, 3), stride=(1, 1), padding=(1, 1), bias=False)
            (2): ReLU(inplace=True)
            (3): Conv2d(32, 256, kernel_size=(1, 1), stride=(1, 1), bias=False)
          )
        )
      )
    )
    (channel_adjusting_conv): Conv2d(256, 64, kernel_size=(1, 1), stride=(1, 1))
  )
  (VQ): VectorQuantizer(
    (E): Embedding(512, 64)
  )
  (decoder): Decoder(
    (channel_adjusting_conv): Conv2d(64, 256, kernel_size=(3, 3), stride=(1, 1), padding=(1, 1))
    (residual_stack): ResidualStack(
      (residual_blocks): ModuleList(
        (0): Residual(
          (residual_block): Sequential(
            (0): ReLU(inplace=True)
            (1): Conv2d(256, 32, kernel_size=(3, 3), stride=(1, 1), padding=(1, 1), bias=False)
            (2): ReLU(inplace=True)
            (3): Conv2d(32, 256, kernel_size=(1, 1), stride=(1, 1), bias=False)
          )
        )
        (1): Residual(
          (residual_block): Sequential(
            (0): ReLU(inplace=True)
            (1): Conv2d(256, 32, kernel_size=(3, 3), stride=(1, 1), padding=(1, 1), bias=False)
            (2): ReLU(inplace=True)
            (3): Conv2d(32, 256, kernel_size=(1, 1), stride=(1, 1), bias=False)
          )
        )
      )
    )
    (sequential_trans_convs): Sequential(
      (conv2d_1): ConvTranspose2d(256, 128, kernel_size=(4, 4), stride=(2, 2), padding=(1, 1))
      (ReLU_1): ReLU(inplace=True)
      (conv2d_2): ConvTranspose2d(128, 64, kernel_size=(4, 4), stride=(2, 2), padding=(1, 1))
      (ReLU_2): ReLU(inplace=True)
      (conv2d_3): ConvTranspose2d(64, 32, kernel_size=(4, 4), stride=(2, 2), padding=(1, 1))
      (ReLU_3): ReLU(inplace=True)
      (conv2d_4): ConvTranspose2d(32, 3, kernel_size=(4, 4), stride=(2, 2), padding=(1, 1))
    )
  )
)


 Total Trainable Params in thousands: 2484 

                                                         Module Name  # of params in thousands  # of params [%]
…
            (1): Conv2d(256, 32, kernel_size=(3, 3), stride=(1, 1), padding=(1, 1), bias=False)
            (2): ReLU(inplace=True)
            (3): Conv2d(32, 256, kernel_size=(1, 1), stride=(1, 1), bias=False)
          )
        )
      )
    )
    (channel_adjusting_conv): Conv2d(256, 64, kernel_size=(1, 1), stride=(1, 1))
  )
  (VQ): VectorQuantizer(
    (E): Embedding(64, 64)
  )
  (decoder): Decoder(
    (channel_adjusting_conv): Conv2d(64, 256, kernel_size=(3, 3), stride=(1, 1), padding=(1, 1))
    (residual_stack): ResidualStack(
      (residual_blocks): ModuleList(
        (0): Residual(
          (residual_block): Sequential(
            (0): ReLU(inplace=True)
            (1): Conv2d(256, 32, kernel_size=(3, 3), stride=(1, 1), padding=(1, 1), bias=False)
            (2): ReLU(inplace=True)
            (3): Conv2d(32, 256, kernel_size=(1, 1), stride=(1, 1), bias=False)
          )
        )
        (1): Residual(
          (residual_block): Sequential(
            (0): ReLU(inplace=True)
            (1): Conv2d(256, 32, kernel_size=(3, 3), stride=(1, 1), padding=(1, 1), bias=False)
            (2): ReLU(inplace=True)
            (3): Conv2d(32, 256, kernel_size=(1, 1), stride=(1, 1), bias=False)
          )
        )
      )
    )
    (sequential_trans_convs): Sequential(
      (conv2d_1): ConvTranspose2d(256, 128, kernel_size=(4, 4), stride=(2, 2), padding=(1, 1))
      (ReLU_1): ReLU(inplace=True)
      (conv2d_2): ConvTranspose2d(128, 64, kernel_size=(4, 4), stride=(2, 2), padding=(1, 1))
      (ReLU_2): ReLU(inplace=True)
      (conv2d_3): ConvTranspose2d(64, 3, kernel_size=(4, 4), stride=(2, 2), padding=(1, 1))
    )
  )
)


 Total Trainable Params in thousands: 2396 

                                                         Module Name  # of params in thousands  # of params [%]
0                           encoder.sequential_convs.conv2d_1.weight                         3             0.13
1                           encoder.sequential_convs.conv2d_2.weight                       131             5.47
…
Finished [02:30:29 06.01.2023] 282) Finished running for K = 64 & D = 64 & M = 7 & beta = 0.25 & max_channel_number = 256 (i.e. bits = 384) change_channel_size_across_layers = True:
Total training time is = 0:7:6 h/m/s. 

--------------------------------------------------- 

Started [02:30:29 06.01.2023] 283) Finished running for K = 64 & D = 64 & M = 7 & beta = 0.25 & max_channel_number = 128 (i.e. bits = 384) change_channel_size_across_layers = False:

--------------------------------------------------- 


 PyTorch print of the model:

VQ_VAE(
  (encoder): Encoder(
    (sequential_convs): Sequential(
      (conv2d_1): Conv2d(3, 128, kernel_size=(4, 4), stride=(2, 2), padding=(1, 1))
      (ReLU_1): ReLU(inplace=True)
      (conv2d_2): Conv2d(128, 128, kernel_size=(4, 4), stride=(2, 2), padding=(1, 1))
      (ReLU_2): ReLU(inplace=True)
      (conv2d_3): Conv2d(128, 128, kernel_size=(4, 4), stride=(2, 2), padding=(1, 1))
      (ReLU_3): ReLU(inplace=True)
    )
    (pre_residual_stack): Conv2d(128, 128, kernel_size=(3, 3), stride=(1, 1), padding=(1, 1))
    (residual_stack): ResidualStack(
      (residual_blocks): ModuleList(
        (0): Residual(
          (residual_block): Sequential(
            (0): ReLU(inplace=True)
            (1): Conv2d(128, 32, kernel_size=(3, 3), stride=(1, 1), padding=(1, 1), bias=False)
            (2): ReLU(inplace=True)
            (3): Conv2d(32, 128, kernel_size=(1, 1), stride=(1, 1), bias=False)
          )
        )
        (1): Residual(
          (residual_block): Sequential(
            (0): ReLU(inplace=True)
            (1): Conv2d(128, 32, kernel_size=(3, 3), stride=(1, 1), padding=(1, 1), bias=False)
            (2): ReLU(inplace=True)
            (3): Conv2d(32, 128, kernel_size=(1, 1), stride=(1, 1), bias=False)
          )
        )
      )
    )
    (channel_adjusting_conv): Conv2d(128, 64, kernel_size=(1, 1), stride=(1, 1))
  )
  (VQ): VectorQuantizer(
    (E): Embedding(64, 64)
  )
  (decoder): Decoder(
    (channel_adjusting_conv): Conv2d(64, 128, kernel_size=(3, 3), stride=(1, 1), padding=(1, 1))
    (residual_stack): ResidualStack(
      (residual_blocks): ModuleList(
        (0): Residual(
          (residual_block): Sequential(
            (0): ReLU(inplace=True)
            (1): Conv2d(128, 32, kernel_size=(3, 3), stride=(1, 1), padding=(1, 1), bias=False)
            (2): ReLU(inplace=True)
            (3): Conv2d(32, 128, kernel_size=(1, 1), stride=(1, 1), bias=False)
          )
        )
        (1): Residual(
          (residual_block): Sequential(
            (0): ReLU(inplace=True)
            (1): Conv2d(128, 32, kernel_size=(3, 3), stride=(1, 1), padding=(1, 1), bias=False)
            (2): ReLU(inplace=True)
            (3): Conv2d(32, 128, kernel_size=(1, 1), stride=(1, 1), bias=False)
          )
        )
      )
    )
    (sequential_trans_convs): Sequential(
      (conv2d_1): ConvTranspose2d(128, 128, kernel_size=(4, 4), stride=(2, 2), padding=(1, 1))
      (ReLU_1): ReLU(inplace=True)
      (conv2d_2): ConvTranspose2d(128, 128, kernel_size=(4, 4), stride=(2, 2), padding=(1, 1))
      (ReLU_2): ReLU(inplace=True)
      (conv2d_3): ConvTranspose2d(128, 3, kernel_size=(4, 4), stride=(2, 2), padding=(1, 1))
    )
  )
)


 Total Trainable Params in thousands: 1452 

                                                         Module Name  # of params in thousands  # of params [%]
0                           encoder.sequential_convs.conv2d_1.weight                         6             0.41
1                           encoder.sequential_convs.conv2d_2.weight                       262            18.04
…
Finished [03:36:52 06.01.2023] 283) Finished running for K = 64 & D = 64 & M = 7 & beta = 0.25 & max_channel_number = 128 (i.e. bits = 384) change_channel_size_across_layers = False:
Total training time is = 0:7:22 h/m/s. 

--------------------------------------------------- 

Started [03:36:52 06.01.2023] 284) Finished running for K = 64 & D = 64 & M = 7 & beta = 0.25 & max_channel_number = 256 (i.e. bits = 384) change_channel_size_across_layers = False:

--------------------------------------------------- 


 PyTorch print of the model:

VQ_VAE(
  (encoder): Encoder(
    (sequential_convs): Sequential(
      (conv2d_1): Conv2d(3, 256, kernel_size=(4, 4), stride=(2, 2), padding=(1, 1))
      (ReLU_1): ReLU(inplace=True)
      (conv2d_2): Conv2d(256, 256, kernel_size=(4, 4), stride=(2, 2), padding=(1, 1))
      (ReLU_2): ReLU(inplace=True)
      (conv2d_3): Conv2d(256, 256, kernel_size=(4, 4), stride=(2, 2), padding=(1, 1))
      (ReLU_3): ReLU(inplace=True)
    )
    (pre_residual_stack): Conv2d(256, 256, kernel_size=(3, 3), stride=(1, 1), padding=(1, 1))
    (residual_stack): ResidualStack(
      (residual_blocks): ModuleList(
        (0): Residual(
          (residual_block): Sequential(
            (0): ReLU(inplace=True)
            (1): Conv2d(256, 32, kernel_size=(3, 3), stride=(1, 1), padding=(1, 1), bias=False)
            (2): ReLU(inplace=True)
            (3): Conv2d(32, 256, kernel_size=(1, 1), stride=(1, 1), bias=False)
          )
        )
        (1): Residual(
          (residual_block): Sequential(
            (0): ReLU(inplace=True)
            (1): Conv2d(256, 32, kernel_size=(3, 3), stride=(1, 1), padding=(1, 1), bias=False)
            (2): ReLU(inplace=True)
            (3): Conv2d(32, 256, kernel_size=(1, 1), stride=(1, 1), bias=False)
          )
        )
      )
    )
    (channel_adjusting_conv): Conv2d(256, 64, kernel_size=(1, 1), stride=(1, 1))
  )
  (VQ): VectorQuantizer(
    (E): Embedding(64, 64)
  )
  (decoder): Decoder(
    (channel_adjusting_conv): Conv2d(64, 256, kernel_size=(3, 3), stride=(1, 1), padding=(1, 1))
    (residual_stack): ResidualStack(
      (residual_blocks): ModuleList(
        (0): Residual(
          (residual_block): Sequential(
            (0): ReLU(inplace=True)
            (1): Conv2d(256, 32, kernel_size=(3, 3), stride=(1, 1), padding=(1, 1), bias=False)
            (2): ReLU(inplace=True)
            (3): Conv2d(32, 256, kernel_size=(1, 1), stride=(1, 1), bias=False)
          )
        )
        (1): Residual(
          (residual_block): Sequential(
            (0): ReLU(inplace=True)
            (1): Conv2d(256, 32, kernel_size=(3, 3), stride=(1, 1), padding=(1, 1), bias=False)
            (2): ReLU(inplace=True)
            (3): Conv2d(32, 256, kernel_size=(1, 1), stride=(1, 1), bias=False)
          )
        )
      )
    )
    (sequential_trans_convs): Sequential(
      (conv2d_1): ConvTranspose2d(256, 256, kernel_size=(4, 4), stride=(2, 2), padding=(1, 1))
      (ReLU_1): ReLU(inplace=True)
      (conv2d_2): ConvTranspose2d(256, 256, kernel_size=(4, 4), stride=(2, 2), padding=(1, 1))
      (ReLU_2): ReLU(inplace=True)
      (conv2d_3): ConvTranspose2d(256, 3, kernel_size=(4, 4), stride=(2, 2), padding=(1, 1))
    )
  )
)


 Total Trainable Params in thousands: 5296 

                                                         Module Name  # of params in thousands  # of params [%]
0                           encoder.sequential_convs.conv2d_1.weight                        12             0.23
1                           encoder.sequential_convs.conv2d_2.weight                      1048            19.79
…
Finished [05:53:40 06.01.2023] 284) Finished running for K = 64 & D = 64 & M = 7 & beta = 0.25 & max_channel_number = 256 (i.e. bits = 384) change_channel_size_across_layers = False:
Total training time is = 0:7:48 h/m/s. 

--------------------------------------------------- 

Started [05:53:40 06.01.2023] 285) Finished running for K = 64 & D = 64 & M = 3 & beta = 0.25 & max_channel_number = 128 (i.e. bits = 96) change_channel_size_across_layers = True:

--------------------------------------------------- 


 PyTorch print of the model:

VQ_VAE(
  (encoder): Encoder(
    (sequential_convs): Sequential(
      (conv2d_1): Conv2d(3, 16, kernel_size=(4, 4), stride=(2, 2), padding=(1, 1))
      (ReLU_1): ReLU(inplace=True)
      (conv2d_2): Conv2d(16, 32, kernel_size=(4, 4), stride=(2, 2), padding=(1, 1))
      (ReLU_2): ReLU(inplace=True)
      (conv2d_3): Conv2d(32, 64, kernel_size=(4, 4), stride=(2, 2), padding=(1, 1))
      (ReLU_3): ReLU(inplace=True)
      (conv2d_4): Conv2d(64, 128, kernel_size=(4, 4), stride=(2, 2), padding=(1, 1))
      (ReLU_4): ReLU(inplace=True)
    )
    (pre_residual_stack): Conv2d(128, 128, kernel_size=(3, 3), stride=(1, 1), padding=(1, 1))
    (residual_stack): ResidualStack(
      (residual_blocks): ModuleList(
        (0): Residual(
          (residual_block): Sequential(
            (0): ReLU(inplace=True)
            (1): Conv2d(128, 32, kernel_size=(3, 3), stride=(1, 1), padding=(1, 1), bias=False)
            (2): ReLU(inplace=True)
            (3): Conv2d(32, 128, kernel_size=(1, 1), stride=(1, 1), bias=False)
          )
        )
        (1): Residual(
          (residual_block): Sequential(
            (0): ReLU(inplace=True)
            (1): Conv2d(128, 32, kernel_size=(3, 3), stride=(1, 1), padding=(1, 1), bias=False)
            (2): ReLU(inplace=True)
            (3): Conv2d(32, 128, kernel_size=(1, 1), stride=(1, 1), bias=False)
          )
        )
      )
    )
    (channel_adjusting_conv): Conv2d(128, 64, kernel_size=(1, 1), stride=(1, 1))
  )
  (VQ): VectorQuantizer(
    (E): Embedding(64, 64)
  )
  (decoder): Decoder(
    (channel_adjusting_conv): Conv2d(64, 128, kernel_size=(3, 3), stride=(1, 1), padding=(1, 1))
    (residual_stack): ResidualStack(
      (residual_blocks): ModuleList(
        (0): Residual(
          (residual_block): Sequential(
            (0): ReLU(inplace=True)
            (1): Conv2d(128, 32, kernel_size=(3, 3), stride=(1, 1), padding=(1, 1), bias=False)
            (2): ReLU(inplace=True)
            (3): Conv2d(32, 128, kernel_size=(1, 1), stride=(1, 1), bias=False)
          )
        )
        (1): Residual(
          (residual_block): Sequential(
            (0): ReLU(inplace=True)
            (1): Conv2d(128, 32, kernel_size=(3, 3), stride=(1, 1), padding=(1, 1), bias=False)
            (2): ReLU(inplace=True)
            (3): Conv2d(32, 128, kernel_size=(1, 1), stride=(1, 1), bias=False)
          )
        )
      )
    )
    (sequential_trans_convs): Sequential(
      (conv2d_1): ConvTranspose2d(128, 64, kernel_size=(4, 4), stride=(2, 2), padding=(1, 1))
      (ReLU_1): ReLU(inplace=True)
      (conv2d_2): ConvTranspose2d(64, 32, kernel_size=(4, 4), stride=(2, 2), padding=(1, 1))
      (ReLU_2): ReLU(inplace=True)
      (conv2d_3): ConvTranspose2d(32, 16, kernel_size=(4, 4), stride=(2, 2), padding=(1, 1))
      (ReLU_3): ReLU(inplace=True)
      (conv2d_4): ConvTranspose2d(16, 3, kernel_size=(4, 4), stride=(2, 2), padding=(1, 1))
    )
  )
)


 Total Trainable Params in thousands: 734 

                                                         Module Name  # of params in thousands  # of params [%]
0                           encoder.sequential_convs.conv2d_1.weight                         0             0.00
1                           encoder.sequential_convs.conv2d_2.weight                         8             1.09
…
Finished [06:42:07 06.01.2023] 285) Finished running for K = 64 & D = 64 & M = 3 & beta = 0.25 & max_channel_number = 128 (i.e. bits = 96) change_channel_size_across_layers = True:
Total training time is = 0:3:26 h/m/s. 

--------------------------------------------------- 

Started [06:42:07 06.01.2023] 286) Finished running for K = 64 & D = 64 & M = 3 & beta = 0.25 & max_channel_number = 256 (i.e. bits = 96) change_channel_size_across_layers = True:

--------------------------------------------------- 


 PyTorch print of the model:

VQ_VAE(
  (encoder): Encoder(
    (sequential_convs): Sequential(
      (conv2d_1): Conv2d(3, 32, kernel_size=(4, 4), stride=(2, 2), padding=(1, 1))
      (ReLU_1): ReLU(inplace=True)
      (conv2d_2): Conv2d(32, 64, kernel_size=(4, 4), stride=(2, 2), padding=(1, 1))
      (ReLU_2): ReLU(inplace=True)
      (conv2d_3): Conv2d(64, 128, kernel_size=(4, 4), stride=(2, 2), padding=(1, 1))
      (ReLU_3): ReLU(inplace=True)
      (conv2d_4): Conv2d(128, 256, kernel_size=(4, 4), stride=(2, 2), padding=(1, 1))
      (ReLU_4): ReLU(inplace=True)
    )
    (pre_residual_stack): Conv2d(256, 256, kernel_size=(3, 3), stride=(1, 1), padding=(1, 1))
    (residual_stack): ResidualStack(
      (residual_blocks): ModuleList(
        (0): Residual(
          (residual_block): Sequential(
            (0): ReLU(inplace=True)
            (1): Conv2d(256, 32, kernel_size=(3, 3), stride=(1, 1), padding=(1, 1), bias=False)
            (2): ReLU(inplace=True)
            (3): Conv2d(32, 256, kernel_size=(1, 1), stride=(1, 1), bias=False)
          )
        )
        (1): Residual(
          (residual_block): Sequential(
            (0): ReLU(inplace=True)
            (1): Conv2d(256, 32, kernel_size=(3, 3), stride=(1, 1), padding=(1, 1), bias=False)
            (2): ReLU(inplace=True)
            (3): Conv2d(32, 256, kernel_size=(1, 1), stride=(1, 1), bias=False)
          )
        )
      )
    )
    (channel_adjusting_conv): Conv2d(256, 64, kernel_size=(1, 1), stride=(1, 1))
  )
  (VQ): VectorQuantizer(
    (E): Embedding(64, 64)
  )
  (decoder): Decoder(
    (channel_adjusting_conv): Conv2d(64, 256, kernel_size=(3, 3), stride=(1, 1), padding=(1, 1))
    (residual_stack): ResidualStack(
      (residual_blocks): ModuleList(
        (0): Residual(
          (residual_block): Sequential(
            (0): ReLU(inplace=True)
            (1): Conv2d(256, 32, kernel_size=(3, 3), stride=(1, 1), padding=(1, 1), bias=False)
            (2): ReLU(inplace=True)
            (3): Conv2d(32, 256, kernel_size=(1, 1), stride=(1, 1), bias=False)
          )
        )
        (1): Residual(
          (residual_block): Sequential(
            (0): ReLU(inplace=True)
            (1): Conv2d(256, 32, kernel_size=(3, 3), stride=(1, 1), padding=(1, 1), bias=False)
            (2): ReLU(inplace=True)
            (3): Conv2d(32, 256, kernel_size=(1, 1), stride=(1, 1), bias=False)
          )
        )
      )
    )
    (sequential_trans_convs): Sequential(
      (conv2d_1): ConvTranspose2d(256, 128, kernel_size=(4, 4), stride=(2, 2), padding=(1, 1))
      (ReLU_1): ReLU(inplace=True)
      (conv2d_2): ConvTranspose2d(128, 64, kernel_size=(4, 4), stride=(2, 2), padding=(1, 1))
      (ReLU_2): ReLU(inplace=True)
      (conv2d_3): ConvTranspose2d(64, 32, kernel_size=(4, 4), stride=(2, 2), padding=(1, 1))
      (ReLU_3): ReLU(inplace=True)
      (conv2d_4): ConvTranspose2d(32, 3, kernel_size=(4, 4), stride=(2, 2), padding=(1, 1))
    )
  )
)


 Total Trainable Params in thousands: 2456 

                                                         Module Name  # of params in thousands  # of params [%]
0                           encoder.sequential_convs.conv2d_1.weight                         1             0.04
1                           encoder.sequential_convs.conv2d_2.weight                        32             1.30
…
Finished [07:31:49 06.01.2023] 286) Finished running for K = 64 & D = 64 & M = 3 & beta = 0.25 & max_channel_number = 256 (i.e. bits = 96) change_channel_size_across_layers = True:
Total training time is = 0:3:42 h/m/s. 

--------------------------------------------------- 

Started [07:31:49 06.01.2023] 287) Finished running for K = 64 & D = 64 & M = 3 & beta = 0.25 & max_channel_number = 128 (i.e. bits = 96) change_channel_size_across_layers = False:

--------------------------------------------------- 


 PyTorch print of the model:

VQ_VAE(
  (encoder): Encoder(
    (sequential_convs): Sequential(
      (conv2d_1): Conv2d(3, 128, kernel_size=(4, 4), stride=(2, 2), padding=(1, 1))
      (ReLU_1): ReLU(inplace=True)
      (conv2d_2): Conv2d(128, 128, kernel_size=(4, 4), stride=(2, 2), padding=(1, 1))
      (ReLU_2): ReLU(inplace=True)
      (conv2d_3): Conv2d(128, 128, kernel_size=(4, 4), stride=(2, 2), padding=(1, 1))
      (ReLU_3): ReLU(inplace=True)
      (conv2d_4): Conv2d(128, 128, kernel_size=(4, 4), stride=(2, 2), padding=(1, 1))
      (ReLU_4): ReLU(inplace=True)
    )
    (pre_residual_stack): Conv2d(128, 128, kernel_size=(3, 3), stride=(1, 1), padding=(1, 1))
    (residual_stack): ResidualStack(
      (residual_blocks): ModuleList(
        (0): Residual(
          (residual_block): Sequential(
            (0): ReLU(inplace=True)
            (1): Conv2d(128, 32, kernel_size=(3, 3), stride=(1, 1), padding=(1, 1), bias=False)
            (2): ReLU(inplace=True)
            (3): Conv2d(32, 128, kernel_size=(1, 1), stride=(1, 1), bias=False)
          )
        )
        (1): Residual(
          (residual_block): Sequential(
            (0): ReLU(inplace=True)
            (1): Conv2d(128, 32, kernel_size=(3, 3), stride=(1, 1), padding=(1, 1), bias=False)
            (2): ReLU(inplace=True)
            (3): Conv2d(32, 128, kernel_size=(1, 1), stride=(1, 1), bias=False)
          )
        )
      )
    )
    (channel_adjusting_conv): Conv2d(128, 64, kernel_size=(1, 1), stride=(1, 1))
  )
  (VQ): VectorQuantizer(
    (E): Embedding(64, 64)
  )
  (decoder): Decoder(
    (channel_adjusting_conv): Conv2d(64, 128, kernel_size=(3, 3), stride=(1, 1), padding=(1, 1))
    (residual_stack): ResidualStack(
      (residual_blocks): ModuleList(
        (0): Residual(
          (residual_block): Sequential(
            (0): ReLU(inplace=True)
            (1): Conv2d(128, 32, kernel_size=(3, 3), stride=(1, 1), padding=(1, 1), bias=False)
            (2): ReLU(inplace=True)
            (3): Conv2d(32, 128, kernel_size=(1, 1), stride=(1, 1), bias=False)
          )
        )
        (1): Residual(
          (residual_block): Sequential(
            (0): ReLU(inplace=True)
            (1): Conv2d(128, 32, kernel_size=(3, 3), stride=(1, 1), padding=(1, 1), bias=False)
            (2): ReLU(inplace=True)
            (3): Conv2d(32, 128, kernel_size=(1, 1), stride=(1, 1), bias=False)
          )
        )
      )
    )
    (sequential_trans_convs): Sequential(
      (conv2d_1): ConvTranspose2d(128, 128, kernel_size=(4, 4), stride=(2, 2), padding=(1, 1))
      (ReLU_1): ReLU(inplace=True)
      (conv2d_2): ConvTranspose2d(128, 128, kernel_size=(4, 4), stride=(2, 2), padding=(1, 1))
      (ReLU_2): ReLU(inplace=True)
      (conv2d_3): ConvTranspose2d(128, 128, kernel_size=(4, 4), stride=(2, 2), padding=(1, 1))
      (ReLU_3): ReLU(inplace=True)
      (conv2d_4): ConvTranspose2d(128, 3, kernel_size=(4, 4), stride=(2, 2), padding=(1, 1))
    )
  )
)


 Total Trainable Params in thousands: 1976 

                                                         Module Name  # of params in thousands  # of params [%]
0                           encoder.sequential_convs.conv2d_1.weight                         6             0.30
1                           encoder.sequential_convs.conv2d_2.weight                       262            13.26
…
Finished [08:36:57 06.01.2023] 287) Finished running for K = 64 & D = 64 & M = 3 & beta = 0.25 & max_channel_number = 128 (i.e. bits = 96) change_channel_size_across_layers = False:
Total training time is = 0:3:7 h/m/s. 

--------------------------------------------------- 

Started [08:36:57 06.01.2023] 288) Finished running for K = 64 & D = 64 & M = 3 & beta = 0.25 & max_channel_number = 256 (i.e. bits = 96) change_channel_size_across_layers = False:

--------------------------------------------------- 


 PyTorch print of the model:

VQ_VAE(
  (encoder): Encoder(
    (sequential_convs): Sequential(
      (conv2d_1): Conv2d(3, 256, kernel_size=(4, 4), stride=(2, 2), padding=(1, 1))
      (ReLU_1): ReLU(inplace=True)
      (conv2d_2): Conv2d(256, 256, kernel_size=(4, 4), stride=(2, 2), padding=(1, 1))
      (ReLU_2): ReLU(inplace=True)
      (conv2d_3): Conv2d(256, 256, kernel_size=(4, 4), stride=(2, 2), padding=(1, 1))
      (ReLU_3): ReLU(inplace=True)
      (conv2d_4): Conv2d(256, 256, kernel_size=(4, 4), stride=(2, 2), padding=(1, 1))
      (ReLU_4): ReLU(inplace=True)
    )
    (pre_residual_stack): Conv2d(256, 256, kernel_size=(3, 3), stride=(1, 1), padding=(1, 1))
    (residual_stack): ResidualStack(
      (residual_blocks): ModuleList(
        (0): Residual(
          (residual_block): Sequential(
            (0): ReLU(inplace=True)
            (1): Conv2d(256, 32, kernel_size=(3, 3), stride=(1, 1), padding=(1, 1), bias=False)
            (2): ReLU(inplace=True)
            (3): Conv2d(32, 256, kernel_size=(1, 1), stride=(1, 1), bias=False)
          )
        )
        (1): Residual(
          (residual_block): Sequential(
            (0): ReLU(inplace=True)
            (1): Conv2d(256, 32, kernel_size=(3, 3), stride=(1, 1), padding=(1, 1), bias=False)
            (2): ReLU(inplace=True)
            (3): Conv2d(32, 256, kernel_size=(1, 1), stride=(1, 1), bias=False)
          )
        )
      )
    )
    (channel_adjusting_conv): Conv2d(256, 64, kernel_size=(1, 1), stride=(1, 1))
  )
  (VQ): VectorQuantizer(
    (E): Embedding(64, 64)
  )
  (decoder): Decoder(
    (channel_adjusting_conv): Conv2d(64, 256, kernel_size=(3, 3), stride=(1, 1), padding=(1, 1))
    (residual_stack): ResidualStack(
      (residual_blocks): ModuleList(
        (0): Residual(
          (residual_block): Sequential(
            (0): ReLU(inplace=True)
            (1): Conv2d(256, 32, kernel_size=(3, 3), stride=(1, 1), padding=(1, 1), bias=False)
            (2): ReLU(inplace=True)
            (3): Conv2d(32, 256, kernel_size=(1, 1), stride=(1, 1), bias=False)
          )
        )
        (1): Residual(
          (residual_block): Sequential(
            (0): ReLU(inplace=True)
            (1): Conv2d(256, 32, kernel_size=(3, 3), stride=(1, 1), padding=(1, 1), bias=False)
            (2): ReLU(inplace=True)
            (3): Conv2d(32, 256, kernel_size=(1, 1), stride=(1, 1), bias=False)
          )
        )
      )
    )
    (sequential_trans_convs): Sequential(
      (conv2d_1): ConvTranspose2d(256, 256, kernel_size=(4, 4), stride=(2, 2), padding=(1, 1))
      (ReLU_1): ReLU(inplace=True)
      (conv2d_2): ConvTranspose2d(256, 256, kernel_size=(4, 4), stride=(2, 2), padding=(1, 1))
      (ReLU_2): ReLU(inplace=True)
      (conv2d_3): ConvTranspose2d(256, 256, kernel_size=(4, 4), stride=(2, 2), padding=(1, 1))
      (ReLU_3): ReLU(inplace=True)
      (conv2d_4): ConvTranspose2d(256, 3, kernel_size=(4, 4), stride=(2, 2), padding=(1, 1))
    )
  )
)


 Total Trainable Params in thousands: 7392 

                                                         Module Name  # of params in thousands  # of params [%]
0                           encoder.sequential_convs.conv2d_1.weight                        12             0.16
1                           encoder.sequential_convs.conv2d_2.weight                      1048            14.18
…
Finished [10:52:27 06.01.2023] 288) Finished running for K = 64 & D = 64 & M = 3 & beta = 0.25 & max_channel_number = 256 (i.e. bits = 96) change_channel_size_across_layers = False:
Total training time is = 0:3:30 h/m/s. 

--------------------------------------------------- 

Started [10:52:27 06.01.2023] 289) Finished running for K = 64 & D = 64 & M = 1 & beta = 0.25 & max_channel_number = 128 (i.e. bits = 24) change_channel_size_across_layers = True:

--------------------------------------------------- 


 PyTorch print of the model:

VQ_VAE(
  (encoder): Encoder(
    (sequential_convs): Sequential(
      (conv2d_1): Conv2d(3, 8, kernel_size=(4, 4), stride=(2, 2), padding=(1, 1))
      (ReLU_1): ReLU(inplace=True)
      (conv2d_2): Conv2d(8, 16, kernel_size=(4, 4), stride=(2, 2), padding=(1, 1))
      (ReLU_2): ReLU(inplace=True)
      (conv2d_3): Conv2d(16, 32, kernel_size=(4, 4), stride=(2, 2), padding=(1, 1))
      (ReLU_3): ReLU(inplace=True)
      (conv2d_4): Conv2d(32, 64, kernel_size=(4, 4), stride=(2, 2), padding=(1, 1))
      (ReLU_4): ReLU(inplace=True)
      (conv2d_5): Conv2d(64, 128, kernel_size=(4, 4), stride=(2, 2), padding=(1, 1))
      (ReLU_5): ReLU(inplace=True)
    )
    (pre_residual_stack): Conv2d(128, 128, kernel_size=(3, 3), stride=(1, 1), padding=(1, 1))
    (residual_stack): ResidualStack(
      (residual_blocks): ModuleList(
        (0): Residual(
          (residual_block): Sequential(
            (0): ReLU(inplace=True)
            (1): Conv2d(128, 32, kernel_size=(3, 3), stride=(1, 1), padding=(1, 1), bias=False)
            (2): ReLU(inplace=True)
            (3): Conv2d(32, 128, kernel_size=(1, 1), stride=(1, 1), bias=False)
          )
        )
        (1): Residual(
          (residual_block): Sequential(
            (0): ReLU(inplace=True)
            (1): Conv2d(128, 32, kernel_size=(3, 3), stride=(1, 1), padding=(1, 1), bias=False)
            (2): ReLU(inplace=True)
            (3): Conv2d(32, 128, kernel_size=(1, 1), stride=(1, 1), bias=False)
          )
        )
      )
    )
    (channel_adjusting_conv): Conv2d(128, 64, kernel_size=(1, 1), stride=(1, 1))
  )
  (VQ): VectorQuantizer(
    (E): Embedding(64, 64)
  )
  (decoder): Decoder(
    (channel_adjusting_conv): Conv2d(64, 128, kernel_size=(3, 3), stride=(1, 1), padding=(1, 1))
    (residual_stack): ResidualStack(
      (residual_blocks): ModuleList(
        (0): Residual(
          (residual_block): Sequential(
            (0): ReLU(inplace=True)
            (1): Conv2d(128, 32, kernel_size=(3, 3), stride=(1, 1), padding=(1, 1), bias=False)
            (2): ReLU(inplace=True)
            (3): Conv2d(32, 128, kernel_size=(1, 1), stride=(1, 1), bias=False)
          )
        )
        (1): Residual(
          (residual_block): Sequential(
            (0): ReLU(inplace=True)
            (1): Conv2d(128, 32, kernel_size=(3, 3), stride=(1, 1), padding=(1, 1), bias=False)
            (2): ReLU(inplace=True)
            (3): Conv2d(32, 128, kernel_size=(1, 1), stride=(1, 1), bias=False)
          )
        )
      )
    )
    (sequential_trans_convs): Sequential(
      (conv2d_1): ConvTranspose2d(128, 64, kernel_size=(4, 4), stride=(2, 2), padding=(1, 1))
      (ReLU_1): ReLU(inplace=True)
      (conv2d_2): ConvTranspose2d(64, 32, kernel_size=(4, 4), stride=(2, 2), padding=(1, 1))
      (ReLU_2): ReLU(inplace=True)
      (conv2d_3): ConvTranspose2d(32, 16, kernel_size=(4, 4), stride=(2, 2), padding=(1, 1))
      (ReLU_3): ReLU(inplace=True)
      (conv2d_4): ConvTranspose2d(16, 8, kernel_size=(4, 4), stride=(2, 2), padding=(1, 1))
      (ReLU_4): ReLU(inplace=True)
      (conv2d_5): ConvTranspose2d(8, 3, kernel_size=(4, 4), stride=(2, 2), padding=(1, 1))
    )
  )
)


 Total Trainable Params in thousands: 738 

                                                         Module Name  # of params in thousands  # of params [%]
0                           encoder.sequential_convs.conv2d_1.weight                         0             0.00
1                           encoder.sequential_convs.conv2d_2.weight                         2             0.27
…
Finished [11:43:29 06.01.2023] 289) Finished running for K = 64 & D = 64 & M = 1 & beta = 0.25 & max_channel_number = 128 (i.e. bits = 24) change_channel_size_across_layers = True:
Total training time is = 0:1:1 h/m/s. 

--------------------------------------------------- 

Started [11:43:29 06.01.2023] 290) Finished running for K = 64 & D = 64 & M = 1 & beta = 0.25 & max_channel_number = 256 (i.e. bits = 24) change_channel_size_across_layers = True:

--------------------------------------------------- 


 PyTorch print of the model:

VQ_VAE(
  (encoder): Encoder(
    (sequential_convs): Sequential(
      (conv2d_1): Conv2d(3, 16, kernel_size=(4, 4), stride=(2, 2), padding=(1, 1))
      (ReLU_1): ReLU(inplace=True)
      (conv2d_2): Conv2d(16, 32, kernel_size=(4, 4), stride=(2, 2), padding=(1, 1))
      (ReLU_2): ReLU(inplace=True)
      (conv2d_3): Conv2d(32, 64, kernel_size=(4, 4), stride=(2, 2), padding=(1, 1))
      (ReLU_3): ReLU(inplace=True)
      (conv2d_4): Conv2d(64, 128, kernel_size=(4, 4), stride=(2, 2), padding=(1, 1))
      (ReLU_4): ReLU(inplace=True)
      (conv2d_5): Conv2d(128, 256, kernel_size=(4, 4), stride=(2, 2), padding=(1, 1))
      (ReLU_5): ReLU(inplace=True)
    )
    (pre_residual_stack): Conv2d(256, 256, kernel_size=(3, 3), stride=(1, 1), padding=(1, 1))
    (residual_stack): ResidualStack(
      (residual_blocks): ModuleList(
        (0): Residual(
          (residual_block): Sequential(
            (0): ReLU(inplace=True)
            (1): Conv2d(256, 32, kernel_size=(3, 3), stride=(1, 1), padding=(1, 1), bias=False)
            (2): ReLU(inplace=True)
            (3): Conv2d(32, 256, kernel_size=(1, 1), stride=(1, 1), bias=False)
          )
        )
        (1): Residual(
          (residual_block): Sequential(
            (0): ReLU(inplace=True)
            (1): Conv2d(256, 32, kernel_size=(3, 3), stride=(1, 1), padding=(1, 1), bias=False)
            (2): ReLU(inplace=True)
            (3): Conv2d(32, 256, kernel_size=(1, 1), stride=(1, 1), bias=False)
          )
        )
      )
    )
    (channel_adjusting_conv): Conv2d(256, 64, kernel_size=(1, 1), stride=(1, 1))
  )
  (VQ): VectorQuantizer(
    (E): Embedding(64, 64)
  )
  (decoder): Decoder(
    (channel_adjusting_conv): Conv2d(64, 256, kernel_size=(3, 3), stride=(1, 1), padding=(1, 1))
    (residual_stack): ResidualStack(
      (residual_blocks): ModuleList(
        (0): Residual(
          (residual_block): Sequential(
            (0): ReLU(inplace=True)
            (1): Conv2d(256, 32, kernel_size=(3, 3), stride=(1, 1), padding=(1, 1), bias=False)
            (2): ReLU(inplace=True)
            (3): Conv2d(32, 256, kernel_size=(1, 1), stride=(1, 1), bias=False)
          )
        )
        (1): Residual(
          (residual_block): Sequential(
            (0): ReLU(inplace=True)
            (1): Conv2d(256, 32, kernel_size=(3, 3), stride=(1, 1), padding=(1, 1), bias=False)
            (2): ReLU(inplace=True)
            (3): Conv2d(32, 256, kernel_size=(1, 1), stride=(1, 1), bias=False)
          )
        )
      )
    )
    (sequential_trans_convs): Sequential(
      (conv2d_1): ConvTranspose2d(256, 128, kernel_size=(4, 4), stride=(2, 2), padding=(1, 1))
      (ReLU_1): ReLU(inplace=True)
      (conv2d_2): ConvTranspose2d(128, 64, kernel_size=(4, 4), stride=(2, 2), padding=(1, 1))
      (ReLU_2): ReLU(inplace=True)
      (conv2d_3): ConvTranspose2d(64, 32, kernel_size=(4, 4), stride=(2, 2), padding=(1, 1))
      (ReLU_3): ReLU(inplace=True)
      (conv2d_4): ConvTranspose2d(32, 16, kernel_size=(4, 4), stride=(2, 2), padding=(1, 1))
      (ReLU_4): ReLU(inplace=True)
      (conv2d_5): ConvTranspose2d(16, 3, kernel_size=(4, 4), stride=(2, 2), padding=(1, 1))
    )
  )
)


 Total Trainable Params in thousands: 2470 

                                                         Module Name  # of params in thousands  # of params [%]
0                           encoder.sequential_convs.conv2d_1.weight                         0             0.00
1                           encoder.sequential_convs.conv2d_2.weight                         8             0.32
…
Finished [12:34:27 06.01.2023] 290) Finished running for K = 64 & D = 64 & M = 1 & beta = 0.25 & max_channel_number = 256 (i.e. bits = 24) change_channel_size_across_layers = True:
Total training time is = 0:1:58 h/m/s. 

--------------------------------------------------- 

Started [12:34:27 06.01.2023] 291) Finished running for K = 64 & D = 64 & M = 1 & beta = 0.25 & max_channel_number = 128 (i.e. bits = 24) change_channel_size_across_layers = False:

--------------------------------------------------- 


 PyTorch print of the model:

VQ_VAE(
  (encoder): Encoder(
    (sequential_convs): Sequential(
      (conv2d_1): Conv2d(3, 128, kernel_size=(4, 4), stride=(2, 2), padding=(1, 1))
      (ReLU_1): ReLU(inplace=True)
      (conv2d_2): Conv2d(128, 128, kernel_size=(4, 4), stride=(2, 2), padding=(1, 1))
      (ReLU_2): ReLU(inplace=True)
      (conv2d_3): Conv2d(128, 128, kernel_size=(4, 4), stride=(2, 2), padding=(1, 1))
      (ReLU_3): ReLU(inplace=True)
      (conv2d_4): Conv2d(128, 128, kernel_size=(4, 4), stride=(2, 2), padding=(1, 1))
      (ReLU_4): ReLU(inplace=True)
      (conv2d_5): Conv2d(128, 128, kernel_size=(4, 4), stride=(2, 2), padding=(1, 1))
      (ReLU_5): ReLU(inplace=True)
    )
    (pre_residual_stack): Conv2d(128, 128, kernel_size=(3, 3), stride=(1, 1), padding=(1, 1))
    (residual_stack): ResidualStack(
      (residual_blocks): ModuleList(
        (0): Residual(
          (residual_block): Sequential(
            (0): ReLU(inplace=True)
            (1): Conv2d(128, 32, kernel_size=(3, 3), stride=(1, 1), padding=(1, 1), bias=False)
            (2): ReLU(inplace=True)
            (3): Conv2d(32, 128, kernel_size=(1, 1), stride=(1, 1), bias=False)
          )
        )
        (1): Residual(
          (residual_block): Sequential(
            (0): ReLU(inplace=True)
            (1): Conv2d(128, 32, kernel_size=(3, 3), stride=(1, 1), padding=(1, 1), bias=False)
            (2): ReLU(inplace=True)
            (3): Conv2d(32, 128, kernel_size=(1, 1), stride=(1, 1), bias=False)
          )
        )
      )
    )
    (channel_adjusting_conv): Conv2d(128, 64, kernel_size=(1, 1), stride=(1, 1))
  )
  (VQ): VectorQuantizer(
    (E): Embedding(64, 64)
  )
  (decoder): Decoder(
    (channel_adjusting_conv): Conv2d(64, 128, kernel_size=(3, 3), stride=(1, 1), padding=(1, 1))
    (residual_stack): ResidualStack(
      (residual_blocks): ModuleList(
        (0): Residual(
          (residual_block): Sequential(
            (0): ReLU(inplace=True)
            (1): Conv2d(128, 32, kernel_size=(3, 3), stride=(1, 1), padding=(1, 1), bias=False)
            (2): ReLU(inplace=True)
            (3): Conv2d(32, 128, kernel_size=(1, 1), stride=(1, 1), bias=False)
          )
        )
        (1): Residual(
          (residual_block): Sequential(
            (0): ReLU(inplace=True)
            (1): Conv2d(128, 32, kernel_size=(3, 3), stride=(1, 1), padding=(1, 1), bias=False)
            (2): ReLU(inplace=True)
            (3): Conv2d(32, 128, kernel_size=(1, 1), stride=(1, 1), bias=False)
          )
        )
      )
    )
    (sequential_trans_convs): Sequential(
      (conv2d_1): ConvTranspose2d(128, 128, kernel_size=(4, 4), stride=(2, 2), padding=(1, 1))
      (ReLU_1): ReLU(inplace=True)
      (conv2d_2): ConvTranspose2d(128, 128, kernel_size=(4, 4), stride=(2, 2), padding=(1, 1))
      (ReLU_2): ReLU(inplace=True)
      (conv2d_3): ConvTranspose2d(128, 128, kernel_size=(4, 4), stride=(2, 2), padding=(1, 1))
      (ReLU_3): ReLU(inplace=True)
      (conv2d_4): ConvTranspose2d(128, 128, kernel_size=(4, 4), stride=(2, 2), padding=(1, 1))
      (ReLU_4): ReLU(inplace=True)
      (conv2d_5): ConvTranspose2d(128, 3, kernel_size=(4, 4), stride=(2, 2), padding=(1, 1))
    )
  )
)


 Total Trainable Params in thousands: 2500 

                                                         Module Name  # of params in thousands  # of params [%]
0                           encoder.sequential_convs.conv2d_1.weight                         6             0.24
1                           encoder.sequential_convs.conv2d_2.weight                       262            10.48
…
Finished [13:40:07 06.01.2023] 291) Finished running for K = 64 & D = 64 & M = 1 & beta = 0.25 & max_channel_number = 128 (i.e. bits = 24) change_channel_size_across_layers = False:
Total training time is = 0:1:39 h/m/s. 

--------------------------------------------------- 

Started [13:40:07 06.01.2023] 292) Finished running for K = 64 & D = 64 & M = 1 & beta = 0.25 & max_channel_number = 256 (i.e. bits = 24) change_channel_size_across_layers = False:

--------------------------------------------------- 


 PyTorch print of the model:

VQ_VAE(
  (encoder): Encoder(
    (sequential_convs): Sequential(
      (conv2d_1): Conv2d(3, 256, kernel_size=(4, 4), stride=(2, 2), padding=(1, 1))
      (ReLU_1): ReLU(inplace=True)
      (conv2d_2): Conv2d(256, 256, kernel_size=(4, 4), stride=(2, 2), padding=(1, 1))
      (ReLU_2): ReLU(inplace=True)
      (conv2d_3): Conv2d(256, 256, kernel_size=(4, 4), stride=(2, 2), padding=(1, 1))
      (ReLU_3): ReLU(inplace=True)
      (conv2d_4): Conv2d(256, 256, kernel_size=(4, 4), stride=(2, 2), padding=(1, 1))
      (ReLU_4): ReLU(inplace=True)
      (conv2d_5): Conv2d(256, 256, kernel_size=(4, 4), stride=(2, 2), padding=(1, 1))
      (ReLU_5): ReLU(inplace=True)
    )
    (pre_residual_stack): Conv2d(256, 256, kernel_size=(3, 3), stride=(1, 1), padding=(1, 1))
    (residual_stack): ResidualStack(
      (residual_blocks): ModuleList(
        (0): Residual(
          (residual_block): Sequential(
            (0): ReLU(inplace=True)
            (1): Conv2d(256, 32, kernel_size=(3, 3), stride=(1, 1), padding=(1, 1), bias=False)
            (2): ReLU(inplace=True)
            (3): Conv2d(32, 256, kernel_size=(1, 1), stride=(1, 1), bias=False)
          )
        )
        (1): Residual(
          (residual_block): Sequential(
            (0): ReLU(inplace=True)
            (1): Conv2d(256, 32, kernel_size=(3, 3), stride=(1, 1), padding=(1, 1), bias=False)
            (2): ReLU(inplace=True)
            (3): Conv2d(32, 256, kernel_size=(1, 1), stride=(1, 1), bias=False)
          )
        )
      )
    )
    (channel_adjusting_conv): Conv2d(256, 64, kernel_size=(1, 1), stride=(1, 1))
  )
  (VQ): VectorQuantizer(
    (E): Embedding(64, 64)
  )
  (decoder): Decoder(
    (channel_adjusting_conv): Conv2d(64, 256, kernel_size=(3, 3), stride=(1, 1), padding=(1, 1))
    (residual_stack): ResidualStack(
      (residual_blocks): ModuleList(
        (0): Residual(
          (residual_block): Sequential(
            (0): ReLU(inplace=True)
            (1): Conv2d(256, 32, kernel_size=(3, 3), stride=(1, 1), padding=(1, 1), bias=False)
            (2): ReLU(inplace=True)
            (3): Conv2d(32, 256, kernel_size=(1, 1), stride=(1, 1), bias=False)
          )
        )
        (1): Residual(
          (residual_block): Sequential(
            (0): ReLU(inplace=True)
            (1): Conv2d(256, 32, kernel_size=(3, 3), stride=(1, 1), padding=(1, 1), bias=False)
            (2): ReLU(inplace=True)
            (3): Conv2d(32, 256, kernel_size=(1, 1), stride=(1, 1), bias=False)
          )
        )
      )
    )
    (sequential_trans_convs): Sequential(
      (conv2d_1): ConvTranspose2d(256, 256, kernel_size=(4, 4), stride=(2, 2), padding=(1, 1))
      (ReLU_1): ReLU(inplace=True)
      (conv2d_2): ConvTranspose2d(256, 256, kernel_size=(4, 4), stride=(2, 2), padding=(1, 1))
      (ReLU_2): ReLU(inplace=True)
      (conv2d_3): ConvTranspose2d(256, 256, kernel_size=(4, 4), stride=(2, 2), padding=(1, 1))
      (ReLU_3): ReLU(inplace=True)
      (conv2d_4): ConvTranspose2d(256, 256, kernel_size=(4, 4), stride=(2, 2), padding=(1, 1))
      (ReLU_4): ReLU(inplace=True)
      (conv2d_5): ConvTranspose2d(256, 3, kernel_size=(4, 4), stride=(2, 2), padding=(1, 1))
    )
  )
)


 Total Trainable Params in thousands: 9488 

                                                         Module Name  # of params in thousands  # of params [%]
0                           encoder.sequential_convs.conv2d_1.weight                        12             0.13
1                           encoder.sequential_convs.conv2d_2.weight                      1048            11.05
…
Finished [15:57:22 06.01.2023] 292) Finished running for K = 64 & D = 64 & M = 1 & beta = 0.25 & max_channel_number = 256 (i.e. bits = 24) change_channel_size_across_layers = False:
Total training time is = 0:1:14 h/m/s. 

--------------------------------------------------- 

Started [15:57:22 06.01.2023] 293) Finished running for K = 64 & D = 64 & M = 0 & beta = 0.25 & max_channel_number = 128 (i.e. bits = 6) change_channel_size_across_layers = True:

--------------------------------------------------- 


 PyTorch print of the model:

VQ_VAE(
  (encoder): Encoder(
    (sequential_convs): Sequential(
      (conv2d_1): Conv2d(3, 4, kernel_size=(4, 4), stride=(2, 2), padding=(1, 1))
      (ReLU_1): ReLU(inplace=True)
      (conv2d_2): Conv2d(4, 8, kernel_size=(4, 4), stride=(2, 2), padding=(1, 1))
      (ReLU_2): ReLU(inplace=True)
      (conv2d_3): Conv2d(8, 16, kernel_size=(4, 4), stride=(2, 2), padding=(1, 1))
      (ReLU_3): ReLU(inplace=True)
      (conv2d_4): Conv2d(16, 32, kernel_size=(4, 4), stride=(2, 2), padding=(1, 1))
      (ReLU_4): ReLU(inplace=True)
      (conv2d_5): Conv2d(32, 64, kernel_size=(4, 4), stride=(2, 2), padding=(1, 1))
      (ReLU_5): ReLU(inplace=True)
      (conv2d_6): Conv2d(64, 128, kernel_size=(4, 4), stride=(2, 2), padding=(1, 1))
      (ReLU_6): ReLU(inplace=True)
    )
    (pre_residual_stack): Conv2d(128, 128, kernel_size=(3, 3), stride=(1, 1), padding=(1, 1))
    (residual_stack): ResidualStack(
      (residual_blocks): ModuleList(
        (0): Residual(
          (residual_block): Sequential(
            (0): ReLU(inplace=True)
            (1): Conv2d(128, 32, kernel_size=(3, 3), stride=(1, 1), padding=(1, 1), bias=False)
            (2): ReLU(inplace=True)
            (3): Conv2d(32, 128, kernel_size=(1, 1), stride=(1, 1), bias=False)
          )
        )
        (1): Residual(
          (residual_block): Sequential(
            (0): ReLU(inplace=True)
            (1): Conv2d(128, 32, kernel_size=(3, 3), stride=(1, 1), padding=(1, 1), bias=False)
            (2): ReLU(inplace=True)
            (3): Conv2d(32, 128, kernel_size=(1, 1), stride=(1, 1), bias=False)
          )
        )
      )
    )
    (channel_adjusting_conv): Conv2d(128, 64, kernel_size=(1, 1), stride=(1, 1))
  )
  (VQ): VectorQuantizer(
    (E): Embedding(64, 64)
  )
  (decoder): Decoder(
    (channel_adjusting_conv): Conv2d(64, 128, kernel_size=(3, 3), stride=(1, 1), padding=(1, 1))
    (residual_stack): ResidualStack(
      (residual_blocks): ModuleList(
        (0): Residual(
          (residual_block): Sequential(
            (0): ReLU(inplace=True)
            (1): Conv2d(128, 32, kernel_size=(3, 3), stride=(1, 1), padding=(1, 1), bias=False)
            (2): ReLU(inplace=True)
            (3): Conv2d(32, 128, kernel_size=(1, 1), stride=(1, 1), bias=False)
          )
        )
        (1): Residual(
          (residual_block): Sequential(
            (0): ReLU(inplace=True)
            (1): Conv2d(128, 32, kernel_size=(3, 3), stride=(1, 1), padding=(1, 1), bias=False)
            (2): ReLU(inplace=True)
            (3): Conv2d(32, 128, kernel_size=(1, 1), stride=(1, 1), bias=False)
          )
        )
      )
    )
    (sequential_trans_convs): Sequential(
      (conv2d_1): ConvTranspose2d(128, 64, kernel_size=(4, 4), stride=(2, 2), padding=(1, 1))
      (ReLU_1): ReLU(inplace=True)
      (conv2d_2): ConvTranspose2d(64, 32, kernel_size=(4, 4), stride=(2, 2), padding=(1, 1))
      (ReLU_2): ReLU(inplace=True)
      (conv2d_3): ConvTranspose2d(32, 16, kernel_size=(4, 4), stride=(2, 2), padding=(1, 1))
      (ReLU_3): ReLU(inplace=True)
      (conv2d_4): ConvTranspose2d(16, 8, kernel_size=(4, 4), stride=(2, 2), padding=(1, 1))
      (ReLU_4): ReLU(inplace=True)
      (conv2d_5): ConvTranspose2d(8, 4, kernel_size=(4, 4), stride=(2, 2), padding=(1, 1))
      (ReLU_5): ReLU(inplace=True)
      (conv2d_6): ConvTranspose2d(4, 3, kernel_size=(4, 4), stride=(2, 2), padding=(1, 1))
    )
  )
)


 Total Trainable Params in thousands: 738 

                                                         Module Name  # of params in thousands  # of params [%]
0                           encoder.sequential_convs.conv2d_1.weight                         0             0.00
1                           encoder.sequential_convs.conv2d_2.weight                         0             0.00
…
Finished [16:49:49 06.01.2023] 293) Finished running for K = 64 & D = 64 & M = 0 & beta = 0.25 & max_channel_number = 128 (i.e. bits = 6) change_channel_size_across_layers = True:
Total training time is = 0:0:26 h/m/s. 

--------------------------------------------------- 

Started [16:49:49 06.01.2023] 294) Finished running for K = 64 & D = 64 & M = 0 & beta = 0.25 & max_channel_number = 256 (i.e. bits = 6) change_channel_size_across_layers = True:

--------------------------------------------------- 


 PyTorch print of the model:

VQ_VAE(
  (encoder): Encoder(
    (sequential_convs): Sequential(
      (conv2d_1): Conv2d(3, 8, kernel_size=(4, 4), stride=(2, 2), padding=(1, 1))
      (ReLU_1): ReLU(inplace=True)
      (conv2d_2): Conv2d(8, 16, kernel_size=(4, 4), stride=(2, 2), padding=(1, 1))
      (ReLU_2): ReLU(inplace=True)
      (conv2d_3): Conv2d(16, 32, kernel_size=(4, 4), stride=(2, 2), padding=(1, 1))
      (ReLU_3): ReLU(inplace=True)
      (conv2d_4): Conv2d(32, 64, kernel_size=(4, 4), stride=(2, 2), padding=(1, 1))
      (ReLU_4): ReLU(inplace=True)
      (conv2d_5): Conv2d(64, 128, kernel_size=(4, 4), stride=(2, 2), padding=(1, 1))
      (ReLU_5): ReLU(inplace=True)
      (conv2d_6): Conv2d(128, 256, kernel_size=(4, 4), stride=(2, 2), padding=(1, 1))
      (ReLU_6): ReLU(inplace=True)
    )
    (pre_residual_stack): Conv2d(256, 256, kernel_size=(3, 3), stride=(1, 1), padding=(1, 1))
    (residual_stack): ResidualStack(
      (residual_blocks): ModuleList(
        (0): Residual(
          (residual_block): Sequential(
            (0): ReLU(inplace=True)
            (1): Conv2d(256, 32, kernel_size=(3, 3), stride=(1, 1), padding=(1, 1), bias=False)
            (2): ReLU(inplace=True)
            (3): Conv2d(32, 256, kernel_size=(1, 1), stride=(1, 1), bias=False)
          )
        )
        (1): Residual(
          (residual_block): Sequential(
            (0): ReLU(inplace=True)
            (1): Conv2d(256, 32, kernel_size=(3, 3), stride=(1, 1), padding=(1, 1), bias=False)
            (2): ReLU(inplace=True)
            (3): Conv2d(32, 256, kernel_size=(1, 1), stride=(1, 1), bias=False)
          )
        )
      )
    )
    (channel_adjusting_conv): Conv2d(256, 64, kernel_size=(1, 1), stride=(1, 1))
  )
  (VQ): VectorQuantizer(
    (E): Embedding(64, 64)
  )
  (decoder): Decoder(
    (channel_adjusting_conv): Conv2d(64, 256, kernel_size=(3, 3), stride=(1, 1), padding=(1, 1))
    (residual_stack): ResidualStack(
      (residual_blocks): ModuleList(
        (0): Residual(
          (residual_block): Sequential(
            (0): ReLU(inplace=True)
            (1): Conv2d(256, 32, kernel_size=(3, 3), stride=(1, 1), padding=(1, 1), bias=False)
            (2): ReLU(inplace=True)
            (3): Conv2d(32, 256, kernel_size=(1, 1), stride=(1, 1), bias=False)
          )
        )
        (1): Residual(
          (residual_block): Sequential(
            (0): ReLU(inplace=True)
            (1): Conv2d(256, 32, kernel_size=(3, 3), stride=(1, 1), padding=(1, 1), bias=False)
            (2): ReLU(inplace=True)
            (3): Conv2d(32, 256, kernel_size=(1, 1), stride=(1, 1), bias=False)
          )
        )
      )
    )
    (sequential_trans_convs): Sequential(
      (conv2d_1): ConvTranspose2d(256, 128, kernel_size=(4, 4), stride=(2, 2), padding=(1, 1))
      (ReLU_1): ReLU(inplace=True)
      (conv2d_2): ConvTranspose2d(128, 64, kernel_size=(4, 4), stride=(2, 2), padding=(1, 1))
      (ReLU_2): ReLU(inplace=True)
      (conv2d_3): ConvTranspose2d(64, 32, kernel_size=(4, 4), stride=(2, 2), padding=(1, 1))
      (ReLU_3): ReLU(inplace=True)
      (conv2d_4): ConvTranspose2d(32, 16, kernel_size=(4, 4), stride=(2, 2), padding=(1, 1))
      (ReLU_4): ReLU(inplace=True)
      (conv2d_5): ConvTranspose2d(16, 8, kernel_size=(4, 4), stride=(2, 2), padding=(1, 1))
      (ReLU_5): ReLU(inplace=True)
      (conv2d_6): ConvTranspose2d(8, 3, kernel_size=(4, 4), stride=(2, 2), padding=(1, 1))
    )
  )
)


 Total Trainable Params in thousands: 2474 

                                                         Module Name  # of params in thousands  # of params [%]
0                           encoder.sequential_convs.conv2d_1.weight                         0             0.00
1                           encoder.sequential_convs.conv2d_2.weight                         2             0.08
…
