Started [17:15:44 07.01.2023] 301) Finished running for K = 32 & D = 64 & M = 3 & beta = 0.25 & max_channel_number = 128 (i.e. bits = 80) change_channel_size_across_layers = False:

--------------------------------------------------- 


 PyTorch print of the model:

VQ_VAE(
  (encoder): Encoder(
    (sequential_convs): Sequential(
      (conv2d_1): Conv2d(3, 128, kernel_size=(4, 4), stride=(2, 2), padding=(1, 1))
      (ReLU_1): ReLU(inplace=True)
      (conv2d_2): Conv2d(128, 128, kernel_size=(4, 4), stride=(2, 2), padding=(1, 1))
      (ReLU_2): ReLU(inplace=True)
      (conv2d_3): Conv2d(128, 128, kernel_size=(4, 4), stride=(2, 2), padding=(1, 1))
      (ReLU_3): ReLU(inplace=True)
      (conv2d_4): Conv2d(128, 128, kernel_size=(4, 4), stride=(2, 2), padding=(1, 1))
      (ReLU_4): ReLU(inplace=True)
    )
    (pre_residual_stack): Conv2d(128, 128, kernel_size=(3, 3), stride=(1, 1), padding=(1, 1))
    (residual_stack): ResidualStack(
      (residual_blocks): ModuleList(
        (0): Residual(
          (residual_block): Sequential(
            (0): ReLU(inplace=True)
            (1): Conv2d(128, 32, kernel_size=(3, 3), stride=(1, 1), padding=(1, 1), bias=False)
            (2): ReLU(inplace=True)
            (3): Conv2d(32, 128, kernel_size=(1, 1), stride=(1, 1), bias=False)
          )
        )
        (1): Residual(
          (residual_block): Sequential(
            (0): ReLU(inplace=True)
            (1): Conv2d(128, 32, kernel_size=(3, 3), stride=(1, 1), padding=(1, 1), bias=False)
            (2): ReLU(inplace=True)
            (3): Conv2d(32, 128, kernel_size=(1, 1), stride=(1, 1), bias=False)
          )
        )
      )
    )
    (channel_adjusting_conv): Conv2d(128, 64, kernel_size=(1, 1), stride=(1, 1))
  )
  (VQ): VectorQuantizer(
    (E): Embedding(32, 64)
  )
  (decoder): Decoder(
    (channel_adjusting_conv): Conv2d(64, 128, kernel_size=(3, 3), stride=(1, 1), padding=(1, 1))
    (residual_stack): ResidualStack(
      (residual_blocks): ModuleList(
        (0): Residual(
          (residual_block): Sequential(
            (0): ReLU(inplace=True)
            (1): Conv2d(128, 32, kernel_size=(3, 3), stride=(1, 1), padding=(1, 1), bias=False)
            (2): ReLU(inplace=True)
            (3): Conv2d(32, 128, kernel_size=(1, 1), stride=(1, 1), bias=False)
          )
        )
        (1): Residual(
          (residual_block): Sequential(
            (0): ReLU(inplace=True)
            (1): Conv2d(128, 32, kernel_size=(3, 3), stride=(1, 1), padding=(1, 1), bias=False)
            (2): ReLU(inplace=True)
            (3): Conv2d(32, 128, kernel_size=(1, 1), stride=(1, 1), bias=False)
          )
        )
      )
    )
    (sequential_trans_convs): Sequential(
      (conv2d_1): ConvTranspose2d(128, 128, kernel_size=(4, 4), stride=(2, 2), padding=(1, 1))
      (ReLU_1): ReLU(inplace=True)
      (conv2d_2): ConvTranspose2d(128, 128, kernel_size=(4, 4), stride=(2, 2), padding=(1, 1))
      (ReLU_2): ReLU(inplace=True)
      (conv2d_3): ConvTranspose2d(128, 128, kernel_size=(4, 4), stride=(2, 2), padding=(1, 1))
      (ReLU_3): ReLU(inplace=True)
      (conv2d_4): ConvTranspose2d(128, 3, kernel_size=(4, 4), stride=(2, 2), padding=(1, 1))
    )
  )
)


 Total Trainable Params in thousands: 1974 

                                                         Module Name  # of params in thousands  # of params [%]
0                           encoder.sequential_convs.conv2d_1.weight                         6             0.30
1                           encoder.sequential_convs.conv2d_2.weight                       262            13.27
…
Finished [18:20:15 07.01.2023] 301) Finished running for K = 32 & D = 64 & M = 3 & beta = 0.25 & max_channel_number = 128 (i.e. bits = 80) change_channel_size_across_layers = False:
Total training time is = 0:3:30 h/m/s. 

--------------------------------------------------- 

Started [18:20:15 07.01.2023] 302) Finished running for K = 16 & D = 64 & M = 3 & beta = 0.25 & max_channel_number = 128 (i.e. bits = 64) change_channel_size_across_layers = False:

--------------------------------------------------- 


 PyTorch print of the model:

VQ_VAE(
  (encoder): Encoder(
    (sequential_convs): Sequential(
      (conv2d_1): Conv2d(3, 128, kernel_size=(4, 4), stride=(2, 2), padding=(1, 1))
      (ReLU_1): ReLU(inplace=True)
      (conv2d_2): Conv2d(128, 128, kernel_size=(4, 4), stride=(2, 2), padding=(1, 1))
      (ReLU_2): ReLU(inplace=True)
      (conv2d_3): Conv2d(128, 128, kernel_size=(4, 4), stride=(2, 2), padding=(1, 1))
      (ReLU_3): ReLU(inplace=True)
      (conv2d_4): Conv2d(128, 128, kernel_size=(4, 4), stride=(2, 2), padding=(1, 1))
      (ReLU_4): ReLU(inplace=True)
    )
    (pre_residual_stack): Conv2d(128, 128, kernel_size=(3, 3), stride=(1, 1), padding=(1, 1))
    (residual_stack): ResidualStack(
      (residual_blocks): ModuleList(
        (0): Residual(
          (residual_block): Sequential(
            (0): ReLU(inplace=True)
            (1): Conv2d(128, 32, kernel_size=(3, 3), stride=(1, 1), padding=(1, 1), bias=False)
            (2): ReLU(inplace=True)
            (3): Conv2d(32, 128, kernel_size=(1, 1), stride=(1, 1), bias=False)
          )
        )
        (1): Residual(
          (residual_block): Sequential(
            (0): ReLU(inplace=True)
            (1): Conv2d(128, 32, kernel_size=(3, 3), stride=(1, 1), padding=(1, 1), bias=False)
            (2): ReLU(inplace=True)
            (3): Conv2d(32, 128, kernel_size=(1, 1), stride=(1, 1), bias=False)
          )
        )
      )
    )
    (channel_adjusting_conv): Conv2d(128, 64, kernel_size=(1, 1), stride=(1, 1))
  )
  (VQ): VectorQuantizer(
    (E): Embedding(16, 64)
  )
  (decoder): Decoder(
    (channel_adjusting_conv): Conv2d(64, 128, kernel_size=(3, 3), stride=(1, 1), padding=(1, 1))
    (residual_stack): ResidualStack(
      (residual_blocks): ModuleList(
        (0): Residual(
          (residual_block): Sequential(
            (0): ReLU(inplace=True)
            (1): Conv2d(128, 32, kernel_size=(3, 3), stride=(1, 1), padding=(1, 1), bias=False)
            (2): ReLU(inplace=True)
            (3): Conv2d(32, 128, kernel_size=(1, 1), stride=(1, 1), bias=False)
          )
        )
        (1): Residual(
          (residual_block): Sequential(
            (0): ReLU(inplace=True)
            (1): Conv2d(128, 32, kernel_size=(3, 3), stride=(1, 1), padding=(1, 1), bias=False)
            (2): ReLU(inplace=True)
            (3): Conv2d(32, 128, kernel_size=(1, 1), stride=(1, 1), bias=False)
          )
        )
      )
    )
    (sequential_trans_convs): Sequential(
      (conv2d_1): ConvTranspose2d(128, 128, kernel_size=(4, 4), stride=(2, 2), padding=(1, 1))
      (ReLU_1): ReLU(inplace=True)
      (conv2d_2): ConvTranspose2d(128, 128, kernel_size=(4, 4), stride=(2, 2), padding=(1, 1))
      (ReLU_2): ReLU(inplace=True)
      (conv2d_3): ConvTranspose2d(128, 128, kernel_size=(4, 4), stride=(2, 2), padding=(1, 1))
      (ReLU_3): ReLU(inplace=True)
      (conv2d_4): ConvTranspose2d(128, 3, kernel_size=(4, 4), stride=(2, 2), padding=(1, 1))
    )
  )
)


 Total Trainable Params in thousands: 1973 

                                                         Module Name  # of params in thousands  # of params [%]
0                           encoder.sequential_convs.conv2d_1.weight                         6             0.30
1                           encoder.sequential_convs.conv2d_2.weight                       262            13.28
…
Finished [19:24:52 07.01.2023] 302) Finished running for K = 16 & D = 64 & M = 3 & beta = 0.25 & max_channel_number = 128 (i.e. bits = 64) change_channel_size_across_layers = False:
Total training time is = 0:3:37 h/m/s. 

--------------------------------------------------- 

Started [19:24:52 07.01.2023] 303) Finished running for K = 8 & D = 64 & M = 3 & beta = 0.25 & max_channel_number = 128 (i.e. bits = 48) change_channel_size_across_layers = False:

--------------------------------------------------- 


 PyTorch print of the model:

VQ_VAE(
  (encoder): Encoder(
    (sequential_convs): Sequential(
      (conv2d_1): Conv2d(3, 128, kernel_size=(4, 4), stride=(2, 2), padding=(1, 1))
      (ReLU_1): ReLU(inplace=True)
      (conv2d_2): Conv2d(128, 128, kernel_size=(4, 4), stride=(2, 2), padding=(1, 1))
      (ReLU_2): ReLU(inplace=True)
      (conv2d_3): Conv2d(128, 128, kernel_size=(4, 4), stride=(2, 2), padding=(1, 1))
      (ReLU_3): ReLU(inplace=True)
      (conv2d_4): Conv2d(128, 128, kernel_size=(4, 4), stride=(2, 2), padding=(1, 1))
      (ReLU_4): ReLU(inplace=True)
    )
    (pre_residual_stack): Conv2d(128, 128, kernel_size=(3, 3), stride=(1, 1), padding=(1, 1))
    (residual_stack): ResidualStack(
      (residual_blocks): ModuleList(
        (0): Residual(
          (residual_block): Sequential(
            (0): ReLU(inplace=True)
            (1): Conv2d(128, 32, kernel_size=(3, 3), stride=(1, 1), padding=(1, 1), bias=False)
            (2): ReLU(inplace=True)
            (3): Conv2d(32, 128, kernel_size=(1, 1), stride=(1, 1), bias=False)
          )
        )
        (1): Residual(
          (residual_block): Sequential(
            (0): ReLU(inplace=True)
            (1): Conv2d(128, 32, kernel_size=(3, 3), stride=(1, 1), padding=(1, 1), bias=False)
            (2): ReLU(inplace=True)
            (3): Conv2d(32, 128, kernel_size=(1, 1), stride=(1, 1), bias=False)
          )
        )
      )
    )
    (channel_adjusting_conv): Conv2d(128, 64, kernel_size=(1, 1), stride=(1, 1))
  )
  (VQ): VectorQuantizer(
    (E): Embedding(8, 64)
  )
  (decoder): Decoder(
    (channel_adjusting_conv): Conv2d(64, 128, kernel_size=(3, 3), stride=(1, 1), padding=(1, 1))
    (residual_stack): ResidualStack(
      (residual_blocks): ModuleList(
        (0): Residual(
          (residual_block): Sequential(
            (0): ReLU(inplace=True)
            (1): Conv2d(128, 32, kernel_size=(3, 3), stride=(1, 1), padding=(1, 1), bias=False)
            (2): ReLU(inplace=True)
            (3): Conv2d(32, 128, kernel_size=(1, 1), stride=(1, 1), bias=False)
          )
        )
        (1): Residual(
          (residual_block): Sequential(
            (0): ReLU(inplace=True)
            (1): Conv2d(128, 32, kernel_size=(3, 3), stride=(1, 1), padding=(1, 1), bias=False)
            (2): ReLU(inplace=True)
            (3): Conv2d(32, 128, kernel_size=(1, 1), stride=(1, 1), bias=False)
          )
        )
      )
    )
    (sequential_trans_convs): Sequential(
      (conv2d_1): ConvTranspose2d(128, 128, kernel_size=(4, 4), stride=(2, 2), padding=(1, 1))
      (ReLU_1): ReLU(inplace=True)
      (conv2d_2): ConvTranspose2d(128, 128, kernel_size=(4, 4), stride=(2, 2), padding=(1, 1))
      (ReLU_2): ReLU(inplace=True)
      (conv2d_3): ConvTranspose2d(128, 128, kernel_size=(4, 4), stride=(2, 2), padding=(1, 1))
      (ReLU_3): ReLU(inplace=True)
      (conv2d_4): ConvTranspose2d(128, 3, kernel_size=(4, 4), stride=(2, 2), padding=(1, 1))
    )
  )
)


 Total Trainable Params in thousands: 1972 

                                                         Module Name  # of params in thousands  # of params [%]
0                           encoder.sequential_convs.conv2d_1.weight                         6             0.30
1                           encoder.sequential_convs.conv2d_2.weight                       262            13.29
…
Finished [20:29:33 07.01.2023] 303) Finished running for K = 8 & D = 64 & M = 3 & beta = 0.25 & max_channel_number = 128 (i.e. bits = 48) change_channel_size_across_layers = False:
Total training time is = 0:3:41 h/m/s. 

--------------------------------------------------- 

Started [20:29:33 07.01.2023] 304) Finished running for K = 4 & D = 64 & M = 3 & beta = 0.25 & max_channel_number = 128 (i.e. bits = 32) change_channel_size_across_layers = False:

--------------------------------------------------- 


 PyTorch print of the model:

VQ_VAE(
  (encoder): Encoder(
    (sequential_convs): Sequential(
      (conv2d_1): Conv2d(3, 128, kernel_size=(4, 4), stride=(2, 2), padding=(1, 1))
      (ReLU_1): ReLU(inplace=True)
      (conv2d_2): Conv2d(128, 128, kernel_size=(4, 4), stride=(2, 2), padding=(1, 1))
      (ReLU_2): ReLU(inplace=True)
      (conv2d_3): Conv2d(128, 128, kernel_size=(4, 4), stride=(2, 2), padding=(1, 1))
      (ReLU_3): ReLU(inplace=True)
      (conv2d_4): Conv2d(128, 128, kernel_size=(4, 4), stride=(2, 2), padding=(1, 1))
      (ReLU_4): ReLU(inplace=True)
    )
    (pre_residual_stack): Conv2d(128, 128, kernel_size=(3, 3), stride=(1, 1), padding=(1, 1))
    (residual_stack): ResidualStack(
      (residual_blocks): ModuleList(
        (0): Residual(
          (residual_block): Sequential(
            (0): ReLU(inplace=True)
            (1): Conv2d(128, 32, kernel_size=(3, 3), stride=(1, 1), padding=(1, 1), bias=False)
            (2): ReLU(inplace=True)
            (3): Conv2d(32, 128, kernel_size=(1, 1), stride=(1, 1), bias=False)
          )
        )
        (1): Residual(
          (residual_block): Sequential(
            (0): ReLU(inplace=True)
            (1): Conv2d(128, 32, kernel_size=(3, 3), stride=(1, 1), padding=(1, 1), bias=False)
            (2): ReLU(inplace=True)
            (3): Conv2d(32, 128, kernel_size=(1, 1), stride=(1, 1), bias=False)
          )
        )
      )
    )
    (channel_adjusting_conv): Conv2d(128, 64, kernel_size=(1, 1), stride=(1, 1))
  )
  (VQ): VectorQuantizer(
    (E): Embedding(4, 64)
  )
  (decoder): Decoder(
    (channel_adjusting_conv): Conv2d(64, 128, kernel_size=(3, 3), stride=(1, 1), padding=(1, 1))
    (residual_stack): ResidualStack(
      (residual_blocks): ModuleList(
        (0): Residual(
          (residual_block): Sequential(
            (0): ReLU(inplace=True)
            (1): Conv2d(128, 32, kernel_size=(3, 3), stride=(1, 1), padding=(1, 1), bias=False)
            (2): ReLU(inplace=True)
            (3): Conv2d(32, 128, kernel_size=(1, 1), stride=(1, 1), bias=False)
          )
        )
        (1): Residual(
          (residual_block): Sequential(
            (0): ReLU(inplace=True)
            (1): Conv2d(128, 32, kernel_size=(3, 3), stride=(1, 1), padding=(1, 1), bias=False)
            (2): ReLU(inplace=True)
            (3): Conv2d(32, 128, kernel_size=(1, 1), stride=(1, 1), bias=False)
          )
        )
      )
    )
    (sequential_trans_convs): Sequential(
      (conv2d_1): ConvTranspose2d(128, 128, kernel_size=(4, 4), stride=(2, 2), padding=(1, 1))
      (ReLU_1): ReLU(inplace=True)
      (conv2d_2): ConvTranspose2d(128, 128, kernel_size=(4, 4), stride=(2, 2), padding=(1, 1))
      (ReLU_2): ReLU(inplace=True)
      (conv2d_3): ConvTranspose2d(128, 128, kernel_size=(4, 4), stride=(2, 2), padding=(1, 1))
      (ReLU_3): ReLU(inplace=True)
      (conv2d_4): ConvTranspose2d(128, 3, kernel_size=(4, 4), stride=(2, 2), padding=(1, 1))
    )
  )
)


 Total Trainable Params in thousands: 1972 

                                                         Module Name  # of params in thousands  # of params [%]
0                           encoder.sequential_convs.conv2d_1.weight                         6             0.30
1                           encoder.sequential_convs.conv2d_2.weight                       262            13.29
…
Finished [21:34:18 07.01.2023] 304) Finished running for K = 4 & D = 64 & M = 3 & beta = 0.25 & max_channel_number = 128 (i.e. bits = 32) change_channel_size_across_layers = False:
Total training time is = 0:3:45 h/m/s. 

--------------------------------------------------- 

Started [21:34:18 07.01.2023] 305) Finished running for K = 2 & D = 64 & M = 3 & beta = 0.25 & max_channel_number = 128 (i.e. bits = 16) change_channel_size_across_layers = False:

--------------------------------------------------- 


 PyTorch print of the model:

VQ_VAE(
  (encoder): Encoder(
    (sequential_convs): Sequential(
      (conv2d_1): Conv2d(3, 128, kernel_size=(4, 4), stride=(2, 2), padding=(1, 1))
      (ReLU_1): ReLU(inplace=True)
      (conv2d_2): Conv2d(128, 128, kernel_size=(4, 4), stride=(2, 2), padding=(1, 1))
      (ReLU_2): ReLU(inplace=True)
      (conv2d_3): Conv2d(128, 128, kernel_size=(4, 4), stride=(2, 2), padding=(1, 1))
      (ReLU_3): ReLU(inplace=True)
      (conv2d_4): Conv2d(128, 128, kernel_size=(4, 4), stride=(2, 2), padding=(1, 1))
      (ReLU_4): ReLU(inplace=True)
    )
    (pre_residual_stack): Conv2d(128, 128, kernel_size=(3, 3), stride=(1, 1), padding=(1, 1))
    (residual_stack): ResidualStack(
      (residual_blocks): ModuleList(
        (0): Residual(
          (residual_block): Sequential(
            (0): ReLU(inplace=True)
            (1): Conv2d(128, 32, kernel_size=(3, 3), stride=(1, 1), padding=(1, 1), bias=False)
            (2): ReLU(inplace=True)
            (3): Conv2d(32, 128, kernel_size=(1, 1), stride=(1, 1), bias=False)
          )
        )
        (1): Residual(
          (residual_block): Sequential(
            (0): ReLU(inplace=True)
            (1): Conv2d(128, 32, kernel_size=(3, 3), stride=(1, 1), padding=(1, 1), bias=False)
            (2): ReLU(inplace=True)
            (3): Conv2d(32, 128, kernel_size=(1, 1), stride=(1, 1), bias=False)
          )
        )
      )
    )
    (channel_adjusting_conv): Conv2d(128, 64, kernel_size=(1, 1), stride=(1, 1))
  )
  (VQ): VectorQuantizer(
    (E): Embedding(2, 64)
  )
  (decoder): Decoder(
    (channel_adjusting_conv): Conv2d(64, 128, kernel_size=(3, 3), stride=(1, 1), padding=(1, 1))
    (residual_stack): ResidualStack(
      (residual_blocks): ModuleList(
        (0): Residual(
          (residual_block): Sequential(
            (0): ReLU(inplace=True)
            (1): Conv2d(128, 32, kernel_size=(3, 3), stride=(1, 1), padding=(1, 1), bias=False)
            (2): ReLU(inplace=True)
            (3): Conv2d(32, 128, kernel_size=(1, 1), stride=(1, 1), bias=False)
          )
        )
        (1): Residual(
          (residual_block): Sequential(
            (0): ReLU(inplace=True)
            (1): Conv2d(128, 32, kernel_size=(3, 3), stride=(1, 1), padding=(1, 1), bias=False)
            (2): ReLU(inplace=True)
            (3): Conv2d(32, 128, kernel_size=(1, 1), stride=(1, 1), bias=False)
          )
        )
      )
    )
    (sequential_trans_convs): Sequential(
      (conv2d_1): ConvTranspose2d(128, 128, kernel_size=(4, 4), stride=(2, 2), padding=(1, 1))
      (ReLU_1): ReLU(inplace=True)
      (conv2d_2): ConvTranspose2d(128, 128, kernel_size=(4, 4), stride=(2, 2), padding=(1, 1))
      (ReLU_2): ReLU(inplace=True)
      (conv2d_3): ConvTranspose2d(128, 128, kernel_size=(4, 4), stride=(2, 2), padding=(1, 1))
      (ReLU_3): ReLU(inplace=True)
      (conv2d_4): ConvTranspose2d(128, 3, kernel_size=(4, 4), stride=(2, 2), padding=(1, 1))
    )
  )
)


 Total Trainable Params in thousands: 1972 

                                                         Module Name  # of params in thousands  # of params [%]
0                           encoder.sequential_convs.conv2d_1.weight                         6             0.30
1                           encoder.sequential_convs.conv2d_2.weight                       262            13.29
…
Finished [22:39:03 07.01.2023] 305) Finished running for K = 2 & D = 64 & M = 3 & beta = 0.25 & max_channel_number = 128 (i.e. bits = 16) change_channel_size_across_layers = False:
Total training time is = 0:3:44 h/m/s. 

--------------------------------------------------- 

Started [22:39:03 07.01.2023] 306) Finished running for K = 32 & D = 64 & M = 3 & beta = 0.25 & max_channel_number = 256 (i.e. bits = 80) change_channel_size_across_layers = False:

--------------------------------------------------- 


 PyTorch print of the model:

VQ_VAE(
  (encoder): Encoder(
    (sequential_convs): Sequential(
      (conv2d_1): Conv2d(3, 256, kernel_size=(4, 4), stride=(2, 2), padding=(1, 1))
      (ReLU_1): ReLU(inplace=True)
      (conv2d_2): Conv2d(256, 256, kernel_size=(4, 4), stride=(2, 2), padding=(1, 1))
      (ReLU_2): ReLU(inplace=True)
      (conv2d_3): Conv2d(256, 256, kernel_size=(4, 4), stride=(2, 2), padding=(1, 1))
      (ReLU_3): ReLU(inplace=True)
      (conv2d_4): Conv2d(256, 256, kernel_size=(4, 4), stride=(2, 2), padding=(1, 1))
      (ReLU_4): ReLU(inplace=True)
    )
    (pre_residual_stack): Conv2d(256, 256, kernel_size=(3, 3), stride=(1, 1), padding=(1, 1))
    (residual_stack): ResidualStack(
      (residual_blocks): ModuleList(
        (0): Residual(
          (residual_block): Sequential(
            (0): ReLU(inplace=True)
            (1): Conv2d(256, 32, kernel_size=(3, 3), stride=(1, 1), padding=(1, 1), bias=False)
            (2): ReLU(inplace=True)
            (3): Conv2d(32, 256, kernel_size=(1, 1), stride=(1, 1), bias=False)
          )
        )
        (1): Residual(
          (residual_block): Sequential(
            (0): ReLU(inplace=True)
            (1): Conv2d(256, 32, kernel_size=(3, 3), stride=(1, 1), padding=(1, 1), bias=False)
            (2): ReLU(inplace=True)
            (3): Conv2d(32, 256, kernel_size=(1, 1), stride=(1, 1), bias=False)
          )
        )
      )
    )
    (channel_adjusting_conv): Conv2d(256, 64, kernel_size=(1, 1), stride=(1, 1))
  )
  (VQ): VectorQuantizer(
    (E): Embedding(32, 64)
  )
  (decoder): Decoder(
    (channel_adjusting_conv): Conv2d(64, 256, kernel_size=(3, 3), stride=(1, 1), padding=(1, 1))
    (residual_stack): ResidualStack(
      (residual_blocks): ModuleList(
        (0): Residual(
          (residual_block): Sequential(
            (0): ReLU(inplace=True)
            (1): Conv2d(256, 32, kernel_size=(3, 3), stride=(1, 1), padding=(1, 1), bias=False)
            (2): ReLU(inplace=True)
            (3): Conv2d(32, 256, kernel_size=(1, 1), stride=(1, 1), bias=False)
          )
        )
        (1): Residual(
          (residual_block): Sequential(
            (0): ReLU(inplace=True)
            (1): Conv2d(256, 32, kernel_size=(3, 3), stride=(1, 1), padding=(1, 1), bias=False)
            (2): ReLU(inplace=True)
            (3): Conv2d(32, 256, kernel_size=(1, 1), stride=(1, 1), bias=False)
          )
        )
      )
    )
    (sequential_trans_convs): Sequential(
      (conv2d_1): ConvTranspose2d(256, 256, kernel_size=(4, 4), stride=(2, 2), padding=(1, 1))
      (ReLU_1): ReLU(inplace=True)
      (conv2d_2): ConvTranspose2d(256, 256, kernel_size=(4, 4), stride=(2, 2), padding=(1, 1))
      (ReLU_2): ReLU(inplace=True)
      (conv2d_3): ConvTranspose2d(256, 256, kernel_size=(4, 4), stride=(2, 2), padding=(1, 1))
      (ReLU_3): ReLU(inplace=True)
      (conv2d_4): ConvTranspose2d(256, 3, kernel_size=(4, 4), stride=(2, 2), padding=(1, 1))
    )
  )
)


 Total Trainable Params in thousands: 7390 

                                                         Module Name  # of params in thousands  # of params [%]
0                           encoder.sequential_convs.conv2d_1.weight                        12             0.16
1                           encoder.sequential_convs.conv2d_2.weight                      1048            14.18
…
Finished [00:54:39 08.01.2023] 306) Finished running for K = 32 & D = 64 & M = 3 & beta = 0.25 & max_channel_number = 256 (i.e. bits = 80) change_channel_size_across_layers = False:
Total training time is = 0:3:35 h/m/s. 

--------------------------------------------------- 

Started [00:54:39 08.01.2023] 307) Finished running for K = 16 & D = 64 & M = 3 & beta = 0.25 & max_channel_number = 256 (i.e. bits = 64) change_channel_size_across_layers = False:

--------------------------------------------------- 


 PyTorch print of the model:

VQ_VAE(
  (encoder): Encoder(
    (sequential_convs): Sequential(
      (conv2d_1): Conv2d(3, 256, kernel_size=(4, 4), stride=(2, 2), padding=(1, 1))
      (ReLU_1): ReLU(inplace=True)
      (conv2d_2): Conv2d(256, 256, kernel_size=(4, 4), stride=(2, 2), padding=(1, 1))
      (ReLU_2): ReLU(inplace=True)
      (conv2d_3): Conv2d(256, 256, kernel_size=(4, 4), stride=(2, 2), padding=(1, 1))
      (ReLU_3): ReLU(inplace=True)
      (conv2d_4): Conv2d(256, 256, kernel_size=(4, 4), stride=(2, 2), padding=(1, 1))
      (ReLU_4): ReLU(inplace=True)
    )
    (pre_residual_stack): Conv2d(256, 256, kernel_size=(3, 3), stride=(1, 1), padding=(1, 1))
    (residual_stack): ResidualStack(
      (residual_blocks): ModuleList(
        (0): Residual(
          (residual_block): Sequential(
            (0): ReLU(inplace=True)
            (1): Conv2d(256, 32, kernel_size=(3, 3), stride=(1, 1), padding=(1, 1), bias=False)
            (2): ReLU(inplace=True)
            (3): Conv2d(32, 256, kernel_size=(1, 1), stride=(1, 1), bias=False)
          )
        )
        (1): Residual(
          (residual_block): Sequential(
            (0): ReLU(inplace=True)
            (1): Conv2d(256, 32, kernel_size=(3, 3), stride=(1, 1), padding=(1, 1), bias=False)
            (2): ReLU(inplace=True)
            (3): Conv2d(32, 256, kernel_size=(1, 1), stride=(1, 1), bias=False)
          )
        )
      )
    )
    (channel_adjusting_conv): Conv2d(256, 64, kernel_size=(1, 1), stride=(1, 1))
  )
  (VQ): VectorQuantizer(
    (E): Embedding(16, 64)
  )
  (decoder): Decoder(
    (channel_adjusting_conv): Conv2d(64, 256, kernel_size=(3, 3), stride=(1, 1), padding=(1, 1))
    (residual_stack): ResidualStack(
      (residual_blocks): ModuleList(
        (0): Residual(
          (residual_block): Sequential(
            (0): ReLU(inplace=True)
            (1): Conv2d(256, 32, kernel_size=(3, 3), stride=(1, 1), padding=(1, 1), bias=False)
            (2): ReLU(inplace=True)
            (3): Conv2d(32, 256, kernel_size=(1, 1), stride=(1, 1), bias=False)
          )
        )
        (1): Residual(
          (residual_block): Sequential(
            (0): ReLU(inplace=True)
            (1): Conv2d(256, 32, kernel_size=(3, 3), stride=(1, 1), padding=(1, 1), bias=False)
            (2): ReLU(inplace=True)
            (3): Conv2d(32, 256, kernel_size=(1, 1), stride=(1, 1), bias=False)
          )
        )
      )
    )
    (sequential_trans_convs): Sequential(
      (conv2d_1): ConvTranspose2d(256, 256, kernel_size=(4, 4), stride=(2, 2), padding=(1, 1))
      (ReLU_1): ReLU(inplace=True)
      (conv2d_2): ConvTranspose2d(256, 256, kernel_size=(4, 4), stride=(2, 2), padding=(1, 1))
      (ReLU_2): ReLU(inplace=True)
      (conv2d_3): ConvTranspose2d(256, 256, kernel_size=(4, 4), stride=(2, 2), padding=(1, 1))
      (ReLU_3): ReLU(inplace=True)
      (conv2d_4): ConvTranspose2d(256, 3, kernel_size=(4, 4), stride=(2, 2), padding=(1, 1))
    )
  )
)


 Total Trainable Params in thousands: 7389 

                                                         Module Name  # of params in thousands  # of params [%]
0                           encoder.sequential_convs.conv2d_1.weight                        12             0.16
1                           encoder.sequential_convs.conv2d_2.weight                      1048            14.18
…
Finished [03:10:15 08.01.2023] 307) Finished running for K = 16 & D = 64 & M = 3 & beta = 0.25 & max_channel_number = 256 (i.e. bits = 64) change_channel_size_across_layers = False:
Total training time is = 0:3:36 h/m/s. 

--------------------------------------------------- 

Started [03:10:15 08.01.2023] 308) Finished running for K = 8 & D = 64 & M = 3 & beta = 0.25 & max_channel_number = 256 (i.e. bits = 48) change_channel_size_across_layers = False:

--------------------------------------------------- 


 PyTorch print of the model:

VQ_VAE(
  (encoder): Encoder(
    (sequential_convs): Sequential(
      (conv2d_1): Conv2d(3, 256, kernel_size=(4, 4), stride=(2, 2), padding=(1, 1))
      (ReLU_1): ReLU(inplace=True)
      (conv2d_2): Conv2d(256, 256, kernel_size=(4, 4), stride=(2, 2), padding=(1, 1))
      (ReLU_2): ReLU(inplace=True)
      (conv2d_3): Conv2d(256, 256, kernel_size=(4, 4), stride=(2, 2), padding=(1, 1))
      (ReLU_3): ReLU(inplace=True)
      (conv2d_4): Conv2d(256, 256, kernel_size=(4, 4), stride=(2, 2), padding=(1, 1))
      (ReLU_4): ReLU(inplace=True)
    )
    (pre_residual_stack): Conv2d(256, 256, kernel_size=(3, 3), stride=(1, 1), padding=(1, 1))
    (residual_stack): ResidualStack(
      (residual_blocks): ModuleList(
        (0): Residual(
          (residual_block): Sequential(
            (0): ReLU(inplace=True)
            (1): Conv2d(256, 32, kernel_size=(3, 3), stride=(1, 1), padding=(1, 1), bias=False)
            (2): ReLU(inplace=True)
            (3): Conv2d(32, 256, kernel_size=(1, 1), stride=(1, 1), bias=False)
          )
        )
        (1): Residual(
          (residual_block): Sequential(
            (0): ReLU(inplace=True)
            (1): Conv2d(256, 32, kernel_size=(3, 3), stride=(1, 1), padding=(1, 1), bias=False)
            (2): ReLU(inplace=True)
            (3): Conv2d(32, 256, kernel_size=(1, 1), stride=(1, 1), bias=False)
          )
        )
      )
    )
    (channel_adjusting_conv): Conv2d(256, 64, kernel_size=(1, 1), stride=(1, 1))
  )
  (VQ): VectorQuantizer(
    (E): Embedding(8, 64)
  )
  (decoder): Decoder(
    (channel_adjusting_conv): Conv2d(64, 256, kernel_size=(3, 3), stride=(1, 1), padding=(1, 1))
    (residual_stack): ResidualStack(
      (residual_blocks): ModuleList(
        (0): Residual(
          (residual_block): Sequential(
            (0): ReLU(inplace=True)
            (1): Conv2d(256, 32, kernel_size=(3, 3), stride=(1, 1), padding=(1, 1), bias=False)
            (2): ReLU(inplace=True)
            (3): Conv2d(32, 256, kernel_size=(1, 1), stride=(1, 1), bias=False)
          )
        )
        (1): Residual(
          (residual_block): Sequential(
            (0): ReLU(inplace=True)
            (1): Conv2d(256, 32, kernel_size=(3, 3), stride=(1, 1), padding=(1, 1), bias=False)
            (2): ReLU(inplace=True)
            (3): Conv2d(32, 256, kernel_size=(1, 1), stride=(1, 1), bias=False)
          )
        )
      )
    )
    (sequential_trans_convs): Sequential(
      (conv2d_1): ConvTranspose2d(256, 256, kernel_size=(4, 4), stride=(2, 2), padding=(1, 1))
      (ReLU_1): ReLU(inplace=True)
      (conv2d_2): ConvTranspose2d(256, 256, kernel_size=(4, 4), stride=(2, 2), padding=(1, 1))
      (ReLU_2): ReLU(inplace=True)
      (conv2d_3): ConvTranspose2d(256, 256, kernel_size=(4, 4), stride=(2, 2), padding=(1, 1))
      (ReLU_3): ReLU(inplace=True)
      (conv2d_4): ConvTranspose2d(256, 3, kernel_size=(4, 4), stride=(2, 2), padding=(1, 1))
    )
  )
)


 Total Trainable Params in thousands: 7388 

                                                         Module Name  # of params in thousands  # of params [%]
0                           encoder.sequential_convs.conv2d_1.weight                        12             0.16
1                           encoder.sequential_convs.conv2d_2.weight                      1048            14.19
…
Finished [05:25:45 08.01.2023] 308) Finished running for K = 8 & D = 64 & M = 3 & beta = 0.25 & max_channel_number = 256 (i.e. bits = 48) change_channel_size_across_layers = False:
Total training time is = 0:3:29 h/m/s. 

--------------------------------------------------- 

Started [05:25:45 08.01.2023] 309) Finished running for K = 4 & D = 64 & M = 3 & beta = 0.25 & max_channel_number = 256 (i.e. bits = 32) change_channel_size_across_layers = False:

--------------------------------------------------- 


 PyTorch print of the model:

VQ_VAE(
  (encoder): Encoder(
    (sequential_convs): Sequential(
      (conv2d_1): Conv2d(3, 256, kernel_size=(4, 4), stride=(2, 2), padding=(1, 1))
      (ReLU_1): ReLU(inplace=True)
      (conv2d_2): Conv2d(256, 256, kernel_size=(4, 4), stride=(2, 2), padding=(1, 1))
      (ReLU_2): ReLU(inplace=True)
      (conv2d_3): Conv2d(256, 256, kernel_size=(4, 4), stride=(2, 2), padding=(1, 1))
      (ReLU_3): ReLU(inplace=True)
      (conv2d_4): Conv2d(256, 256, kernel_size=(4, 4), stride=(2, 2), padding=(1, 1))
      (ReLU_4): ReLU(inplace=True)
    )
    (pre_residual_stack): Conv2d(256, 256, kernel_size=(3, 3), stride=(1, 1), padding=(1, 1))
    (residual_stack): ResidualStack(
      (residual_blocks): ModuleList(
        (0): Residual(
          (residual_block): Sequential(
            (0): ReLU(inplace=True)
            (1): Conv2d(256, 32, kernel_size=(3, 3), stride=(1, 1), padding=(1, 1), bias=False)
            (2): ReLU(inplace=True)
            (3): Conv2d(32, 256, kernel_size=(1, 1), stride=(1, 1), bias=False)
          )
        )
        (1): Residual(
          (residual_block): Sequential(
            (0): ReLU(inplace=True)
            (1): Conv2d(256, 32, kernel_size=(3, 3), stride=(1, 1), padding=(1, 1), bias=False)
            (2): ReLU(inplace=True)
            (3): Conv2d(32, 256, kernel_size=(1, 1), stride=(1, 1), bias=False)
          )
        )
      )
    )
    (channel_adjusting_conv): Conv2d(256, 64, kernel_size=(1, 1), stride=(1, 1))
  )
  (VQ): VectorQuantizer(
    (E): Embedding(4, 64)
  )
  (decoder): Decoder(
    (channel_adjusting_conv): Conv2d(64, 256, kernel_size=(3, 3), stride=(1, 1), padding=(1, 1))
    (residual_stack): ResidualStack(
      (residual_blocks): ModuleList(
        (0): Residual(
          (residual_block): Sequential(
            (0): ReLU(inplace=True)
            (1): Conv2d(256, 32, kernel_size=(3, 3), stride=(1, 1), padding=(1, 1), bias=False)
            (2): ReLU(inplace=True)
            (3): Conv2d(32, 256, kernel_size=(1, 1), stride=(1, 1), bias=False)
          )
        )
        (1): Residual(
          (residual_block): Sequential(
            (0): ReLU(inplace=True)
            (1): Conv2d(256, 32, kernel_size=(3, 3), stride=(1, 1), padding=(1, 1), bias=False)
            (2): ReLU(inplace=True)
            (3): Conv2d(32, 256, kernel_size=(1, 1), stride=(1, 1), bias=False)
          )
        )
      )
    )
    (sequential_trans_convs): Sequential(
      (conv2d_1): ConvTranspose2d(256, 256, kernel_size=(4, 4), stride=(2, 2), padding=(1, 1))
      (ReLU_1): ReLU(inplace=True)
      (conv2d_2): ConvTranspose2d(256, 256, kernel_size=(4, 4), stride=(2, 2), padding=(1, 1))
      (ReLU_2): ReLU(inplace=True)
      (conv2d_3): ConvTranspose2d(256, 256, kernel_size=(4, 4), stride=(2, 2), padding=(1, 1))
      (ReLU_3): ReLU(inplace=True)
      (conv2d_4): ConvTranspose2d(256, 3, kernel_size=(4, 4), stride=(2, 2), padding=(1, 1))
    )
  )
)


 Total Trainable Params in thousands: 7388 

                                                         Module Name  # of params in thousands  # of params [%]
0                           encoder.sequential_convs.conv2d_1.weight                        12             0.16
1                           encoder.sequential_convs.conv2d_2.weight                      1048            14.19
…
Finished [07:41:17 08.01.2023] 309) Finished running for K = 4 & D = 64 & M = 3 & beta = 0.25 & max_channel_number = 256 (i.e. bits = 32) change_channel_size_across_layers = False:
Total training time is = 0:3:32 h/m/s. 

--------------------------------------------------- 

Started [07:41:17 08.01.2023] 310) Finished running for K = 2 & D = 64 & M = 3 & beta = 0.25 & max_channel_number = 256 (i.e. bits = 16) change_channel_size_across_layers = False:

--------------------------------------------------- 


 PyTorch print of the model:

VQ_VAE(
  (encoder): Encoder(
    (sequential_convs): Sequential(
      (conv2d_1): Conv2d(3, 256, kernel_size=(4, 4), stride=(2, 2), padding=(1, 1))
      (ReLU_1): ReLU(inplace=True)
      (conv2d_2): Conv2d(256, 256, kernel_size=(4, 4), stride=(2, 2), padding=(1, 1))
      (ReLU_2): ReLU(inplace=True)
      (conv2d_3): Conv2d(256, 256, kernel_size=(4, 4), stride=(2, 2), padding=(1, 1))
      (ReLU_3): ReLU(inplace=True)
      (conv2d_4): Conv2d(256, 256, kernel_size=(4, 4), stride=(2, 2), padding=(1, 1))
      (ReLU_4): ReLU(inplace=True)
    )
    (pre_residual_stack): Conv2d(256, 256, kernel_size=(3, 3), stride=(1, 1), padding=(1, 1))
    (residual_stack): ResidualStack(
      (residual_blocks): ModuleList(
        (0): Residual(
          (residual_block): Sequential(
            (0): ReLU(inplace=True)
            (1): Conv2d(256, 32, kernel_size=(3, 3), stride=(1, 1), padding=(1, 1), bias=False)
            (2): ReLU(inplace=True)
            (3): Conv2d(32, 256, kernel_size=(1, 1), stride=(1, 1), bias=False)
          )
        )
        (1): Residual(
          (residual_block): Sequential(
            (0): ReLU(inplace=True)
            (1): Conv2d(256, 32, kernel_size=(3, 3), stride=(1, 1), padding=(1, 1), bias=False)
            (2): ReLU(inplace=True)
            (3): Conv2d(32, 256, kernel_size=(1, 1), stride=(1, 1), bias=False)
          )
        )
      )
    )
    (channel_adjusting_conv): Conv2d(256, 64, kernel_size=(1, 1), stride=(1, 1))
  )
  (VQ): VectorQuantizer(
    (E): Embedding(2, 64)
  )
  (decoder): Decoder(
    (channel_adjusting_conv): Conv2d(64, 256, kernel_size=(3, 3), stride=(1, 1), padding=(1, 1))
    (residual_stack): ResidualStack(
      (residual_blocks): ModuleList(
        (0): Residual(
          (residual_block): Sequential(
            (0): ReLU(inplace=True)
            (1): Conv2d(256, 32, kernel_size=(3, 3), stride=(1, 1), padding=(1, 1), bias=False)
            (2): ReLU(inplace=True)
            (3): Conv2d(32, 256, kernel_size=(1, 1), stride=(1, 1), bias=False)
          )
        )
        (1): Residual(
          (residual_block): Sequential(
            (0): ReLU(inplace=True)
            (1): Conv2d(256, 32, kernel_size=(3, 3), stride=(1, 1), padding=(1, 1), bias=False)
            (2): ReLU(inplace=True)
            (3): Conv2d(32, 256, kernel_size=(1, 1), stride=(1, 1), bias=False)
          )
        )
      )
    )
    (sequential_trans_convs): Sequential(
      (conv2d_1): ConvTranspose2d(256, 256, kernel_size=(4, 4), stride=(2, 2), padding=(1, 1))
      (ReLU_1): ReLU(inplace=True)
      (conv2d_2): ConvTranspose2d(256, 256, kernel_size=(4, 4), stride=(2, 2), padding=(1, 1))
      (ReLU_2): ReLU(inplace=True)
      (conv2d_3): ConvTranspose2d(256, 256, kernel_size=(4, 4), stride=(2, 2), padding=(1, 1))
      (ReLU_3): ReLU(inplace=True)
      (conv2d_4): ConvTranspose2d(256, 3, kernel_size=(4, 4), stride=(2, 2), padding=(1, 1))
    )
  )
)


 Total Trainable Params in thousands: 7388 

                                                         Module Name  # of params in thousands  # of params [%]
0                           encoder.sequential_convs.conv2d_1.weight                        12             0.16
1                           encoder.sequential_convs.conv2d_2.weight                      1048            14.19
…
Finished [09:56:51 08.01.2023] 310) Finished running for K = 2 & D = 64 & M = 3 & beta = 0.25 & max_channel_number = 256 (i.e. bits = 16) change_channel_size_across_layers = False:
Total training time is = 0:3:33 h/m/s. 

--------------------------------------------------- 

Started [09:56:51 08.01.2023] 311) Finished running for K = 32 & D = 64 & M = 3 & beta = 0.25 & max_channel_number = 128 (i.e. bits = 80) change_channel_size_across_layers = True:

--------------------------------------------------- 


 PyTorch print of the model:

VQ_VAE(
  (encoder): Encoder(
    (sequential_convs): Sequential(
      (conv2d_1): Conv2d(3, 16, kernel_size=(4, 4), stride=(2, 2), padding=(1, 1))
      (ReLU_1): ReLU(inplace=True)
      (conv2d_2): Conv2d(16, 32, kernel_size=(4, 4), stride=(2, 2), padding=(1, 1))
      (ReLU_2): ReLU(inplace=True)
      (conv2d_3): Conv2d(32, 64, kernel_size=(4, 4), stride=(2, 2), padding=(1, 1))
      (ReLU_3): ReLU(inplace=True)
      (conv2d_4): Conv2d(64, 128, kernel_size=(4, 4), stride=(2, 2), padding=(1, 1))
      (ReLU_4): ReLU(inplace=True)
    )
    (pre_residual_stack): Conv2d(128, 128, kernel_size=(3, 3), stride=(1, 1), padding=(1, 1))
    (residual_stack): ResidualStack(
      (residual_blocks): ModuleList(
        (0): Residual(
          (residual_block): Sequential(
            (0): ReLU(inplace=True)
            (1): Conv2d(128, 32, kernel_size=(3, 3), stride=(1, 1), padding=(1, 1), bias=False)
            (2): ReLU(inplace=True)
            (3): Conv2d(32, 128, kernel_size=(1, 1), stride=(1, 1), bias=False)
          )
        )
        (1): Residual(
          (residual_block): Sequential(
            (0): ReLU(inplace=True)
            (1): Conv2d(128, 32, kernel_size=(3, 3), stride=(1, 1), padding=(1, 1), bias=False)
            (2): ReLU(inplace=True)
            (3): Conv2d(32, 128, kernel_size=(1, 1), stride=(1, 1), bias=False)
          )
        )
      )
    )
    (channel_adjusting_conv): Conv2d(128, 64, kernel_size=(1, 1), stride=(1, 1))
  )
  (VQ): VectorQuantizer(
    (E): Embedding(32, 64)
  )
  (decoder): Decoder(
    (channel_adjusting_conv): Conv2d(64, 128, kernel_size=(3, 3), stride=(1, 1), padding=(1, 1))
    (residual_stack): ResidualStack(
      (residual_blocks): ModuleList(
        (0): Residual(
          (residual_block): Sequential(
            (0): ReLU(inplace=True)
            (1): Conv2d(128, 32, kernel_size=(3, 3), stride=(1, 1), padding=(1, 1), bias=False)
            (2): ReLU(inplace=True)
            (3): Conv2d(32, 128, kernel_size=(1, 1), stride=(1, 1), bias=False)
          )
        )
        (1): Residual(
          (residual_block): Sequential(
            (0): ReLU(inplace=True)
            (1): Conv2d(128, 32, kernel_size=(3, 3), stride=(1, 1), padding=(1, 1), bias=False)
            (2): ReLU(inplace=True)
            (3): Conv2d(32, 128, kernel_size=(1, 1), stride=(1, 1), bias=False)
          )
        )
      )
    )
    (sequential_trans_convs): Sequential(
      (conv2d_1): ConvTranspose2d(128, 64, kernel_size=(4, 4), stride=(2, 2), padding=(1, 1))
      (ReLU_1): ReLU(inplace=True)
      (conv2d_2): ConvTranspose2d(64, 32, kernel_size=(4, 4), stride=(2, 2), padding=(1, 1))
      (ReLU_2): ReLU(inplace=True)
      (conv2d_3): ConvTranspose2d(32, 16, kernel_size=(4, 4), stride=(2, 2), padding=(1, 1))
      (ReLU_3): ReLU(inplace=True)
      (conv2d_4): ConvTranspose2d(16, 3, kernel_size=(4, 4), stride=(2, 2), padding=(1, 1))
    )
  )
)


 Total Trainable Params in thousands: 732 

                                                         Module Name  # of params in thousands  # of params [%]
0                           encoder.sequential_convs.conv2d_1.weight                         0             0.00
1                           encoder.sequential_convs.conv2d_2.weight                         8             1.09
…
Finished [10:45:12 08.01.2023] 311) Finished running for K = 32 & D = 64 & M = 3 & beta = 0.25 & max_channel_number = 128 (i.e. bits = 80) change_channel_size_across_layers = True:
Total training time is = 0:3:21 h/m/s. 

--------------------------------------------------- 

Started [10:45:12 08.01.2023] 312) Finished running for K = 16 & D = 64 & M = 3 & beta = 0.25 & max_channel_number = 128 (i.e. bits = 64) change_channel_size_across_layers = True:

--------------------------------------------------- 


 PyTorch print of the model:

VQ_VAE(
  (encoder): Encoder(
    (sequential_convs): Sequential(
      (conv2d_1): Conv2d(3, 16, kernel_size=(4, 4), stride=(2, 2), padding=(1, 1))
      (ReLU_1): ReLU(inplace=True)
      (conv2d_2): Conv2d(16, 32, kernel_size=(4, 4), stride=(2, 2), padding=(1, 1))
      (ReLU_2): ReLU(inplace=True)
      (conv2d_3): Conv2d(32, 64, kernel_size=(4, 4), stride=(2, 2), padding=(1, 1))
      (ReLU_3): ReLU(inplace=True)
      (conv2d_4): Conv2d(64, 128, kernel_size=(4, 4), stride=(2, 2), padding=(1, 1))
      (ReLU_4): ReLU(inplace=True)
    )
    (pre_residual_stack): Conv2d(128, 128, kernel_size=(3, 3), stride=(1, 1), padding=(1, 1))
    (residual_stack): ResidualStack(
      (residual_blocks): ModuleList(
        (0): Residual(
          (residual_block): Sequential(
            (0): ReLU(inplace=True)
            (1): Conv2d(128, 32, kernel_size=(3, 3), stride=(1, 1), padding=(1, 1), bias=False)
            (2): ReLU(inplace=True)
            (3): Conv2d(32, 128, kernel_size=(1, 1), stride=(1, 1), bias=False)
          )
        )
        (1): Residual(
          (residual_block): Sequential(
            (0): ReLU(inplace=True)
            (1): Conv2d(128, 32, kernel_size=(3, 3), stride=(1, 1), padding=(1, 1), bias=False)
            (2): ReLU(inplace=True)
            (3): Conv2d(32, 128, kernel_size=(1, 1), stride=(1, 1), bias=False)
          )
        )
      )
    )
    (channel_adjusting_conv): Conv2d(128, 64, kernel_size=(1, 1), stride=(1, 1))
  )
  (VQ): VectorQuantizer(
    (E): Embedding(16, 64)
  )
  (decoder): Decoder(
    (channel_adjusting_conv): Conv2d(64, 128, kernel_size=(3, 3), stride=(1, 1), padding=(1, 1))
    (residual_stack): ResidualStack(
      (residual_blocks): ModuleList(
        (0): Residual(
          (residual_block): Sequential(
            (0): ReLU(inplace=True)
            (1): Conv2d(128, 32, kernel_size=(3, 3), stride=(1, 1), padding=(1, 1), bias=False)
            (2): ReLU(inplace=True)
            (3): Conv2d(32, 128, kernel_size=(1, 1), stride=(1, 1), bias=False)
          )
        )
        (1): Residual(
          (residual_block): Sequential(
            (0): ReLU(inplace=True)
            (1): Conv2d(128, 32, kernel_size=(3, 3), stride=(1, 1), padding=(1, 1), bias=False)
            (2): ReLU(inplace=True)
            (3): Conv2d(32, 128, kernel_size=(1, 1), stride=(1, 1), bias=False)
          )
        )
      )
    )
    (sequential_trans_convs): Sequential(
      (conv2d_1): ConvTranspose2d(128, 64, kernel_size=(4, 4), stride=(2, 2), padding=(1, 1))
      (ReLU_1): ReLU(inplace=True)
      (conv2d_2): ConvTranspose2d(64, 32, kernel_size=(4, 4), stride=(2, 2), padding=(1, 1))
      (ReLU_2): ReLU(inplace=True)
      (conv2d_3): ConvTranspose2d(32, 16, kernel_size=(4, 4), stride=(2, 2), padding=(1, 1))
      (ReLU_3): ReLU(inplace=True)
      (conv2d_4): ConvTranspose2d(16, 3, kernel_size=(4, 4), stride=(2, 2), padding=(1, 1))
    )
  )
)


 Total Trainable Params in thousands: 731 

                                                         Module Name  # of params in thousands  # of params [%]
0                           encoder.sequential_convs.conv2d_1.weight                         0             0.00
1                           encoder.sequential_convs.conv2d_2.weight                         8             1.09
…
Finished [11:33:45 08.01.2023] 312) Finished running for K = 16 & D = 64 & M = 3 & beta = 0.25 & max_channel_number = 128 (i.e. bits = 64) change_channel_size_across_layers = True:
Total training time is = 0:3:32 h/m/s. 

--------------------------------------------------- 

Started [11:33:45 08.01.2023] 313) Finished running for K = 8 & D = 64 & M = 3 & beta = 0.25 & max_channel_number = 128 (i.e. bits = 48) change_channel_size_across_layers = True:

--------------------------------------------------- 


 PyTorch print of the model:

VQ_VAE(
  (encoder): Encoder(
    (sequential_convs): Sequential(
      (conv2d_1): Conv2d(3, 16, kernel_size=(4, 4), stride=(2, 2), padding=(1, 1))
      (ReLU_1): ReLU(inplace=True)
      (conv2d_2): Conv2d(16, 32, kernel_size=(4, 4), stride=(2, 2), padding=(1, 1))
      (ReLU_2): ReLU(inplace=True)
      (conv2d_3): Conv2d(32, 64, kernel_size=(4, 4), stride=(2, 2), padding=(1, 1))
      (ReLU_3): ReLU(inplace=True)
      (conv2d_4): Conv2d(64, 128, kernel_size=(4, 4), stride=(2, 2), padding=(1, 1))
      (ReLU_4): ReLU(inplace=True)
    )
    (pre_residual_stack): Conv2d(128, 128, kernel_size=(3, 3), stride=(1, 1), padding=(1, 1))
    (residual_stack): ResidualStack(
      (residual_blocks): ModuleList(
        (0): Residual(
          (residual_block): Sequential(
            (0): ReLU(inplace=True)
            (1): Conv2d(128, 32, kernel_size=(3, 3), stride=(1, 1), padding=(1, 1), bias=False)
            (2): ReLU(inplace=True)
            (3): Conv2d(32, 128, kernel_size=(1, 1), stride=(1, 1), bias=False)
          )
        )
        (1): Residual(
          (residual_block): Sequential(
            (0): ReLU(inplace=True)
            (1): Conv2d(128, 32, kernel_size=(3, 3), stride=(1, 1), padding=(1, 1), bias=False)
            (2): ReLU(inplace=True)
            (3): Conv2d(32, 128, kernel_size=(1, 1), stride=(1, 1), bias=False)
          )
        )
      )
    )
    (channel_adjusting_conv): Conv2d(128, 64, kernel_size=(1, 1), stride=(1, 1))
  )
  (VQ): VectorQuantizer(
    (E): Embedding(8, 64)
  )
  (decoder): Decoder(
    (channel_adjusting_conv): Conv2d(64, 128, kernel_size=(3, 3), stride=(1, 1), padding=(1, 1))
    (residual_stack): ResidualStack(
      (residual_blocks): ModuleList(
        (0): Residual(
          (residual_block): Sequential(
            (0): ReLU(inplace=True)
            (1): Conv2d(128, 32, kernel_size=(3, 3), stride=(1, 1), padding=(1, 1), bias=False)
            (2): ReLU(inplace=True)
            (3): Conv2d(32, 128, kernel_size=(1, 1), stride=(1, 1), bias=False)
          )
        )
        (1): Residual(
          (residual_block): Sequential(
            (0): ReLU(inplace=True)
            (1): Conv2d(128, 32, kernel_size=(3, 3), stride=(1, 1), padding=(1, 1), bias=False)
            (2): ReLU(inplace=True)
            (3): Conv2d(32, 128, kernel_size=(1, 1), stride=(1, 1), bias=False)
          )
        )
      )
    )
    (sequential_trans_convs): Sequential(
      (conv2d_1): ConvTranspose2d(128, 64, kernel_size=(4, 4), stride=(2, 2), padding=(1, 1))
      (ReLU_1): ReLU(inplace=True)
      (conv2d_2): ConvTranspose2d(64, 32, kernel_size=(4, 4), stride=(2, 2), padding=(1, 1))
      (ReLU_2): ReLU(inplace=True)
      (conv2d_3): ConvTranspose2d(32, 16, kernel_size=(4, 4), stride=(2, 2), padding=(1, 1))
      (ReLU_3): ReLU(inplace=True)
      (conv2d_4): ConvTranspose2d(16, 3, kernel_size=(4, 4), stride=(2, 2), padding=(1, 1))
    )
  )
)


 Total Trainable Params in thousands: 730 

                                                         Module Name  # of params in thousands  # of params [%]
0                           encoder.sequential_convs.conv2d_1.weight                         0             0.00
1                           encoder.sequential_convs.conv2d_2.weight                         8             1.10
…
Finished [12:22:00 08.01.2023] 313) Finished running for K = 8 & D = 64 & M = 3 & beta = 0.25 & max_channel_number = 128 (i.e. bits = 48) change_channel_size_across_layers = True:
Total training time is = 0:3:15 h/m/s. 

--------------------------------------------------- 

Started [12:22:00 08.01.2023] 314) Finished running for K = 4 & D = 64 & M = 3 & beta = 0.25 & max_channel_number = 128 (i.e. bits = 32) change_channel_size_across_layers = True:

--------------------------------------------------- 


 PyTorch print of the model:

VQ_VAE(
  (encoder): Encoder(
    (sequential_convs): Sequential(
      (conv2d_1): Conv2d(3, 16, kernel_size=(4, 4), stride=(2, 2), padding=(1, 1))
      (ReLU_1): ReLU(inplace=True)
      (conv2d_2): Conv2d(16, 32, kernel_size=(4, 4), stride=(2, 2), padding=(1, 1))
      (ReLU_2): ReLU(inplace=True)
      (conv2d_3): Conv2d(32, 64, kernel_size=(4, 4), stride=(2, 2), padding=(1, 1))
      (ReLU_3): ReLU(inplace=True)
      (conv2d_4): Conv2d(64, 128, kernel_size=(4, 4), stride=(2, 2), padding=(1, 1))
      (ReLU_4): ReLU(inplace=True)
    )
    (pre_residual_stack): Conv2d(128, 128, kernel_size=(3, 3), stride=(1, 1), padding=(1, 1))
    (residual_stack): ResidualStack(
      (residual_blocks): ModuleList(
        (0): Residual(
          (residual_block): Sequential(
            (0): ReLU(inplace=True)
            (1): Conv2d(128, 32, kernel_size=(3, 3), stride=(1, 1), padding=(1, 1), bias=False)
            (2): ReLU(inplace=True)
            (3): Conv2d(32, 128, kernel_size=(1, 1), stride=(1, 1), bias=False)
          )
        )
        (1): Residual(
          (residual_block): Sequential(
            (0): ReLU(inplace=True)
            (1): Conv2d(128, 32, kernel_size=(3, 3), stride=(1, 1), padding=(1, 1), bias=False)
            (2): ReLU(inplace=True)
            (3): Conv2d(32, 128, kernel_size=(1, 1), stride=(1, 1), bias=False)
          )
        )
      )
    )
    (channel_adjusting_conv): Conv2d(128, 64, kernel_size=(1, 1), stride=(1, 1))
  )
  (VQ): VectorQuantizer(
    (E): Embedding(4, 64)
  )
  (decoder): Decoder(
    (channel_adjusting_conv): Conv2d(64, 128, kernel_size=(3, 3), stride=(1, 1), padding=(1, 1))
    (residual_stack): ResidualStack(
      (residual_blocks): ModuleList(
        (0): Residual(
          (residual_block): Sequential(
            (0): ReLU(inplace=True)
            (1): Conv2d(128, 32, kernel_size=(3, 3), stride=(1, 1), padding=(1, 1), bias=False)
            (2): ReLU(inplace=True)
            (3): Conv2d(32, 128, kernel_size=(1, 1), stride=(1, 1), bias=False)
          )
        )
        (1): Residual(
          (residual_block): Sequential(
            (0): ReLU(inplace=True)
            (1): Conv2d(128, 32, kernel_size=(3, 3), stride=(1, 1), padding=(1, 1), bias=False)
            (2): ReLU(inplace=True)
            (3): Conv2d(32, 128, kernel_size=(1, 1), stride=(1, 1), bias=False)
          )
        )
      )
    )
    (sequential_trans_convs): Sequential(
      (conv2d_1): ConvTranspose2d(128, 64, kernel_size=(4, 4), stride=(2, 2), padding=(1, 1))
      (ReLU_1): ReLU(inplace=True)
      (conv2d_2): ConvTranspose2d(64, 32, kernel_size=(4, 4), stride=(2, 2), padding=(1, 1))
      (ReLU_2): ReLU(inplace=True)
      (conv2d_3): ConvTranspose2d(32, 16, kernel_size=(4, 4), stride=(2, 2), padding=(1, 1))
      (ReLU_3): ReLU(inplace=True)
      (conv2d_4): ConvTranspose2d(16, 3, kernel_size=(4, 4), stride=(2, 2), padding=(1, 1))
    )
  )
)


 Total Trainable Params in thousands: 730 

                                                         Module Name  # of params in thousands  # of params [%]
0                           encoder.sequential_convs.conv2d_1.weight                         0             0.00
1                           encoder.sequential_convs.conv2d_2.weight                         8             1.10
…
Finished [13:10:11 08.01.2023] 314) Finished running for K = 4 & D = 64 & M = 3 & beta = 0.25 & max_channel_number = 128 (i.e. bits = 32) change_channel_size_across_layers = True:
Total training time is = 0:3:10 h/m/s. 

--------------------------------------------------- 

Started [13:10:11 08.01.2023] 315) Finished running for K = 2 & D = 64 & M = 3 & beta = 0.25 & max_channel_number = 128 (i.e. bits = 16) change_channel_size_across_layers = True:

--------------------------------------------------- 


 PyTorch print of the model:

VQ_VAE(
  (encoder): Encoder(
    (sequential_convs): Sequential(
      (conv2d_1): Conv2d(3, 16, kernel_size=(4, 4), stride=(2, 2), padding=(1, 1))
      (ReLU_1): ReLU(inplace=True)
      (conv2d_2): Conv2d(16, 32, kernel_size=(4, 4), stride=(2, 2), padding=(1, 1))
      (ReLU_2): ReLU(inplace=True)
      (conv2d_3): Conv2d(32, 64, kernel_size=(4, 4), stride=(2, 2), padding=(1, 1))
      (ReLU_3): ReLU(inplace=True)
      (conv2d_4): Conv2d(64, 128, kernel_size=(4, 4), stride=(2, 2), padding=(1, 1))
      (ReLU_4): ReLU(inplace=True)
    )
    (pre_residual_stack): Conv2d(128, 128, kernel_size=(3, 3), stride=(1, 1), padding=(1, 1))
    (residual_stack): ResidualStack(
      (residual_blocks): ModuleList(
        (0): Residual(
          (residual_block): Sequential(
            (0): ReLU(inplace=True)
            (1): Conv2d(128, 32, kernel_size=(3, 3), stride=(1, 1), padding=(1, 1), bias=False)
            (2): ReLU(inplace=True)
            (3): Conv2d(32, 128, kernel_size=(1, 1), stride=(1, 1), bias=False)
          )
        )
        (1): Residual(
          (residual_block): Sequential(
            (0): ReLU(inplace=True)
            (1): Conv2d(128, 32, kernel_size=(3, 3), stride=(1, 1), padding=(1, 1), bias=False)
            (2): ReLU(inplace=True)
            (3): Conv2d(32, 128, kernel_size=(1, 1), stride=(1, 1), bias=False)
          )
        )
      )
    )
    (channel_adjusting_conv): Conv2d(128, 64, kernel_size=(1, 1), stride=(1, 1))
  )
  (VQ): VectorQuantizer(
    (E): Embedding(2, 64)
  )
  (decoder): Decoder(
    (channel_adjusting_conv): Conv2d(64, 128, kernel_size=(3, 3), stride=(1, 1), padding=(1, 1))
    (residual_stack): ResidualStack(
      (residual_blocks): ModuleList(
        (0): Residual(
          (residual_block): Sequential(
            (0): ReLU(inplace=True)
            (1): Conv2d(128, 32, kernel_size=(3, 3), stride=(1, 1), padding=(1, 1), bias=False)
            (2): ReLU(inplace=True)
            (3): Conv2d(32, 128, kernel_size=(1, 1), stride=(1, 1), bias=False)
          )
        )
        (1): Residual(
          (residual_block): Sequential(
            (0): ReLU(inplace=True)
            (1): Conv2d(128, 32, kernel_size=(3, 3), stride=(1, 1), padding=(1, 1), bias=False)
            (2): ReLU(inplace=True)
            (3): Conv2d(32, 128, kernel_size=(1, 1), stride=(1, 1), bias=False)
          )
        )
      )
    )
    (sequential_trans_convs): Sequential(
      (conv2d_1): ConvTranspose2d(128, 64, kernel_size=(4, 4), stride=(2, 2), padding=(1, 1))
      (ReLU_1): ReLU(inplace=True)
      (conv2d_2): ConvTranspose2d(64, 32, kernel_size=(4, 4), stride=(2, 2), padding=(1, 1))
      (ReLU_2): ReLU(inplace=True)
      (conv2d_3): ConvTranspose2d(32, 16, kernel_size=(4, 4), stride=(2, 2), padding=(1, 1))
      (ReLU_3): ReLU(inplace=True)
      (conv2d_4): ConvTranspose2d(16, 3, kernel_size=(4, 4), stride=(2, 2), padding=(1, 1))
    )
  )
)


 Total Trainable Params in thousands: 730 

                                                         Module Name  # of params in thousands  # of params [%]
0                           encoder.sequential_convs.conv2d_1.weight                         0             0.00
1                           encoder.sequential_convs.conv2d_2.weight                         8             1.10
…
Finished [13:58:35 08.01.2023] 315) Finished running for K = 2 & D = 64 & M = 3 & beta = 0.25 & max_channel_number = 128 (i.e. bits = 16) change_channel_size_across_layers = True:
Total training time is = 0:3:23 h/m/s. 

--------------------------------------------------- 

Started [13:58:35 08.01.2023] 316) Finished running for K = 32 & D = 64 & M = 3 & beta = 0.25 & max_channel_number = 256 (i.e. bits = 80) change_channel_size_across_layers = True:

--------------------------------------------------- 


 PyTorch print of the model:

VQ_VAE(
  (encoder): Encoder(
    (sequential_convs): Sequential(
      (conv2d_1): Conv2d(3, 32, kernel_size=(4, 4), stride=(2, 2), padding=(1, 1))
      (ReLU_1): ReLU(inplace=True)
      (conv2d_2): Conv2d(32, 64, kernel_size=(4, 4), stride=(2, 2), padding=(1, 1))
      (ReLU_2): ReLU(inplace=True)
      (conv2d_3): Conv2d(64, 128, kernel_size=(4, 4), stride=(2, 2), padding=(1, 1))
      (ReLU_3): ReLU(inplace=True)
      (conv2d_4): Conv2d(128, 256, kernel_size=(4, 4), stride=(2, 2), padding=(1, 1))
      (ReLU_4): ReLU(inplace=True)
    )
    (pre_residual_stack): Conv2d(256, 256, kernel_size=(3, 3), stride=(1, 1), padding=(1, 1))
    (residual_stack): ResidualStack(
      (residual_blocks): ModuleList(
        (0): Residual(
          (residual_block): Sequential(
            (0): ReLU(inplace=True)
            (1): Conv2d(256, 32, kernel_size=(3, 3), stride=(1, 1), padding=(1, 1), bias=False)
            (2): ReLU(inplace=True)
            (3): Conv2d(32, 256, kernel_size=(1, 1), stride=(1, 1), bias=False)
          )
        )
        (1): Residual(
          (residual_block): Sequential(
            (0): ReLU(inplace=True)
            (1): Conv2d(256, 32, kernel_size=(3, 3), stride=(1, 1), padding=(1, 1), bias=False)
            (2): ReLU(inplace=True)
            (3): Conv2d(32, 256, kernel_size=(1, 1), stride=(1, 1), bias=False)
          )
        )
      )
    )
    (channel_adjusting_conv): Conv2d(256, 64, kernel_size=(1, 1), stride=(1, 1))
  )
  (VQ): VectorQuantizer(
    (E): Embedding(32, 64)
  )
  (decoder): Decoder(
    (channel_adjusting_conv): Conv2d(64, 256, kernel_size=(3, 3), stride=(1, 1), padding=(1, 1))
    (residual_stack): ResidualStack(
      (residual_blocks): ModuleList(
        (0): Residual(
          (residual_block): Sequential(
            (0): ReLU(inplace=True)
            (1): Conv2d(256, 32, kernel_size=(3, 3), stride=(1, 1), padding=(1, 1), bias=False)
            (2): ReLU(inplace=True)
            (3): Conv2d(32, 256, kernel_size=(1, 1), stride=(1, 1), bias=False)
          )
        )
        (1): Residual(
          (residual_block): Sequential(
            (0): ReLU(inplace=True)
            (1): Conv2d(256, 32, kernel_size=(3, 3), stride=(1, 1), padding=(1, 1), bias=False)
            (2): ReLU(inplace=True)
            (3): Conv2d(32, 256, kernel_size=(1, 1), stride=(1, 1), bias=False)
          )
        )
      )
    )
    (sequential_trans_convs): Sequential(
      (conv2d_1): ConvTranspose2d(256, 128, kernel_size=(4, 4), stride=(2, 2), padding=(1, 1))
      (ReLU_1): ReLU(inplace=True)
      (conv2d_2): ConvTranspose2d(128, 64, kernel_size=(4, 4), stride=(2, 2), padding=(1, 1))
      (ReLU_2): ReLU(inplace=True)
      (conv2d_3): ConvTranspose2d(64, 32, kernel_size=(4, 4), stride=(2, 2), padding=(1, 1))
      (ReLU_3): ReLU(inplace=True)
      (conv2d_4): ConvTranspose2d(32, 3, kernel_size=(4, 4), stride=(2, 2), padding=(1, 1))
    )
  )
)


 Total Trainable Params in thousands: 2454 

                                                         Module Name  # of params in thousands  # of params [%]
0                           encoder.sequential_convs.conv2d_1.weight                         1             0.04
1                           encoder.sequential_convs.conv2d_2.weight                        32             1.30
…
Finished [14:48:09 08.01.2023] 316) Finished running for K = 32 & D = 64 & M = 3 & beta = 0.25 & max_channel_number = 256 (i.e. bits = 80) change_channel_size_across_layers = True:
Total training time is = 0:3:33 h/m/s. 

--------------------------------------------------- 

Started [14:48:09 08.01.2023] 317) Finished running for K = 16 & D = 64 & M = 3 & beta = 0.25 & max_channel_number = 256 (i.e. bits = 64) change_channel_size_across_layers = True:

--------------------------------------------------- 


 PyTorch print of the model:

VQ_VAE(
  (encoder): Encoder(
    (sequential_convs): Sequential(
      (conv2d_1): Conv2d(3, 32, kernel_size=(4, 4), stride=(2, 2), padding=(1, 1))
      (ReLU_1): ReLU(inplace=True)
      (conv2d_2): Conv2d(32, 64, kernel_size=(4, 4), stride=(2, 2), padding=(1, 1))
      (ReLU_2): ReLU(inplace=True)
      (conv2d_3): Conv2d(64, 128, kernel_size=(4, 4), stride=(2, 2), padding=(1, 1))
      (ReLU_3): ReLU(inplace=True)
      (conv2d_4): Conv2d(128, 256, kernel_size=(4, 4), stride=(2, 2), padding=(1, 1))
      (ReLU_4): ReLU(inplace=True)
    )
    (pre_residual_stack): Conv2d(256, 256, kernel_size=(3, 3), stride=(1, 1), padding=(1, 1))
    (residual_stack): ResidualStack(
      (residual_blocks): ModuleList(
        (0): Residual(
          (residual_block): Sequential(
            (0): ReLU(inplace=True)
            (1): Conv2d(256, 32, kernel_size=(3, 3), stride=(1, 1), padding=(1, 1), bias=False)
            (2): ReLU(inplace=True)
            (3): Conv2d(32, 256, kernel_size=(1, 1), stride=(1, 1), bias=False)
          )
        )
        (1): Residual(
          (residual_block): Sequential(
            (0): ReLU(inplace=True)
            (1): Conv2d(256, 32, kernel_size=(3, 3), stride=(1, 1), padding=(1, 1), bias=False)
            (2): ReLU(inplace=True)
            (3): Conv2d(32, 256, kernel_size=(1, 1), stride=(1, 1), bias=False)
          )
        )
      )
    )
    (channel_adjusting_conv): Conv2d(256, 64, kernel_size=(1, 1), stride=(1, 1))
  )
  (VQ): VectorQuantizer(
    (E): Embedding(16, 64)
  )
  (decoder): Decoder(
    (channel_adjusting_conv): Conv2d(64, 256, kernel_size=(3, 3), stride=(1, 1), padding=(1, 1))
    (residual_stack): ResidualStack(
      (residual_blocks): ModuleList(
        (0): Residual(
          (residual_block): Sequential(
            (0): ReLU(inplace=True)
            (1): Conv2d(256, 32, kernel_size=(3, 3), stride=(1, 1), padding=(1, 1), bias=False)
            (2): ReLU(inplace=True)
            (3): Conv2d(32, 256, kernel_size=(1, 1), stride=(1, 1), bias=False)
          )
        )
        (1): Residual(
          (residual_block): Sequential(
            (0): ReLU(inplace=True)
            (1): Conv2d(256, 32, kernel_size=(3, 3), stride=(1, 1), padding=(1, 1), bias=False)
            (2): ReLU(inplace=True)
            (3): Conv2d(32, 256, kernel_size=(1, 1), stride=(1, 1), bias=False)
          )
        )
      )
    )
    (sequential_trans_convs): Sequential(
      (conv2d_1): ConvTranspose2d(256, 128, kernel_size=(4, 4), stride=(2, 2), padding=(1, 1))
      (ReLU_1): ReLU(inplace=True)
      (conv2d_2): ConvTranspose2d(128, 64, kernel_size=(4, 4), stride=(2, 2), padding=(1, 1))
      (ReLU_2): ReLU(inplace=True)
      (conv2d_3): ConvTranspose2d(64, 32, kernel_size=(4, 4), stride=(2, 2), padding=(1, 1))
      (ReLU_3): ReLU(inplace=True)
      (conv2d_4): ConvTranspose2d(32, 3, kernel_size=(4, 4), stride=(2, 2), padding=(1, 1))
    )
  )
)


 Total Trainable Params in thousands: 2453 

                                                         Module Name  # of params in thousands  # of params [%]
0                           encoder.sequential_convs.conv2d_1.weight                         1             0.04
1                           encoder.sequential_convs.conv2d_2.weight                        32             1.30
…
Finished [15:37:49 08.01.2023] 317) Finished running for K = 16 & D = 64 & M = 3 & beta = 0.25 & max_channel_number = 256 (i.e. bits = 64) change_channel_size_across_layers = True:
Total training time is = 0:3:40 h/m/s. 

--------------------------------------------------- 

Started [15:37:49 08.01.2023] 318) Finished running for K = 8 & D = 64 & M = 3 & beta = 0.25 & max_channel_number = 256 (i.e. bits = 48) change_channel_size_across_layers = True:

--------------------------------------------------- 


 PyTorch print of the model:

VQ_VAE(
  (encoder): Encoder(
    (sequential_convs): Sequential(
      (conv2d_1): Conv2d(3, 32, kernel_size=(4, 4), stride=(2, 2), padding=(1, 1))
      (ReLU_1): ReLU(inplace=True)
      (conv2d_2): Conv2d(32, 64, kernel_size=(4, 4), stride=(2, 2), padding=(1, 1))
      (ReLU_2): ReLU(inplace=True)
      (conv2d_3): Conv2d(64, 128, kernel_size=(4, 4), stride=(2, 2), padding=(1, 1))
      (ReLU_3): ReLU(inplace=True)
      (conv2d_4): Conv2d(128, 256, kernel_size=(4, 4), stride=(2, 2), padding=(1, 1))
      (ReLU_4): ReLU(inplace=True)
    )
    (pre_residual_stack): Conv2d(256, 256, kernel_size=(3, 3), stride=(1, 1), padding=(1, 1))
    (residual_stack): ResidualStack(
      (residual_blocks): ModuleList(
        (0): Residual(
          (residual_block): Sequential(
            (0): ReLU(inplace=True)
            (1): Conv2d(256, 32, kernel_size=(3, 3), stride=(1, 1), padding=(1, 1), bias=False)
            (2): ReLU(inplace=True)
            (3): Conv2d(32, 256, kernel_size=(1, 1), stride=(1, 1), bias=False)
          )
        )
        (1): Residual(
          (residual_block): Sequential(
            (0): ReLU(inplace=True)
            (1): Conv2d(256, 32, kernel_size=(3, 3), stride=(1, 1), padding=(1, 1), bias=False)
            (2): ReLU(inplace=True)
            (3): Conv2d(32, 256, kernel_size=(1, 1), stride=(1, 1), bias=False)
          )
        )
      )
    )
    (channel_adjusting_conv): Conv2d(256, 64, kernel_size=(1, 1), stride=(1, 1))
  )
  (VQ): VectorQuantizer(
    (E): Embedding(8, 64)
  )
  (decoder): Decoder(
    (channel_adjusting_conv): Conv2d(64, 256, kernel_size=(3, 3), stride=(1, 1), padding=(1, 1))
    (residual_stack): ResidualStack(
      (residual_blocks): ModuleList(
        (0): Residual(
          (residual_block): Sequential(
            (0): ReLU(inplace=True)
            (1): Conv2d(256, 32, kernel_size=(3, 3), stride=(1, 1), padding=(1, 1), bias=False)
            (2): ReLU(inplace=True)
            (3): Conv2d(32, 256, kernel_size=(1, 1), stride=(1, 1), bias=False)
          )
        )
        (1): Residual(
          (residual_block): Sequential(
            (0): ReLU(inplace=True)
            (1): Conv2d(256, 32, kernel_size=(3, 3), stride=(1, 1), padding=(1, 1), bias=False)
            (2): ReLU(inplace=True)
            (3): Conv2d(32, 256, kernel_size=(1, 1), stride=(1, 1), bias=False)
          )
        )
      )
    )
    (sequential_trans_convs): Sequential(
      (conv2d_1): ConvTranspose2d(256, 128, kernel_size=(4, 4), stride=(2, 2), padding=(1, 1))
      (ReLU_1): ReLU(inplace=True)
      (conv2d_2): ConvTranspose2d(128, 64, kernel_size=(4, 4), stride=(2, 2), padding=(1, 1))
      (ReLU_2): ReLU(inplace=True)
      (conv2d_3): ConvTranspose2d(64, 32, kernel_size=(4, 4), stride=(2, 2), padding=(1, 1))
      (ReLU_3): ReLU(inplace=True)
      (conv2d_4): ConvTranspose2d(32, 3, kernel_size=(4, 4), stride=(2, 2), padding=(1, 1))
    )
  )
)


 Total Trainable Params in thousands: 2452 

                                                         Module Name  # of params in thousands  # of params [%]
0                           encoder.sequential_convs.conv2d_1.weight                         1             0.04
1                           encoder.sequential_convs.conv2d_2.weight                        32             1.31
…
Finished [16:27:22 08.01.2023] 318) Finished running for K = 8 & D = 64 & M = 3 & beta = 0.25 & max_channel_number = 256 (i.e. bits = 48) change_channel_size_across_layers = True:
Total training time is = 0:3:33 h/m/s. 

--------------------------------------------------- 

Started [16:27:22 08.01.2023] 319) Finished running for K = 4 & D = 64 & M = 3 & beta = 0.25 & max_channel_number = 256 (i.e. bits = 32) change_channel_size_across_layers = True:

--------------------------------------------------- 


 PyTorch print of the model:

VQ_VAE(
  (encoder): Encoder(
    (sequential_convs): Sequential(
      (conv2d_1): Conv2d(3, 32, kernel_size=(4, 4), stride=(2, 2), padding=(1, 1))
      (ReLU_1): ReLU(inplace=True)
      (conv2d_2): Conv2d(32, 64, kernel_size=(4, 4), stride=(2, 2), padding=(1, 1))
      (ReLU_2): ReLU(inplace=True)
      (conv2d_3): Conv2d(64, 128, kernel_size=(4, 4), stride=(2, 2), padding=(1, 1))
      (ReLU_3): ReLU(inplace=True)
      (conv2d_4): Conv2d(128, 256, kernel_size=(4, 4), stride=(2, 2), padding=(1, 1))
      (ReLU_4): ReLU(inplace=True)
    )
    (pre_residual_stack): Conv2d(256, 256, kernel_size=(3, 3), stride=(1, 1), padding=(1, 1))
    (residual_stack): ResidualStack(
      (residual_blocks): ModuleList(
        (0): Residual(
          (residual_block): Sequential(
            (0): ReLU(inplace=True)
            (1): Conv2d(256, 32, kernel_size=(3, 3), stride=(1, 1), padding=(1, 1), bias=False)
            (2): ReLU(inplace=True)
            (3): Conv2d(32, 256, kernel_size=(1, 1), stride=(1, 1), bias=False)
          )
        )
        (1): Residual(
          (residual_block): Sequential(
            (0): ReLU(inplace=True)
            (1): Conv2d(256, 32, kernel_size=(3, 3), stride=(1, 1), padding=(1, 1), bias=False)
            (2): ReLU(inplace=True)
            (3): Conv2d(32, 256, kernel_size=(1, 1), stride=(1, 1), bias=False)
          )
        )
      )
    )
    (channel_adjusting_conv): Conv2d(256, 64, kernel_size=(1, 1), stride=(1, 1))
  )
  (VQ): VectorQuantizer(
    (E): Embedding(4, 64)
  )
  (decoder): Decoder(
    (channel_adjusting_conv): Conv2d(64, 256, kernel_size=(3, 3), stride=(1, 1), padding=(1, 1))
    (residual_stack): ResidualStack(
      (residual_blocks): ModuleList(
        (0): Residual(
          (residual_block): Sequential(
            (0): ReLU(inplace=True)
            (1): Conv2d(256, 32, kernel_size=(3, 3), stride=(1, 1), padding=(1, 1), bias=False)
            (2): ReLU(inplace=True)
            (3): Conv2d(32, 256, kernel_size=(1, 1), stride=(1, 1), bias=False)
          )
        )
        (1): Residual(
          (residual_block): Sequential(
            (0): ReLU(inplace=True)
            (1): Conv2d(256, 32, kernel_size=(3, 3), stride=(1, 1), padding=(1, 1), bias=False)
            (2): ReLU(inplace=True)
            (3): Conv2d(32, 256, kernel_size=(1, 1), stride=(1, 1), bias=False)
          )
        )
      )
    )
    (sequential_trans_convs): Sequential(
      (conv2d_1): ConvTranspose2d(256, 128, kernel_size=(4, 4), stride=(2, 2), padding=(1, 1))
      (ReLU_1): ReLU(inplace=True)
      (conv2d_2): ConvTranspose2d(128, 64, kernel_size=(4, 4), stride=(2, 2), padding=(1, 1))
      (ReLU_2): ReLU(inplace=True)
      (conv2d_3): ConvTranspose2d(64, 32, kernel_size=(4, 4), stride=(2, 2), padding=(1, 1))
      (ReLU_3): ReLU(inplace=True)
      (conv2d_4): ConvTranspose2d(32, 3, kernel_size=(4, 4), stride=(2, 2), padding=(1, 1))
    )
  )
)


 Total Trainable Params in thousands: 2452 

                                                         Module Name  # of params in thousands  # of params [%]
0                           encoder.sequential_convs.conv2d_1.weight                         1             0.04
1                           encoder.sequential_convs.conv2d_2.weight                        32             1.31
…
Finished [17:17:06 08.01.2023] 319) Finished running for K = 4 & D = 64 & M = 3 & beta = 0.25 & max_channel_number = 256 (i.e. bits = 32) change_channel_size_across_layers = True:
Total training time is = 0:3:43 h/m/s. 

--------------------------------------------------- 

Started [17:17:06 08.01.2023] 320) Finished running for K = 2 & D = 64 & M = 3 & beta = 0.25 & max_channel_number = 256 (i.e. bits = 16) change_channel_size_across_layers = True:

--------------------------------------------------- 


 PyTorch print of the model:

VQ_VAE(
  (encoder): Encoder(
    (sequential_convs): Sequential(
      (conv2d_1): Conv2d(3, 32, kernel_size=(4, 4), stride=(2, 2), padding=(1, 1))
      (ReLU_1): ReLU(inplace=True)
      (conv2d_2): Conv2d(32, 64, kernel_size=(4, 4), stride=(2, 2), padding=(1, 1))
      (ReLU_2): ReLU(inplace=True)
      (conv2d_3): Conv2d(64, 128, kernel_size=(4, 4), stride=(2, 2), padding=(1, 1))
      (ReLU_3): ReLU(inplace=True)
      (conv2d_4): Conv2d(128, 256, kernel_size=(4, 4), stride=(2, 2), padding=(1, 1))
      (ReLU_4): ReLU(inplace=True)
    )
    (pre_residual_stack): Conv2d(256, 256, kernel_size=(3, 3), stride=(1, 1), padding=(1, 1))
    (residual_stack): ResidualStack(
      (residual_blocks): ModuleList(
        (0): Residual(
          (residual_block): Sequential(
            (0): ReLU(inplace=True)
            (1): Conv2d(256, 32, kernel_size=(3, 3), stride=(1, 1), padding=(1, 1), bias=False)
            (2): ReLU(inplace=True)
            (3): Conv2d(32, 256, kernel_size=(1, 1), stride=(1, 1), bias=False)
          )
        )
        (1): Residual(
          (residual_block): Sequential(
            (0): ReLU(inplace=True)
            (1): Conv2d(256, 32, kernel_size=(3, 3), stride=(1, 1), padding=(1, 1), bias=False)
            (2): ReLU(inplace=True)
            (3): Conv2d(32, 256, kernel_size=(1, 1), stride=(1, 1), bias=False)
          )
        )
      )
    )
    (channel_adjusting_conv): Conv2d(256, 64, kernel_size=(1, 1), stride=(1, 1))
  )
  (VQ): VectorQuantizer(
    (E): Embedding(2, 64)
  )
  (decoder): Decoder(
    (channel_adjusting_conv): Conv2d(64, 256, kernel_size=(3, 3), stride=(1, 1), padding=(1, 1))
    (residual_stack): ResidualStack(
      (residual_blocks): ModuleList(
        (0): Residual(
          (residual_block): Sequential(
            (0): ReLU(inplace=True)
            (1): Conv2d(256, 32, kernel_size=(3, 3), stride=(1, 1), padding=(1, 1), bias=False)
            (2): ReLU(inplace=True)
            (3): Conv2d(32, 256, kernel_size=(1, 1), stride=(1, 1), bias=False)
          )
        )
        (1): Residual(
          (residual_block): Sequential(
            (0): ReLU(inplace=True)
            (1): Conv2d(256, 32, kernel_size=(3, 3), stride=(1, 1), padding=(1, 1), bias=False)
            (2): ReLU(inplace=True)
            (3): Conv2d(32, 256, kernel_size=(1, 1), stride=(1, 1), bias=False)
          )
        )
      )
    )
    (sequential_trans_convs): Sequential(
      (conv2d_1): ConvTranspose2d(256, 128, kernel_size=(4, 4), stride=(2, 2), padding=(1, 1))
      (ReLU_1): ReLU(inplace=True)
      (conv2d_2): ConvTranspose2d(128, 64, kernel_size=(4, 4), stride=(2, 2), padding=(1, 1))
      (ReLU_2): ReLU(inplace=True)
      (conv2d_3): ConvTranspose2d(64, 32, kernel_size=(4, 4), stride=(2, 2), padding=(1, 1))
      (ReLU_3): ReLU(inplace=True)
      (conv2d_4): ConvTranspose2d(32, 3, kernel_size=(4, 4), stride=(2, 2), padding=(1, 1))
    )
  )
)


 Total Trainable Params in thousands: 2452 

                                                         Module Name  # of params in thousands  # of params [%]
0                           encoder.sequential_convs.conv2d_1.weight                         1             0.04
1                           encoder.sequential_convs.conv2d_2.weight                        32             1.31
…
--------------------------------------------------- 


################################# from here upward   run_id <  400 #################################
################################# from here downward run_id => 400 #################################

Started [02:30:37 09.01.2023] 401) Finished running for K = 64 & D = 32 & M = 3 & beta = 0.25 & max_channel_number = 128 (i.e. bits = 96) change_channel_size_across_layers = True:

--------------------------------------------------- 


 PyTorch print of the model:

VQ_VAE(
  (encoder): Encoder(
    (sequential_convs): Sequential(
      (conv2d_1): Conv2d(3, 16, kernel_size=(4, 4), stride=(2, 2), padding=(1, 1))
      (ReLU_1): ReLU(inplace=True)
      (conv2d_2): Conv2d(16, 32, kernel_size=(4, 4), stride=(2, 2), padding=(1, 1))
      (ReLU_2): ReLU(inplace=True)
      (conv2d_3): Conv2d(32, 64, kernel_size=(4, 4), stride=(2, 2), padding=(1, 1))
      (ReLU_3): ReLU(inplace=True)
      (conv2d_4): Conv2d(64, 128, kernel_size=(4, 4), stride=(2, 2), padding=(1, 1))
      (ReLU_4): ReLU(inplace=True)
    )
    (pre_residual_stack): Conv2d(128, 128, kernel_size=(3, 3), stride=(1, 1), padding=(1, 1))
    (residual_stack): ResidualStack(
      (residual_blocks): ModuleList(
        (0): Residual(
          (residual_block): Sequential(
            (0): ReLU(inplace=True)
            (1): Conv2d(128, 32, kernel_size=(3, 3), stride=(1, 1), padding=(1, 1), bias=False)
            (2): ReLU(inplace=True)
            (3): Conv2d(32, 128, kernel_size=(1, 1), stride=(1, 1), bias=False)
          )
        )
        (1): Residual(
          (residual_block): Sequential(
            (0): ReLU(inplace=True)
            (1): Conv2d(128, 32, kernel_size=(3, 3), stride=(1, 1), padding=(1, 1), bias=False)
            (2): ReLU(inplace=True)
            (3): Conv2d(32, 128, kernel_size=(1, 1), stride=(1, 1), bias=False)
          )
        )
      )
    )
    (channel_adjusting_conv): Conv2d(128, 32, kernel_size=(1, 1), stride=(1, 1))
  )
  (VQ): VectorQuantizer(
    (E): Embedding(64, 32)
  )
  (decoder): Decoder(
    (channel_adjusting_conv): Conv2d(32, 128, kernel_size=(3, 3), stride=(1, 1), padding=(1, 1))
    (residual_stack): ResidualStack(
      (residual_blocks): ModuleList(
        (0): Residual(
          (residual_block): Sequential(
            (0): ReLU(inplace=True)
            (1): Conv2d(128, 32, kernel_size=(3, 3), stride=(1, 1), padding=(1, 1), bias=False)
            (2): ReLU(inplace=True)
            (3): Conv2d(32, 128, kernel_size=(1, 1), stride=(1, 1), bias=False)
          )
        )
        (1): Residual(
          (residual_block): Sequential(
            (0): ReLU(inplace=True)
            (1): Conv2d(128, 32, kernel_size=(3, 3), stride=(1, 1), padding=(1, 1), bias=False)
            (2): ReLU(inplace=True)
            (3): Conv2d(32, 128, kernel_size=(1, 1), stride=(1, 1), bias=False)
          )
        )
      )
    )
    (sequential_trans_convs): Sequential(
      (conv2d_1): ConvTranspose2d(128, 64, kernel_size=(4, 4), stride=(2, 2), padding=(1, 1))
      (ReLU_1): ReLU(inplace=True)
      (conv2d_2): ConvTranspose2d(64, 32, kernel_size=(4, 4), stride=(2, 2), padding=(1, 1))
      (ReLU_2): ReLU(inplace=True)
      (conv2d_3): ConvTranspose2d(32, 16, kernel_size=(4, 4), stride=(2, 2), padding=(1, 1))
      (ReLU_3): ReLU(inplace=True)
      (conv2d_4): ConvTranspose2d(16, 3, kernel_size=(4, 4), stride=(2, 2), padding=(1, 1))
    )
  )
)


 Total Trainable Params in thousands: 691 

                                                         Module Name  # of params in thousands  # of params [%]
0                           encoder.sequential_convs.conv2d_1.weight                         0             0.00
1                           encoder.sequential_convs.conv2d_2.weight                         8             1.16
…
Finished [03:18:35 09.01.2023] 401) Finished running for K = 64 & D = 32 & M = 3 & beta = 0.25 & max_channel_number = 128 (i.e. bits = 96) change_channel_size_across_layers = True:
Total training time is = 0:3:58 h/m/s. 

--------------------------------------------------- 

Started [03:18:35 09.01.2023] 402) Finished running for K = 64 & D = 16 & M = 3 & beta = 0.25 & max_channel_number = 128 (i.e. bits = 96) change_channel_size_across_layers = True:

--------------------------------------------------- 


 PyTorch print of the model:

VQ_VAE(
  (encoder): Encoder(
    (sequential_convs): Sequential(
      (conv2d_1): Conv2d(3, 16, kernel_size=(4, 4), stride=(2, 2), padding=(1, 1))
      (ReLU_1): ReLU(inplace=True)
      (conv2d_2): Conv2d(16, 32, kernel_size=(4, 4), stride=(2, 2), padding=(1, 1))
      (ReLU_2): ReLU(inplace=True)
      (conv2d_3): Conv2d(32, 64, kernel_size=(4, 4), stride=(2, 2), padding=(1, 1))
      (ReLU_3): ReLU(inplace=True)
      (conv2d_4): Conv2d(64, 128, kernel_size=(4, 4), stride=(2, 2), padding=(1, 1))
      (ReLU_4): ReLU(inplace=True)
    )
    (pre_residual_stack): Conv2d(128, 128, kernel_size=(3, 3), stride=(1, 1), padding=(1, 1))
    (residual_stack): ResidualStack(
      (residual_blocks): ModuleList(
        (0): Residual(
          (residual_block): Sequential(
            (0): ReLU(inplace=True)
            (1): Conv2d(128, 32, kernel_size=(3, 3), stride=(1, 1), padding=(1, 1), bias=False)
            (2): ReLU(inplace=True)
            (3): Conv2d(32, 128, kernel_size=(1, 1), stride=(1, 1), bias=False)
          )
        )
        (1): Residual(
          (residual_block): Sequential(
            (0): ReLU(inplace=True)
            (1): Conv2d(128, 32, kernel_size=(3, 3), stride=(1, 1), padding=(1, 1), bias=False)
            (2): ReLU(inplace=True)
            (3): Conv2d(32, 128, kernel_size=(1, 1), stride=(1, 1), bias=False)
          )
        )
      )
    )
    (channel_adjusting_conv): Conv2d(128, 16, kernel_size=(1, 1), stride=(1, 1))
  )
  (VQ): VectorQuantizer(
    (E): Embedding(64, 16)
  )
  (decoder): Decoder(
    (channel_adjusting_conv): Conv2d(16, 128, kernel_size=(3, 3), stride=(1, 1), padding=(1, 1))
    (residual_stack): ResidualStack(
      (residual_blocks): ModuleList(
        (0): Residual(
          (residual_block): Sequential(
            (0): ReLU(inplace=True)
            (1): Conv2d(128, 32, kernel_size=(3, 3), stride=(1, 1), padding=(1, 1), bias=False)
            (2): ReLU(inplace=True)
            (3): Conv2d(32, 128, kernel_size=(1, 1), stride=(1, 1), bias=False)
          )
        )
        (1): Residual(
          (residual_block): Sequential(
            (0): ReLU(inplace=True)
            (1): Conv2d(128, 32, kernel_size=(3, 3), stride=(1, 1), padding=(1, 1), bias=False)
            (2): ReLU(inplace=True)
            (3): Conv2d(32, 128, kernel_size=(1, 1), stride=(1, 1), bias=False)
          )
        )
      )
    )
    (sequential_trans_convs): Sequential(
      (conv2d_1): ConvTranspose2d(128, 64, kernel_size=(4, 4), stride=(2, 2), padding=(1, 1))
      (ReLU_1): ReLU(inplace=True)
      (conv2d_2): ConvTranspose2d(64, 32, kernel_size=(4, 4), stride=(2, 2), padding=(1, 1))
      (ReLU_2): ReLU(inplace=True)
      (conv2d_3): ConvTranspose2d(32, 16, kernel_size=(4, 4), stride=(2, 2), padding=(1, 1))
      (ReLU_3): ReLU(inplace=True)
      (conv2d_4): ConvTranspose2d(16, 3, kernel_size=(4, 4), stride=(2, 2), padding=(1, 1))
    )
  )
)


 Total Trainable Params in thousands: 670 

                                                         Module Name  # of params in thousands  # of params [%]
0                           encoder.sequential_convs.conv2d_1.weight                         0             0.00
1                           encoder.sequential_convs.conv2d_2.weight                         8             1.19
…
Finished [04:06:40 09.01.2023] 402) Finished running for K = 64 & D = 16 & M = 3 & beta = 0.25 & max_channel_number = 128 (i.e. bits = 96) change_channel_size_across_layers = True:
Total training time is = 0:3:5 h/m/s. 

--------------------------------------------------- 

Started [04:06:40 09.01.2023] 403) Finished running for K = 64 & D = 8 & M = 3 & beta = 0.25 & max_channel_number = 128 (i.e. bits = 96) change_channel_size_across_layers = True:

--------------------------------------------------- 


 PyTorch print of the model:

VQ_VAE(
  (encoder): Encoder(
    (sequential_convs): Sequential(
      (conv2d_1): Conv2d(3, 16, kernel_size=(4, 4), stride=(2, 2), padding=(1, 1))
      (ReLU_1): ReLU(inplace=True)
      (conv2d_2): Conv2d(16, 32, kernel_size=(4, 4), stride=(2, 2), padding=(1, 1))
      (ReLU_2): ReLU(inplace=True)
      (conv2d_3): Conv2d(32, 64, kernel_size=(4, 4), stride=(2, 2), padding=(1, 1))
      (ReLU_3): ReLU(inplace=True)
      (conv2d_4): Conv2d(64, 128, kernel_size=(4, 4), stride=(2, 2), padding=(1, 1))
      (ReLU_4): ReLU(inplace=True)
    )
    (pre_residual_stack): Conv2d(128, 128, kernel_size=(3, 3), stride=(1, 1), padding=(1, 1))
    (residual_stack): ResidualStack(
      (residual_blocks): ModuleList(
        (0): Residual(
          (residual_block): Sequential(
            (0): ReLU(inplace=True)
            (1): Conv2d(128, 32, kernel_size=(3, 3), stride=(1, 1), padding=(1, 1), bias=False)
            (2): ReLU(inplace=True)
            (3): Conv2d(32, 128, kernel_size=(1, 1), stride=(1, 1), bias=False)
          )
        )
        (1): Residual(
          (residual_block): Sequential(
            (0): ReLU(inplace=True)
            (1): Conv2d(128, 32, kernel_size=(3, 3), stride=(1, 1), padding=(1, 1), bias=False)
            (2): ReLU(inplace=True)
            (3): Conv2d(32, 128, kernel_size=(1, 1), stride=(1, 1), bias=False)
          )
        )
      )
    )
    (channel_adjusting_conv): Conv2d(128, 8, kernel_size=(1, 1), stride=(1, 1))
  )
  (VQ): VectorQuantizer(
    (E): Embedding(64, 8)
  )
  (decoder): Decoder(
    (channel_adjusting_conv): Conv2d(8, 128, kernel_size=(3, 3), stride=(1, 1), padding=(1, 1))
    (residual_stack): ResidualStack(
      (residual_blocks): ModuleList(
        (0): Residual(
          (residual_block): Sequential(
            (0): ReLU(inplace=True)
            (1): Conv2d(128, 32, kernel_size=(3, 3), stride=(1, 1), padding=(1, 1), bias=False)
            (2): ReLU(inplace=True)
            (3): Conv2d(32, 128, kernel_size=(1, 1), stride=(1, 1), bias=False)
          )
        )
        (1): Residual(
          (residual_block): Sequential(
            (0): ReLU(inplace=True)
            (1): Conv2d(128, 32, kernel_size=(3, 3), stride=(1, 1), padding=(1, 1), bias=False)
            (2): ReLU(inplace=True)
            (3): Conv2d(32, 128, kernel_size=(1, 1), stride=(1, 1), bias=False)
          )
        )
      )
    )
    (sequential_trans_convs): Sequential(
      (conv2d_1): ConvTranspose2d(128, 64, kernel_size=(4, 4), stride=(2, 2), padding=(1, 1))
      (ReLU_1): ReLU(inplace=True)
      (conv2d_2): ConvTranspose2d(64, 32, kernel_size=(4, 4), stride=(2, 2), padding=(1, 1))
      (ReLU_2): ReLU(inplace=True)
      (conv2d_3): ConvTranspose2d(32, 16, kernel_size=(4, 4), stride=(2, 2), padding=(1, 1))
      (ReLU_3): ReLU(inplace=True)
      (conv2d_4): ConvTranspose2d(16, 3, kernel_size=(4, 4), stride=(2, 2), padding=(1, 1))
    )
  )
)


 Total Trainable Params in thousands: 659 

                                                         Module Name  # of params in thousands  # of params [%]
0                           encoder.sequential_convs.conv2d_1.weight                         0             0.00
1                           encoder.sequential_convs.conv2d_2.weight                         8             1.21
…
Finished [04:54:27 09.01.2023] 403) Finished running for K = 64 & D = 8 & M = 3 & beta = 0.25 & max_channel_number = 128 (i.e. bits = 96) change_channel_size_across_layers = True:
Total training time is = 0:3:46 h/m/s. 

--------------------------------------------------- 

Started [04:54:27 09.01.2023] 404) Finished running for K = 64 & D = 32 & M = 1 & beta = 0.25 & max_channel_number = 128 (i.e. bits = 24) change_channel_size_across_layers = True:

--------------------------------------------------- 


 PyTorch print of the model:

VQ_VAE(
  (encoder): Encoder(
    (sequential_convs): Sequential(
      (conv2d_1): Conv2d(3, 8, kernel_size=(4, 4), stride=(2, 2), padding=(1, 1))
      (ReLU_1): ReLU(inplace=True)
      (conv2d_2): Conv2d(8, 16, kernel_size=(4, 4), stride=(2, 2), padding=(1, 1))
      (ReLU_2): ReLU(inplace=True)
      (conv2d_3): Conv2d(16, 32, kernel_size=(4, 4), stride=(2, 2), padding=(1, 1))
      (ReLU_3): ReLU(inplace=True)
      (conv2d_4): Conv2d(32, 64, kernel_size=(4, 4), stride=(2, 2), padding=(1, 1))
      (ReLU_4): ReLU(inplace=True)
      (conv2d_5): Conv2d(64, 128, kernel_size=(4, 4), stride=(2, 2), padding=(1, 1))
      (ReLU_5): ReLU(inplace=True)
    )
    (pre_residual_stack): Conv2d(128, 128, kernel_size=(3, 3), stride=(1, 1), padding=(1, 1))
    (residual_stack): ResidualStack(
      (residual_blocks): ModuleList(
        (0): Residual(
          (residual_block): Sequential(
            (0): ReLU(inplace=True)
            (1): Conv2d(128, 32, kernel_size=(3, 3), stride=(1, 1), padding=(1, 1), bias=False)
            (2): ReLU(inplace=True)
            (3): Conv2d(32, 128, kernel_size=(1, 1), stride=(1, 1), bias=False)
          )
        )
        (1): Residual(
          (residual_block): Sequential(
            (0): ReLU(inplace=True)
            (1): Conv2d(128, 32, kernel_size=(3, 3), stride=(1, 1), padding=(1, 1), bias=False)
            (2): ReLU(inplace=True)
            (3): Conv2d(32, 128, kernel_size=(1, 1), stride=(1, 1), bias=False)
          )
        )
      )
    )
    (channel_adjusting_conv): Conv2d(128, 32, kernel_size=(1, 1), stride=(1, 1))
  )
  (VQ): VectorQuantizer(
    (E): Embedding(64, 32)
  )
  (decoder): Decoder(
    (channel_adjusting_conv): Conv2d(32, 128, kernel_size=(3, 3), stride=(1, 1), padding=(1, 1))
    (residual_stack): ResidualStack(
      (residual_blocks): ModuleList(
        (0): Residual(
          (residual_block): Sequential(
            (0): ReLU(inplace=True)
            (1): Conv2d(128, 32, kernel_size=(3, 3), stride=(1, 1), padding=(1, 1), bias=False)
            (2): ReLU(inplace=True)
            (3): Conv2d(32, 128, kernel_size=(1, 1), stride=(1, 1), bias=False)
          )
        )
        (1): Residual(
          (residual_block): Sequential(
            (0): ReLU(inplace=True)
            (1): Conv2d(128, 32, kernel_size=(3, 3), stride=(1, 1), padding=(1, 1), bias=False)
            (2): ReLU(inplace=True)
            (3): Conv2d(32, 128, kernel_size=(1, 1), stride=(1, 1), bias=False)
          )
        )
      )
    )
    (sequential_trans_convs): Sequential(
      (conv2d_1): ConvTranspose2d(128, 64, kernel_size=(4, 4), stride=(2, 2), padding=(1, 1))
      (ReLU_1): ReLU(inplace=True)
      (conv2d_2): ConvTranspose2d(64, 32, kernel_size=(4, 4), stride=(2, 2), padding=(1, 1))
      (ReLU_2): ReLU(inplace=True)
      (conv2d_3): ConvTranspose2d(32, 16, kernel_size=(4, 4), stride=(2, 2), padding=(1, 1))
      (ReLU_3): ReLU(inplace=True)
      (conv2d_4): ConvTranspose2d(16, 8, kernel_size=(4, 4), stride=(2, 2), padding=(1, 1))
      (ReLU_4): ReLU(inplace=True)
      (conv2d_5): ConvTranspose2d(8, 3, kernel_size=(4, 4), stride=(2, 2), padding=(1, 1))
    )
  )
)


 Total Trainable Params in thousands: 695 

                                                         Module Name  # of params in thousands  # of params [%]
0                           encoder.sequential_convs.conv2d_1.weight                         0             0.00
1                           encoder.sequential_convs.conv2d_2.weight                         2             0.29
…
Finished [05:45:06 09.01.2023] 404) Finished running for K = 64 & D = 32 & M = 1 & beta = 0.25 & max_channel_number = 128 (i.e. bits = 24) change_channel_size_across_layers = True:
Total training time is = 0:1:39 h/m/s. 

--------------------------------------------------- 

Started [05:45:06 09.01.2023] 405) Finished running for K = 64 & D = 16 & M = 1 & beta = 0.25 & max_channel_number = 128 (i.e. bits = 24) change_channel_size_across_layers = True:

--------------------------------------------------- 


 PyTorch print of the model:

VQ_VAE(
  (encoder): Encoder(
    (sequential_convs): Sequential(
      (conv2d_1): Conv2d(3, 8, kernel_size=(4, 4), stride=(2, 2), padding=(1, 1))
      (ReLU_1): ReLU(inplace=True)
      (conv2d_2): Conv2d(8, 16, kernel_size=(4, 4), stride=(2, 2), padding=(1, 1))
      (ReLU_2): ReLU(inplace=True)
      (conv2d_3): Conv2d(16, 32, kernel_size=(4, 4), stride=(2, 2), padding=(1, 1))
      (ReLU_3): ReLU(inplace=True)
      (conv2d_4): Conv2d(32, 64, kernel_size=(4, 4), stride=(2, 2), padding=(1, 1))
      (ReLU_4): ReLU(inplace=True)
      (conv2d_5): Conv2d(64, 128, kernel_size=(4, 4), stride=(2, 2), padding=(1, 1))
      (ReLU_5): ReLU(inplace=True)
    )
    (pre_residual_stack): Conv2d(128, 128, kernel_size=(3, 3), stride=(1, 1), padding=(1, 1))
    (residual_stack): ResidualStack(
      (residual_blocks): ModuleList(
        (0): Residual(
          (residual_block): Sequential(
            (0): ReLU(inplace=True)
            (1): Conv2d(128, 32, kernel_size=(3, 3), stride=(1, 1), padding=(1, 1), bias=False)
            (2): ReLU(inplace=True)
            (3): Conv2d(32, 128, kernel_size=(1, 1), stride=(1, 1), bias=False)
          )
        )
        (1): Residual(
          (residual_block): Sequential(
            (0): ReLU(inplace=True)
            (1): Conv2d(128, 32, kernel_size=(3, 3), stride=(1, 1), padding=(1, 1), bias=False)
            (2): ReLU(inplace=True)
            (3): Conv2d(32, 128, kernel_size=(1, 1), stride=(1, 1), bias=False)
          )
        )
      )
    )
    (channel_adjusting_conv): Conv2d(128, 16, kernel_size=(1, 1), stride=(1, 1))
  )
  (VQ): VectorQuantizer(
    (E): Embedding(64, 16)
  )
  (decoder): Decoder(
    (channel_adjusting_conv): Conv2d(16, 128, kernel_size=(3, 3), stride=(1, 1), padding=(1, 1))
    (residual_stack): ResidualStack(
      (residual_blocks): ModuleList(
        (0): Residual(
          (residual_block): Sequential(
            (0): ReLU(inplace=True)
            (1): Conv2d(128, 32, kernel_size=(3, 3), stride=(1, 1), padding=(1, 1), bias=False)
            (2): ReLU(inplace=True)
            (3): Conv2d(32, 128, kernel_size=(1, 1), stride=(1, 1), bias=False)
          )
        )
        (1): Residual(
          (residual_block): Sequential(
            (0): ReLU(inplace=True)
            (1): Conv2d(128, 32, kernel_size=(3, 3), stride=(1, 1), padding=(1, 1), bias=False)
            (2): ReLU(inplace=True)
            (3): Conv2d(32, 128, kernel_size=(1, 1), stride=(1, 1), bias=False)
          )
        )
      )
    )
    (sequential_trans_convs): Sequential(
      (conv2d_1): ConvTranspose2d(128, 64, kernel_size=(4, 4), stride=(2, 2), padding=(1, 1))
      (ReLU_1): ReLU(inplace=True)
      (conv2d_2): ConvTranspose2d(64, 32, kernel_size=(4, 4), stride=(2, 2), padding=(1, 1))
      (ReLU_2): ReLU(inplace=True)
      (conv2d_3): ConvTranspose2d(32, 16, kernel_size=(4, 4), stride=(2, 2), padding=(1, 1))
      (ReLU_3): ReLU(inplace=True)
      (conv2d_4): ConvTranspose2d(16, 8, kernel_size=(4, 4), stride=(2, 2), padding=(1, 1))
      (ReLU_4): ReLU(inplace=True)
      (conv2d_5): ConvTranspose2d(8, 3, kernel_size=(4, 4), stride=(2, 2), padding=(1, 1))
    )
  )
)


 Total Trainable Params in thousands: 674 

                                                         Module Name  # of params in thousands  # of params [%]
0                           encoder.sequential_convs.conv2d_1.weight                         0             0.00
1                           encoder.sequential_convs.conv2d_2.weight                         2             0.30
…
Finished [06:35:53 09.01.2023] 405) Finished running for K = 64 & D = 16 & M = 1 & beta = 0.25 & max_channel_number = 128 (i.e. bits = 24) change_channel_size_across_layers = True:
Total training time is = 0:1:46 h/m/s. 

--------------------------------------------------- 

Started [06:35:53 09.01.2023] 406) Finished running for K = 64 & D = 8 & M = 1 & beta = 0.25 & max_channel_number = 128 (i.e. bits = 24) change_channel_size_across_layers = True:

--------------------------------------------------- 


 PyTorch print of the model:

VQ_VAE(
  (encoder): Encoder(
    (sequential_convs): Sequential(
      (conv2d_1): Conv2d(3, 8, kernel_size=(4, 4), stride=(2, 2), padding=(1, 1))
      (ReLU_1): ReLU(inplace=True)
      (conv2d_2): Conv2d(8, 16, kernel_size=(4, 4), stride=(2, 2), padding=(1, 1))
      (ReLU_2): ReLU(inplace=True)
      (conv2d_3): Conv2d(16, 32, kernel_size=(4, 4), stride=(2, 2), padding=(1, 1))
      (ReLU_3): ReLU(inplace=True)
      (conv2d_4): Conv2d(32, 64, kernel_size=(4, 4), stride=(2, 2), padding=(1, 1))
      (ReLU_4): ReLU(inplace=True)
      (conv2d_5): Conv2d(64, 128, kernel_size=(4, 4), stride=(2, 2), padding=(1, 1))
      (ReLU_5): ReLU(inplace=True)
    )
    (pre_residual_stack): Conv2d(128, 128, kernel_size=(3, 3), stride=(1, 1), padding=(1, 1))
    (residual_stack): ResidualStack(
      (residual_blocks): ModuleList(
        (0): Residual(
          (residual_block): Sequential(
            (0): ReLU(inplace=True)
            (1): Conv2d(128, 32, kernel_size=(3, 3), stride=(1, 1), padding=(1, 1), bias=False)
            (2): ReLU(inplace=True)
            (3): Conv2d(32, 128, kernel_size=(1, 1), stride=(1, 1), bias=False)
          )
        )
        (1): Residual(
          (residual_block): Sequential(
            (0): ReLU(inplace=True)
            (1): Conv2d(128, 32, kernel_size=(3, 3), stride=(1, 1), padding=(1, 1), bias=False)
            (2): ReLU(inplace=True)
            (3): Conv2d(32, 128, kernel_size=(1, 1), stride=(1, 1), bias=False)
          )
        )
      )
    )
    (channel_adjusting_conv): Conv2d(128, 8, kernel_size=(1, 1), stride=(1, 1))
  )
  (VQ): VectorQuantizer(
    (E): Embedding(64, 8)
  )
  (decoder): Decoder(
    (channel_adjusting_conv): Conv2d(8, 128, kernel_size=(3, 3), stride=(1, 1), padding=(1, 1))
    (residual_stack): ResidualStack(
      (residual_blocks): ModuleList(
        (0): Residual(
          (residual_block): Sequential(
            (0): ReLU(inplace=True)
            (1): Conv2d(128, 32, kernel_size=(3, 3), stride=(1, 1), padding=(1, 1), bias=False)
            (2): ReLU(inplace=True)
            (3): Conv2d(32, 128, kernel_size=(1, 1), stride=(1, 1), bias=False)
          )
        )
        (1): Residual(
          (residual_block): Sequential(
            (0): ReLU(inplace=True)
            (1): Conv2d(128, 32, kernel_size=(3, 3), stride=(1, 1), padding=(1, 1), bias=False)
            (2): ReLU(inplace=True)
            (3): Conv2d(32, 128, kernel_size=(1, 1), stride=(1, 1), bias=False)
          )
        )
      )
    )
    (sequential_trans_convs): Sequential(
      (conv2d_1): ConvTranspose2d(128, 64, kernel_size=(4, 4), stride=(2, 2), padding=(1, 1))
      (ReLU_1): ReLU(inplace=True)
      (conv2d_2): ConvTranspose2d(64, 32, kernel_size=(4, 4), stride=(2, 2), padding=(1, 1))
      (ReLU_2): ReLU(inplace=True)
      (conv2d_3): ConvTranspose2d(32, 16, kernel_size=(4, 4), stride=(2, 2), padding=(1, 1))
      (ReLU_3): ReLU(inplace=True)
      (conv2d_4): ConvTranspose2d(16, 8, kernel_size=(4, 4), stride=(2, 2), padding=(1, 1))
      (ReLU_4): ReLU(inplace=True)
      (conv2d_5): ConvTranspose2d(8, 3, kernel_size=(4, 4), stride=(2, 2), padding=(1, 1))
    )
  )
)


 Total Trainable Params in thousands: 663 

                                                         Module Name  # of params in thousands  # of params [%]
0                           encoder.sequential_convs.conv2d_1.weight                         0             0.00
1                           encoder.sequential_convs.conv2d_2.weight                         2             0.30
…
Finished [07:26:36 09.01.2023] 406) Finished running for K = 64 & D = 8 & M = 1 & beta = 0.25 & max_channel_number = 128 (i.e. bits = 24) change_channel_size_across_layers = True:
Total training time is = 0:1:43 h/m/s. 

--------------------------------------------------- 

Started [07:26:36 09.01.2023] 407) Finished running for K = 32 & D = 32 & M = 3 & beta = 0.25 & max_channel_number = 128 (i.e. bits = 80) change_channel_size_across_layers = True:

--------------------------------------------------- 


 PyTorch print of the model:

VQ_VAE(
  (encoder): Encoder(
    (sequential_convs): Sequential(
      (conv2d_1): Conv2d(3, 16, kernel_size=(4, 4), stride=(2, 2), padding=(1, 1))
      (ReLU_1): ReLU(inplace=True)
      (conv2d_2): Conv2d(16, 32, kernel_size=(4, 4), stride=(2, 2), padding=(1, 1))
      (ReLU_2): ReLU(inplace=True)
      (conv2d_3): Conv2d(32, 64, kernel_size=(4, 4), stride=(2, 2), padding=(1, 1))
      (ReLU_3): ReLU(inplace=True)
      (conv2d_4): Conv2d(64, 128, kernel_size=(4, 4), stride=(2, 2), padding=(1, 1))
      (ReLU_4): ReLU(inplace=True)
    )
    (pre_residual_stack): Conv2d(128, 128, kernel_size=(3, 3), stride=(1, 1), padding=(1, 1))
    (residual_stack): ResidualStack(
      (residual_blocks): ModuleList(
        (0): Residual(
          (residual_block): Sequential(
            (0): ReLU(inplace=True)
            (1): Conv2d(128, 32, kernel_size=(3, 3), stride=(1, 1), padding=(1, 1), bias=False)
            (2): ReLU(inplace=True)
            (3): Conv2d(32, 128, kernel_size=(1, 1), stride=(1, 1), bias=False)
          )
        )
        (1): Residual(
          (residual_block): Sequential(
            (0): ReLU(inplace=True)
            (1): Conv2d(128, 32, kernel_size=(3, 3), stride=(1, 1), padding=(1, 1), bias=False)
            (2): ReLU(inplace=True)
            (3): Conv2d(32, 128, kernel_size=(1, 1), stride=(1, 1), bias=False)
          )
        )
      )
    )
    (channel_adjusting_conv): Conv2d(128, 32, kernel_size=(1, 1), stride=(1, 1))
  )
  (VQ): VectorQuantizer(
    (E): Embedding(32, 32)
  )
  (decoder): Decoder(
    (channel_adjusting_conv): Conv2d(32, 128, kernel_size=(3, 3), stride=(1, 1), padding=(1, 1))
    (residual_stack): ResidualStack(
      (residual_blocks): ModuleList(
        (0): Residual(
          (residual_block): Sequential(
            (0): ReLU(inplace=True)
            (1): Conv2d(128, 32, kernel_size=(3, 3), stride=(1, 1), padding=(1, 1), bias=False)
            (2): ReLU(inplace=True)
            (3): Conv2d(32, 128, kernel_size=(1, 1), stride=(1, 1), bias=False)
          )
        )
        (1): Residual(
          (residual_block): Sequential(
            (0): ReLU(inplace=True)
            (1): Conv2d(128, 32, kernel_size=(3, 3), stride=(1, 1), padding=(1, 1), bias=False)
            (2): ReLU(inplace=True)
            (3): Conv2d(32, 128, kernel_size=(1, 1), stride=(1, 1), bias=False)
          )
        )
      )
    )
    (sequential_trans_convs): Sequential(
      (conv2d_1): ConvTranspose2d(128, 64, kernel_size=(4, 4), stride=(2, 2), padding=(1, 1))
      (ReLU_1): ReLU(inplace=True)
      (conv2d_2): ConvTranspose2d(64, 32, kernel_size=(4, 4), stride=(2, 2), padding=(1, 1))
      (ReLU_2): ReLU(inplace=True)
      (conv2d_3): ConvTranspose2d(32, 16, kernel_size=(4, 4), stride=(2, 2), padding=(1, 1))
      (ReLU_3): ReLU(inplace=True)
      (conv2d_4): ConvTranspose2d(16, 3, kernel_size=(4, 4), stride=(2, 2), padding=(1, 1))
    )
  )
)


 Total Trainable Params in thousands: 690 

                                                         Module Name  # of params in thousands  # of params [%]
0                           encoder.sequential_convs.conv2d_1.weight                         0             0.00
1                           encoder.sequential_convs.conv2d_2.weight                         8             1.16
…
Finished [08:14:51 09.01.2023] 407) Finished running for K = 32 & D = 32 & M = 3 & beta = 0.25 & max_channel_number = 128 (i.e. bits = 80) change_channel_size_across_layers = True:
Total training time is = 0:3:15 h/m/s. 

--------------------------------------------------- 

Started [08:14:51 09.01.2023] 408) Finished running for K = 32 & D = 16 & M = 3 & beta = 0.25 & max_channel_number = 128 (i.e. bits = 80) change_channel_size_across_layers = True:

--------------------------------------------------- 


 PyTorch print of the model:

VQ_VAE(
  (encoder): Encoder(
    (sequential_convs): Sequential(
      (conv2d_1): Conv2d(3, 16, kernel_size=(4, 4), stride=(2, 2), padding=(1, 1))
      (ReLU_1): ReLU(inplace=True)
      (conv2d_2): Conv2d(16, 32, kernel_size=(4, 4), stride=(2, 2), padding=(1, 1))
      (ReLU_2): ReLU(inplace=True)
      (conv2d_3): Conv2d(32, 64, kernel_size=(4, 4), stride=(2, 2), padding=(1, 1))
      (ReLU_3): ReLU(inplace=True)
      (conv2d_4): Conv2d(64, 128, kernel_size=(4, 4), stride=(2, 2), padding=(1, 1))
      (ReLU_4): ReLU(inplace=True)
    )
    (pre_residual_stack): Conv2d(128, 128, kernel_size=(3, 3), stride=(1, 1), padding=(1, 1))
    (residual_stack): ResidualStack(
      (residual_blocks): ModuleList(
        (0): Residual(
          (residual_block): Sequential(
            (0): ReLU(inplace=True)
            (1): Conv2d(128, 32, kernel_size=(3, 3), stride=(1, 1), padding=(1, 1), bias=False)
            (2): ReLU(inplace=True)
            (3): Conv2d(32, 128, kernel_size=(1, 1), stride=(1, 1), bias=False)
          )
        )
        (1): Residual(
          (residual_block): Sequential(
            (0): ReLU(inplace=True)
            (1): Conv2d(128, 32, kernel_size=(3, 3), stride=(1, 1), padding=(1, 1), bias=False)
            (2): ReLU(inplace=True)
            (3): Conv2d(32, 128, kernel_size=(1, 1), stride=(1, 1), bias=False)
          )
        )
      )
    )
    (channel_adjusting_conv): Conv2d(128, 16, kernel_size=(1, 1), stride=(1, 1))
  )
  (VQ): VectorQuantizer(
    (E): Embedding(32, 16)
  )
  (decoder): Decoder(
    (channel_adjusting_conv): Conv2d(16, 128, kernel_size=(3, 3), stride=(1, 1), padding=(1, 1))
    (residual_stack): ResidualStack(
      (residual_blocks): ModuleList(
        (0): Residual(
          (residual_block): Sequential(
            (0): ReLU(inplace=True)
            (1): Conv2d(128, 32, kernel_size=(3, 3), stride=(1, 1), padding=(1, 1), bias=False)
            (2): ReLU(inplace=True)
            (3): Conv2d(32, 128, kernel_size=(1, 1), stride=(1, 1), bias=False)
          )
        )
        (1): Residual(
          (residual_block): Sequential(
            (0): ReLU(inplace=True)
            (1): Conv2d(128, 32, kernel_size=(3, 3), stride=(1, 1), padding=(1, 1), bias=False)
            (2): ReLU(inplace=True)
            (3): Conv2d(32, 128, kernel_size=(1, 1), stride=(1, 1), bias=False)
          )
        )
      )
    )
    (sequential_trans_convs): Sequential(
      (conv2d_1): ConvTranspose2d(128, 64, kernel_size=(4, 4), stride=(2, 2), padding=(1, 1))
      (ReLU_1): ReLU(inplace=True)
      (conv2d_2): ConvTranspose2d(64, 32, kernel_size=(4, 4), stride=(2, 2), padding=(1, 1))
      (ReLU_2): ReLU(inplace=True)
      (conv2d_3): ConvTranspose2d(32, 16, kernel_size=(4, 4), stride=(2, 2), padding=(1, 1))
      (ReLU_3): ReLU(inplace=True)
      (conv2d_4): ConvTranspose2d(16, 3, kernel_size=(4, 4), stride=(2, 2), padding=(1, 1))
    )
  )
)


 Total Trainable Params in thousands: 669 

                                                         Module Name  # of params in thousands  # of params [%]
0                           encoder.sequential_convs.conv2d_1.weight                         0             0.00
1                           encoder.sequential_convs.conv2d_2.weight                         8             1.20
…
Finished [09:02:48 09.01.2023] 408) Finished running for K = 32 & D = 16 & M = 3 & beta = 0.25 & max_channel_number = 128 (i.e. bits = 80) change_channel_size_across_layers = True:
Total training time is = 0:3:56 h/m/s. 

--------------------------------------------------- 

Started [09:02:48 09.01.2023] 409) Finished running for K = 32 & D = 8 & M = 3 & beta = 0.25 & max_channel_number = 128 (i.e. bits = 80) change_channel_size_across_layers = True:

--------------------------------------------------- 


 PyTorch print of the model:

VQ_VAE(
  (encoder): Encoder(
    (sequential_convs): Sequential(
      (conv2d_1): Conv2d(3, 16, kernel_size=(4, 4), stride=(2, 2), padding=(1, 1))
      (ReLU_1): ReLU(inplace=True)
      (conv2d_2): Conv2d(16, 32, kernel_size=(4, 4), stride=(2, 2), padding=(1, 1))
      (ReLU_2): ReLU(inplace=True)
      (conv2d_3): Conv2d(32, 64, kernel_size=(4, 4), stride=(2, 2), padding=(1, 1))
      (ReLU_3): ReLU(inplace=True)
      (conv2d_4): Conv2d(64, 128, kernel_size=(4, 4), stride=(2, 2), padding=(1, 1))
      (ReLU_4): ReLU(inplace=True)
    )
    (pre_residual_stack): Conv2d(128, 128, kernel_size=(3, 3), stride=(1, 1), padding=(1, 1))
    (residual_stack): ResidualStack(
      (residual_blocks): ModuleList(
        (0): Residual(
          (residual_block): Sequential(
            (0): ReLU(inplace=True)
            (1): Conv2d(128, 32, kernel_size=(3, 3), stride=(1, 1), padding=(1, 1), bias=False)
            (2): ReLU(inplace=True)
            (3): Conv2d(32, 128, kernel_size=(1, 1), stride=(1, 1), bias=False)
          )
        )
        (1): Residual(
          (residual_block): Sequential(
            (0): ReLU(inplace=True)
            (1): Conv2d(128, 32, kernel_size=(3, 3), stride=(1, 1), padding=(1, 1), bias=False)
            (2): ReLU(inplace=True)
            (3): Conv2d(32, 128, kernel_size=(1, 1), stride=(1, 1), bias=False)
          )
        )
      )
    )
    (channel_adjusting_conv): Conv2d(128, 8, kernel_size=(1, 1), stride=(1, 1))
  )
  (VQ): VectorQuantizer(
    (E): Embedding(32, 8)
  )
  (decoder): Decoder(
    (channel_adjusting_conv): Conv2d(8, 128, kernel_size=(3, 3), stride=(1, 1), padding=(1, 1))
    (residual_stack): ResidualStack(
      (residual_blocks): ModuleList(
        (0): Residual(
          (residual_block): Sequential(
            (0): ReLU(inplace=True)
            (1): Conv2d(128, 32, kernel_size=(3, 3), stride=(1, 1), padding=(1, 1), bias=False)
            (2): ReLU(inplace=True)
            (3): Conv2d(32, 128, kernel_size=(1, 1), stride=(1, 1), bias=False)
          )
        )
        (1): Residual(
          (residual_block): Sequential(
            (0): ReLU(inplace=True)
            (1): Conv2d(128, 32, kernel_size=(3, 3), stride=(1, 1), padding=(1, 1), bias=False)
            (2): ReLU(inplace=True)
            (3): Conv2d(32, 128, kernel_size=(1, 1), stride=(1, 1), bias=False)
          )
        )
      )
    )
    (sequential_trans_convs): Sequential(
      (conv2d_1): ConvTranspose2d(128, 64, kernel_size=(4, 4), stride=(2, 2), padding=(1, 1))
      (ReLU_1): ReLU(inplace=True)
      (conv2d_2): ConvTranspose2d(64, 32, kernel_size=(4, 4), stride=(2, 2), padding=(1, 1))
      (ReLU_2): ReLU(inplace=True)
      (conv2d_3): ConvTranspose2d(32, 16, kernel_size=(4, 4), stride=(2, 2), padding=(1, 1))
      (ReLU_3): ReLU(inplace=True)
      (conv2d_4): ConvTranspose2d(16, 3, kernel_size=(4, 4), stride=(2, 2), padding=(1, 1))
    )
  )
)


 Total Trainable Params in thousands: 659 

                                                         Module Name  # of params in thousands  # of params [%]
0                           encoder.sequential_convs.conv2d_1.weight                         0             0.00
1                           encoder.sequential_convs.conv2d_2.weight                         8             1.21
…
Finished [09:50:40 09.01.2023] 409) Finished running for K = 32 & D = 8 & M = 3 & beta = 0.25 & max_channel_number = 128 (i.e. bits = 80) change_channel_size_across_layers = True:
Total training time is = 0:3:52 h/m/s. 

--------------------------------------------------- 

Started [09:50:40 09.01.2023] 410) Finished running for K = 32 & D = 32 & M = 1 & beta = 0.25 & max_channel_number = 128 (i.e. bits = 20) change_channel_size_across_layers = True:

--------------------------------------------------- 


 PyTorch print of the model:

VQ_VAE(
  (encoder): Encoder(
    (sequential_convs): Sequential(
      (conv2d_1): Conv2d(3, 8, kernel_size=(4, 4), stride=(2, 2), padding=(1, 1))
      (ReLU_1): ReLU(inplace=True)
      (conv2d_2): Conv2d(8, 16, kernel_size=(4, 4), stride=(2, 2), padding=(1, 1))
      (ReLU_2): ReLU(inplace=True)
      (conv2d_3): Conv2d(16, 32, kernel_size=(4, 4), stride=(2, 2), padding=(1, 1))
      (ReLU_3): ReLU(inplace=True)
      (conv2d_4): Conv2d(32, 64, kernel_size=(4, 4), stride=(2, 2), padding=(1, 1))
      (ReLU_4): ReLU(inplace=True)
      (conv2d_5): Conv2d(64, 128, kernel_size=(4, 4), stride=(2, 2), padding=(1, 1))
      (ReLU_5): ReLU(inplace=True)
    )
    (pre_residual_stack): Conv2d(128, 128, kernel_size=(3, 3), stride=(1, 1), padding=(1, 1))
    (residual_stack): ResidualStack(
      (residual_blocks): ModuleList(
        (0): Residual(
          (residual_block): Sequential(
            (0): ReLU(inplace=True)
            (1): Conv2d(128, 32, kernel_size=(3, 3), stride=(1, 1), padding=(1, 1), bias=False)
            (2): ReLU(inplace=True)
            (3): Conv2d(32, 128, kernel_size=(1, 1), stride=(1, 1), bias=False)
          )
        )
        (1): Residual(
          (residual_block): Sequential(
            (0): ReLU(inplace=True)
            (1): Conv2d(128, 32, kernel_size=(3, 3), stride=(1, 1), padding=(1, 1), bias=False)
            (2): ReLU(inplace=True)
            (3): Conv2d(32, 128, kernel_size=(1, 1), stride=(1, 1), bias=False)
          )
        )
      )
    )
    (channel_adjusting_conv): Conv2d(128, 32, kernel_size=(1, 1), stride=(1, 1))
  )
  (VQ): VectorQuantizer(
    (E): Embedding(32, 32)
  )
  (decoder): Decoder(
    (channel_adjusting_conv): Conv2d(32, 128, kernel_size=(3, 3), stride=(1, 1), padding=(1, 1))
    (residual_stack): ResidualStack(
      (residual_blocks): ModuleList(
        (0): Residual(
          (residual_block): Sequential(
            (0): ReLU(inplace=True)
            (1): Conv2d(128, 32, kernel_size=(3, 3), stride=(1, 1), padding=(1, 1), bias=False)
            (2): ReLU(inplace=True)
            (3): Conv2d(32, 128, kernel_size=(1, 1), stride=(1, 1), bias=False)
          )
        )
        (1): Residual(
          (residual_block): Sequential(
            (0): ReLU(inplace=True)
            (1): Conv2d(128, 32, kernel_size=(3, 3), stride=(1, 1), padding=(1, 1), bias=False)
            (2): ReLU(inplace=True)
            (3): Conv2d(32, 128, kernel_size=(1, 1), stride=(1, 1), bias=False)
          )
        )
      )
    )
    (sequential_trans_convs): Sequential(
      (conv2d_1): ConvTranspose2d(128, 64, kernel_size=(4, 4), stride=(2, 2), padding=(1, 1))
      (ReLU_1): ReLU(inplace=True)
      (conv2d_2): ConvTranspose2d(64, 32, kernel_size=(4, 4), stride=(2, 2), padding=(1, 1))
      (ReLU_2): ReLU(inplace=True)
      (conv2d_3): ConvTranspose2d(32, 16, kernel_size=(4, 4), stride=(2, 2), padding=(1, 1))
      (ReLU_3): ReLU(inplace=True)
      (conv2d_4): ConvTranspose2d(16, 8, kernel_size=(4, 4), stride=(2, 2), padding=(1, 1))
      (ReLU_4): ReLU(inplace=True)
      (conv2d_5): ConvTranspose2d(8, 3, kernel_size=(4, 4), stride=(2, 2), padding=(1, 1))
    )
  )
)


 Total Trainable Params in thousands: 694 

                                                         Module Name  # of params in thousands  # of params [%]
0                           encoder.sequential_convs.conv2d_1.weight                         0             0.00
1                           encoder.sequential_convs.conv2d_2.weight                         2             0.29
…
Finished [10:41:34 09.01.2023] 410) Finished running for K = 32 & D = 32 & M = 1 & beta = 0.25 & max_channel_number = 128 (i.e. bits = 20) change_channel_size_across_layers = True:
Total training time is = 0:1:53 h/m/s. 

--------------------------------------------------- 

Started [10:41:34 09.01.2023] 411) Finished running for K = 32 & D = 16 & M = 1 & beta = 0.25 & max_channel_number = 128 (i.e. bits = 20) change_channel_size_across_layers = True:

--------------------------------------------------- 


 PyTorch print of the model:

VQ_VAE(
  (encoder): Encoder(
    (sequential_convs): Sequential(
      (conv2d_1): Conv2d(3, 8, kernel_size=(4, 4), stride=(2, 2), padding=(1, 1))
      (ReLU_1): ReLU(inplace=True)
      (conv2d_2): Conv2d(8, 16, kernel_size=(4, 4), stride=(2, 2), padding=(1, 1))
      (ReLU_2): ReLU(inplace=True)
      (conv2d_3): Conv2d(16, 32, kernel_size=(4, 4), stride=(2, 2), padding=(1, 1))
      (ReLU_3): ReLU(inplace=True)
      (conv2d_4): Conv2d(32, 64, kernel_size=(4, 4), stride=(2, 2), padding=(1, 1))
      (ReLU_4): ReLU(inplace=True)
      (conv2d_5): Conv2d(64, 128, kernel_size=(4, 4), stride=(2, 2), padding=(1, 1))
      (ReLU_5): ReLU(inplace=True)
    )
    (pre_residual_stack): Conv2d(128, 128, kernel_size=(3, 3), stride=(1, 1), padding=(1, 1))
    (residual_stack): ResidualStack(
      (residual_blocks): ModuleList(
        (0): Residual(
          (residual_block): Sequential(
            (0): ReLU(inplace=True)
            (1): Conv2d(128, 32, kernel_size=(3, 3), stride=(1, 1), padding=(1, 1), bias=False)
            (2): ReLU(inplace=True)
            (3): Conv2d(32, 128, kernel_size=(1, 1), stride=(1, 1), bias=False)
          )
        )
        (1): Residual(
          (residual_block): Sequential(
            (0): ReLU(inplace=True)
            (1): Conv2d(128, 32, kernel_size=(3, 3), stride=(1, 1), padding=(1, 1), bias=False)
            (2): ReLU(inplace=True)
            (3): Conv2d(32, 128, kernel_size=(1, 1), stride=(1, 1), bias=False)
          )
        )
      )
    )
    (channel_adjusting_conv): Conv2d(128, 16, kernel_size=(1, 1), stride=(1, 1))
  )
  (VQ): VectorQuantizer(
    (E): Embedding(32, 16)
  )
  (decoder): Decoder(
    (channel_adjusting_conv): Conv2d(16, 128, kernel_size=(3, 3), stride=(1, 1), padding=(1, 1))
    (residual_stack): ResidualStack(
      (residual_blocks): ModuleList(
        (0): Residual(
          (residual_block): Sequential(
            (0): ReLU(inplace=True)
            (1): Conv2d(128, 32, kernel_size=(3, 3), stride=(1, 1), padding=(1, 1), bias=False)
            (2): ReLU(inplace=True)
            (3): Conv2d(32, 128, kernel_size=(1, 1), stride=(1, 1), bias=False)
          )
        )
        (1): Residual(
          (residual_block): Sequential(
            (0): ReLU(inplace=True)
            (1): Conv2d(128, 32, kernel_size=(3, 3), stride=(1, 1), padding=(1, 1), bias=False)
            (2): ReLU(inplace=True)
            (3): Conv2d(32, 128, kernel_size=(1, 1), stride=(1, 1), bias=False)
          )
        )
      )
    )
    (sequential_trans_convs): Sequential(
      (conv2d_1): ConvTranspose2d(128, 64, kernel_size=(4, 4), stride=(2, 2), padding=(1, 1))
      (ReLU_1): ReLU(inplace=True)
      (conv2d_2): ConvTranspose2d(64, 32, kernel_size=(4, 4), stride=(2, 2), padding=(1, 1))
      (ReLU_2): ReLU(inplace=True)
      (conv2d_3): ConvTranspose2d(32, 16, kernel_size=(4, 4), stride=(2, 2), padding=(1, 1))
      (ReLU_3): ReLU(inplace=True)
      (conv2d_4): ConvTranspose2d(16, 8, kernel_size=(4, 4), stride=(2, 2), padding=(1, 1))
      (ReLU_4): ReLU(inplace=True)
      (conv2d_5): ConvTranspose2d(8, 3, kernel_size=(4, 4), stride=(2, 2), padding=(1, 1))
    )
  )
)


 Total Trainable Params in thousands: 673 

                                                         Module Name  # of params in thousands  # of params [%]
0                           encoder.sequential_convs.conv2d_1.weight                         0             0.00
1                           encoder.sequential_convs.conv2d_2.weight                         2             0.30
…
Finished [11:32:32 09.01.2023] 411) Finished running for K = 32 & D = 16 & M = 1 & beta = 0.25 & max_channel_number = 128 (i.e. bits = 20) change_channel_size_across_layers = True:
Total training time is = 0:1:57 h/m/s. 

--------------------------------------------------- 

Started [11:32:32 09.01.2023] 412) Finished running for K = 32 & D = 8 & M = 1 & beta = 0.25 & max_channel_number = 128 (i.e. bits = 20) change_channel_size_across_layers = True:

--------------------------------------------------- 


 PyTorch print of the model:

VQ_VAE(
  (encoder): Encoder(
    (sequential_convs): Sequential(
      (conv2d_1): Conv2d(3, 8, kernel_size=(4, 4), stride=(2, 2), padding=(1, 1))
      (ReLU_1): ReLU(inplace=True)
      (conv2d_2): Conv2d(8, 16, kernel_size=(4, 4), stride=(2, 2), padding=(1, 1))
      (ReLU_2): ReLU(inplace=True)
      (conv2d_3): Conv2d(16, 32, kernel_size=(4, 4), stride=(2, 2), padding=(1, 1))
      (ReLU_3): ReLU(inplace=True)
      (conv2d_4): Conv2d(32, 64, kernel_size=(4, 4), stride=(2, 2), padding=(1, 1))
      (ReLU_4): ReLU(inplace=True)
      (conv2d_5): Conv2d(64, 128, kernel_size=(4, 4), stride=(2, 2), padding=(1, 1))
      (ReLU_5): ReLU(inplace=True)
    )
    (pre_residual_stack): Conv2d(128, 128, kernel_size=(3, 3), stride=(1, 1), padding=(1, 1))
    (residual_stack): ResidualStack(
      (residual_blocks): ModuleList(
        (0): Residual(
          (residual_block): Sequential(
            (0): ReLU(inplace=True)
            (1): Conv2d(128, 32, kernel_size=(3, 3), stride=(1, 1), padding=(1, 1), bias=False)
            (2): ReLU(inplace=True)
            (3): Conv2d(32, 128, kernel_size=(1, 1), stride=(1, 1), bias=False)
          )
        )
        (1): Residual(
          (residual_block): Sequential(
            (0): ReLU(inplace=True)
            (1): Conv2d(128, 32, kernel_size=(3, 3), stride=(1, 1), padding=(1, 1), bias=False)
            (2): ReLU(inplace=True)
            (3): Conv2d(32, 128, kernel_size=(1, 1), stride=(1, 1), bias=False)
          )
        )
      )
    )
    (channel_adjusting_conv): Conv2d(128, 8, kernel_size=(1, 1), stride=(1, 1))
  )
  (VQ): VectorQuantizer(
    (E): Embedding(32, 8)
  )
  (decoder): Decoder(
    (channel_adjusting_conv): Conv2d(8, 128, kernel_size=(3, 3), stride=(1, 1), padding=(1, 1))
    (residual_stack): ResidualStack(
      (residual_blocks): ModuleList(
        (0): Residual(
          (residual_block): Sequential(
            (0): ReLU(inplace=True)
            (1): Conv2d(128, 32, kernel_size=(3, 3), stride=(1, 1), padding=(1, 1), bias=False)
            (2): ReLU(inplace=True)
            (3): Conv2d(32, 128, kernel_size=(1, 1), stride=(1, 1), bias=False)
          )
        )
        (1): Residual(
          (residual_block): Sequential(
            (0): ReLU(inplace=True)
            (1): Conv2d(128, 32, kernel_size=(3, 3), stride=(1, 1), padding=(1, 1), bias=False)
            (2): ReLU(inplace=True)
            (3): Conv2d(32, 128, kernel_size=(1, 1), stride=(1, 1), bias=False)
          )
        )
      )
    )
    (sequential_trans_convs): Sequential(
      (conv2d_1): ConvTranspose2d(128, 64, kernel_size=(4, 4), stride=(2, 2), padding=(1, 1))
      (ReLU_1): ReLU(inplace=True)
      (conv2d_2): ConvTranspose2d(64, 32, kernel_size=(4, 4), stride=(2, 2), padding=(1, 1))
      (ReLU_2): ReLU(inplace=True)
      (conv2d_3): ConvTranspose2d(32, 16, kernel_size=(4, 4), stride=(2, 2), padding=(1, 1))
      (ReLU_3): ReLU(inplace=True)
      (conv2d_4): ConvTranspose2d(16, 8, kernel_size=(4, 4), stride=(2, 2), padding=(1, 1))
      (ReLU_4): ReLU(inplace=True)
      (conv2d_5): ConvTranspose2d(8, 3, kernel_size=(4, 4), stride=(2, 2), padding=(1, 1))
    )
  )
)


 Total Trainable Params in thousands: 663 

                                                         Module Name  # of params in thousands  # of params [%]
0                           encoder.sequential_convs.conv2d_1.weight                         0             0.00
1                           encoder.sequential_convs.conv2d_2.weight                         2             0.30
…
Finished [12:23:32 09.01.2023] 412) Finished running for K = 32 & D = 8 & M = 1 & beta = 0.25 & max_channel_number = 128 (i.e. bits = 20) change_channel_size_across_layers = True:
Total training time is = 0:1:59 h/m/s. 

--------------------------------------------------- 

Started [12:23:32 09.01.2023] 413) Finished running for K = 16 & D = 32 & M = 3 & beta = 0.25 & max_channel_number = 128 (i.e. bits = 64) change_channel_size_across_layers = True:

--------------------------------------------------- 


 PyTorch print of the model:

VQ_VAE(
  (encoder): Encoder(
    (sequential_convs): Sequential(
      (conv2d_1): Conv2d(3, 16, kernel_size=(4, 4), stride=(2, 2), padding=(1, 1))
      (ReLU_1): ReLU(inplace=True)
      (conv2d_2): Conv2d(16, 32, kernel_size=(4, 4), stride=(2, 2), padding=(1, 1))
      (ReLU_2): ReLU(inplace=True)
      (conv2d_3): Conv2d(32, 64, kernel_size=(4, 4), stride=(2, 2), padding=(1, 1))
      (ReLU_3): ReLU(inplace=True)
      (conv2d_4): Conv2d(64, 128, kernel_size=(4, 4), stride=(2, 2), padding=(1, 1))
      (ReLU_4): ReLU(inplace=True)
    )
    (pre_residual_stack): Conv2d(128, 128, kernel_size=(3, 3), stride=(1, 1), padding=(1, 1))
    (residual_stack): ResidualStack(
      (residual_blocks): ModuleList(
        (0): Residual(
          (residual_block): Sequential(
            (0): ReLU(inplace=True)
            (1): Conv2d(128, 32, kernel_size=(3, 3), stride=(1, 1), padding=(1, 1), bias=False)
            (2): ReLU(inplace=True)
            (3): Conv2d(32, 128, kernel_size=(1, 1), stride=(1, 1), bias=False)
          )
        )
        (1): Residual(
          (residual_block): Sequential(
            (0): ReLU(inplace=True)
            (1): Conv2d(128, 32, kernel_size=(3, 3), stride=(1, 1), padding=(1, 1), bias=False)
            (2): ReLU(inplace=True)
            (3): Conv2d(32, 128, kernel_size=(1, 1), stride=(1, 1), bias=False)
          )
        )
      )
    )
    (channel_adjusting_conv): Conv2d(128, 32, kernel_size=(1, 1), stride=(1, 1))
  )
  (VQ): VectorQuantizer(
    (E): Embedding(16, 32)
  )
  (decoder): Decoder(
    (channel_adjusting_conv): Conv2d(32, 128, kernel_size=(3, 3), stride=(1, 1), padding=(1, 1))
    (residual_stack): ResidualStack(
      (residual_blocks): ModuleList(
        (0): Residual(
          (residual_block): Sequential(
            (0): ReLU(inplace=True)
            (1): Conv2d(128, 32, kernel_size=(3, 3), stride=(1, 1), padding=(1, 1), bias=False)
            (2): ReLU(inplace=True)
            (3): Conv2d(32, 128, kernel_size=(1, 1), stride=(1, 1), bias=False)
          )
        )
        (1): Residual(
          (residual_block): Sequential(
            (0): ReLU(inplace=True)
            (1): Conv2d(128, 32, kernel_size=(3, 3), stride=(1, 1), padding=(1, 1), bias=False)
            (2): ReLU(inplace=True)
            (3): Conv2d(32, 128, kernel_size=(1, 1), stride=(1, 1), bias=False)
          )
        )
      )
    )
    (sequential_trans_convs): Sequential(
      (conv2d_1): ConvTranspose2d(128, 64, kernel_size=(4, 4), stride=(2, 2), padding=(1, 1))
      (ReLU_1): ReLU(inplace=True)
      (conv2d_2): ConvTranspose2d(64, 32, kernel_size=(4, 4), stride=(2, 2), padding=(1, 1))
      (ReLU_2): ReLU(inplace=True)
      (conv2d_3): ConvTranspose2d(32, 16, kernel_size=(4, 4), stride=(2, 2), padding=(1, 1))
      (ReLU_3): ReLU(inplace=True)
      (conv2d_4): ConvTranspose2d(16, 3, kernel_size=(4, 4), stride=(2, 2), padding=(1, 1))
    )
  )
)


 Total Trainable Params in thousands: 689 

                                                         Module Name  # of params in thousands  # of params [%]
0                           encoder.sequential_convs.conv2d_1.weight                         0             0.00
1                           encoder.sequential_convs.conv2d_2.weight                         8             1.16
…
Finished [13:11:36 09.01.2023] 413) Finished running for K = 16 & D = 32 & M = 3 & beta = 0.25 & max_channel_number = 128 (i.e. bits = 64) change_channel_size_across_layers = True:
Total training time is = 0:3:4 h/m/s. 

--------------------------------------------------- 

Started [13:11:36 09.01.2023] 414) Finished running for K = 16 & D = 16 & M = 3 & beta = 0.25 & max_channel_number = 128 (i.e. bits = 64) change_channel_size_across_layers = True:

--------------------------------------------------- 


 PyTorch print of the model:

VQ_VAE(
  (encoder): Encoder(
    (sequential_convs): Sequential(
      (conv2d_1): Conv2d(3, 16, kernel_size=(4, 4), stride=(2, 2), padding=(1, 1))
      (ReLU_1): ReLU(inplace=True)
      (conv2d_2): Conv2d(16, 32, kernel_size=(4, 4), stride=(2, 2), padding=(1, 1))
      (ReLU_2): ReLU(inplace=True)
      (conv2d_3): Conv2d(32, 64, kernel_size=(4, 4), stride=(2, 2), padding=(1, 1))
      (ReLU_3): ReLU(inplace=True)
      (conv2d_4): Conv2d(64, 128, kernel_size=(4, 4), stride=(2, 2), padding=(1, 1))
      (ReLU_4): ReLU(inplace=True)
    )
    (pre_residual_stack): Conv2d(128, 128, kernel_size=(3, 3), stride=(1, 1), padding=(1, 1))
    (residual_stack): ResidualStack(
      (residual_blocks): ModuleList(
        (0): Residual(
          (residual_block): Sequential(
            (0): ReLU(inplace=True)
            (1): Conv2d(128, 32, kernel_size=(3, 3), stride=(1, 1), padding=(1, 1), bias=False)
            (2): ReLU(inplace=True)
            (3): Conv2d(32, 128, kernel_size=(1, 1), stride=(1, 1), bias=False)
          )
        )
        (1): Residual(
          (residual_block): Sequential(
            (0): ReLU(inplace=True)
            (1): Conv2d(128, 32, kernel_size=(3, 3), stride=(1, 1), padding=(1, 1), bias=False)
            (2): ReLU(inplace=True)
            (3): Conv2d(32, 128, kernel_size=(1, 1), stride=(1, 1), bias=False)
          )
        )
      )
    )
    (channel_adjusting_conv): Conv2d(128, 16, kernel_size=(1, 1), stride=(1, 1))
  )
  (VQ): VectorQuantizer(
    (E): Embedding(16, 16)
  )
  (decoder): Decoder(
    (channel_adjusting_conv): Conv2d(16, 128, kernel_size=(3, 3), stride=(1, 1), padding=(1, 1))
    (residual_stack): ResidualStack(
      (residual_blocks): ModuleList(
        (0): Residual(
          (residual_block): Sequential(
            (0): ReLU(inplace=True)
            (1): Conv2d(128, 32, kernel_size=(3, 3), stride=(1, 1), padding=(1, 1), bias=False)
            (2): ReLU(inplace=True)
            (3): Conv2d(32, 128, kernel_size=(1, 1), stride=(1, 1), bias=False)
          )
        )
        (1): Residual(
          (residual_block): Sequential(
            (0): ReLU(inplace=True)
            (1): Conv2d(128, 32, kernel_size=(3, 3), stride=(1, 1), padding=(1, 1), bias=False)
            (2): ReLU(inplace=True)
            (3): Conv2d(32, 128, kernel_size=(1, 1), stride=(1, 1), bias=False)
          )
        )
      )
    )
    (sequential_trans_convs): Sequential(
      (conv2d_1): ConvTranspose2d(128, 64, kernel_size=(4, 4), stride=(2, 2), padding=(1, 1))
      (ReLU_1): ReLU(inplace=True)
      (conv2d_2): ConvTranspose2d(64, 32, kernel_size=(4, 4), stride=(2, 2), padding=(1, 1))
      (ReLU_2): ReLU(inplace=True)
      (conv2d_3): ConvTranspose2d(32, 16, kernel_size=(4, 4), stride=(2, 2), padding=(1, 1))
      (ReLU_3): ReLU(inplace=True)
      (conv2d_4): ConvTranspose2d(16, 3, kernel_size=(4, 4), stride=(2, 2), padding=(1, 1))
    )
  )
)


 Total Trainable Params in thousands: 669 

                                                         Module Name  # of params in thousands  # of params [%]
0                           encoder.sequential_convs.conv2d_1.weight                         0             0.00
1                           encoder.sequential_convs.conv2d_2.weight                         8             1.20
…
Finished [13:59:30 09.01.2023] 414) Finished running for K = 16 & D = 16 & M = 3 & beta = 0.25 & max_channel_number = 128 (i.e. bits = 64) change_channel_size_across_layers = True:
Total training time is = 0:3:53 h/m/s. 

--------------------------------------------------- 

Started [13:59:30 09.01.2023] 415) Finished running for K = 16 & D = 8 & M = 3 & beta = 0.25 & max_channel_number = 128 (i.e. bits = 64) change_channel_size_across_layers = True:

--------------------------------------------------- 


 PyTorch print of the model:

VQ_VAE(
  (encoder): Encoder(
    (sequential_convs): Sequential(
      (conv2d_1): Conv2d(3, 16, kernel_size=(4, 4), stride=(2, 2), padding=(1, 1))
      (ReLU_1): ReLU(inplace=True)
      (conv2d_2): Conv2d(16, 32, kernel_size=(4, 4), stride=(2, 2), padding=(1, 1))
      (ReLU_2): ReLU(inplace=True)
      (conv2d_3): Conv2d(32, 64, kernel_size=(4, 4), stride=(2, 2), padding=(1, 1))
      (ReLU_3): ReLU(inplace=True)
      (conv2d_4): Conv2d(64, 128, kernel_size=(4, 4), stride=(2, 2), padding=(1, 1))
      (ReLU_4): ReLU(inplace=True)
    )
    (pre_residual_stack): Conv2d(128, 128, kernel_size=(3, 3), stride=(1, 1), padding=(1, 1))
    (residual_stack): ResidualStack(
      (residual_blocks): ModuleList(
        (0): Residual(
          (residual_block): Sequential(
            (0): ReLU(inplace=True)
            (1): Conv2d(128, 32, kernel_size=(3, 3), stride=(1, 1), padding=(1, 1), bias=False)
            (2): ReLU(inplace=True)
            (3): Conv2d(32, 128, kernel_size=(1, 1), stride=(1, 1), bias=False)
          )
        )
        (1): Residual(
          (residual_block): Sequential(
            (0): ReLU(inplace=True)
            (1): Conv2d(128, 32, kernel_size=(3, 3), stride=(1, 1), padding=(1, 1), bias=False)
            (2): ReLU(inplace=True)
            (3): Conv2d(32, 128, kernel_size=(1, 1), stride=(1, 1), bias=False)
          )
        )
      )
    )
    (channel_adjusting_conv): Conv2d(128, 8, kernel_size=(1, 1), stride=(1, 1))
  )
  (VQ): VectorQuantizer(
    (E): Embedding(16, 8)
  )
  (decoder): Decoder(
    (channel_adjusting_conv): Conv2d(8, 128, kernel_size=(3, 3), stride=(1, 1), padding=(1, 1))
    (residual_stack): ResidualStack(
      (residual_blocks): ModuleList(
        (0): Residual(
          (residual_block): Sequential(
            (0): ReLU(inplace=True)
            (1): Conv2d(128, 32, kernel_size=(3, 3), stride=(1, 1), padding=(1, 1), bias=False)
            (2): ReLU(inplace=True)
            (3): Conv2d(32, 128, kernel_size=(1, 1), stride=(1, 1), bias=False)
          )
        )
        (1): Residual(
          (residual_block): Sequential(
            (0): ReLU(inplace=True)
            (1): Conv2d(128, 32, kernel_size=(3, 3), stride=(1, 1), padding=(1, 1), bias=False)
            (2): ReLU(inplace=True)
            (3): Conv2d(32, 128, kernel_size=(1, 1), stride=(1, 1), bias=False)
          )
        )
      )
    )
    (sequential_trans_convs): Sequential(
      (conv2d_1): ConvTranspose2d(128, 64, kernel_size=(4, 4), stride=(2, 2), padding=(1, 1))
      (ReLU_1): ReLU(inplace=True)
      (conv2d_2): ConvTranspose2d(64, 32, kernel_size=(4, 4), stride=(2, 2), padding=(1, 1))
      (ReLU_2): ReLU(inplace=True)
      (conv2d_3): ConvTranspose2d(32, 16, kernel_size=(4, 4), stride=(2, 2), padding=(1, 1))
      (ReLU_3): ReLU(inplace=True)
      (conv2d_4): ConvTranspose2d(16, 3, kernel_size=(4, 4), stride=(2, 2), padding=(1, 1))
    )
  )
)


 Total Trainable Params in thousands: 659 

                                                         Module Name  # of params in thousands  # of params [%]
0                           encoder.sequential_convs.conv2d_1.weight                         0             0.00
1                           encoder.sequential_convs.conv2d_2.weight                         8             1.21
…
Finished [14:47:36 09.01.2023] 415) Finished running for K = 16 & D = 8 & M = 3 & beta = 0.25 & max_channel_number = 128 (i.e. bits = 64) change_channel_size_across_layers = True:
Total training time is = 0:3:6 h/m/s. 

--------------------------------------------------- 

Started [14:47:36 09.01.2023] 416) Finished running for K = 16 & D = 32 & M = 1 & beta = 0.25 & max_channel_number = 128 (i.e. bits = 16) change_channel_size_across_layers = True:

--------------------------------------------------- 


 PyTorch print of the model:

VQ_VAE(
  (encoder): Encoder(
    (sequential_convs): Sequential(
      (conv2d_1): Conv2d(3, 8, kernel_size=(4, 4), stride=(2, 2), padding=(1, 1))
      (ReLU_1): ReLU(inplace=True)
      (conv2d_2): Conv2d(8, 16, kernel_size=(4, 4), stride=(2, 2), padding=(1, 1))
      (ReLU_2): ReLU(inplace=True)
      (conv2d_3): Conv2d(16, 32, kernel_size=(4, 4), stride=(2, 2), padding=(1, 1))
      (ReLU_3): ReLU(inplace=True)
      (conv2d_4): Conv2d(32, 64, kernel_size=(4, 4), stride=(2, 2), padding=(1, 1))
      (ReLU_4): ReLU(inplace=True)
      (conv2d_5): Conv2d(64, 128, kernel_size=(4, 4), stride=(2, 2), padding=(1, 1))
      (ReLU_5): ReLU(inplace=True)
    )
    (pre_residual_stack): Conv2d(128, 128, kernel_size=(3, 3), stride=(1, 1), padding=(1, 1))
    (residual_stack): ResidualStack(
      (residual_blocks): ModuleList(
        (0): Residual(
          (residual_block): Sequential(
            (0): ReLU(inplace=True)
            (1): Conv2d(128, 32, kernel_size=(3, 3), stride=(1, 1), padding=(1, 1), bias=False)
            (2): ReLU(inplace=True)
            (3): Conv2d(32, 128, kernel_size=(1, 1), stride=(1, 1), bias=False)
          )
        )
        (1): Residual(
          (residual_block): Sequential(
            (0): ReLU(inplace=True)
            (1): Conv2d(128, 32, kernel_size=(3, 3), stride=(1, 1), padding=(1, 1), bias=False)
            (2): ReLU(inplace=True)
            (3): Conv2d(32, 128, kernel_size=(1, 1), stride=(1, 1), bias=False)
          )
        )
      )
    )
    (channel_adjusting_conv): Conv2d(128, 32, kernel_size=(1, 1), stride=(1, 1))
  )
  (VQ): VectorQuantizer(
    (E): Embedding(16, 32)
  )
  (decoder): Decoder(
    (channel_adjusting_conv): Conv2d(32, 128, kernel_size=(3, 3), stride=(1, 1), padding=(1, 1))
    (residual_stack): ResidualStack(
      (residual_blocks): ModuleList(
        (0): Residual(
          (residual_block): Sequential(
            (0): ReLU(inplace=True)
            (1): Conv2d(128, 32, kernel_size=(3, 3), stride=(1, 1), padding=(1, 1), bias=False)
            (2): ReLU(inplace=True)
            (3): Conv2d(32, 128, kernel_size=(1, 1), stride=(1, 1), bias=False)
          )
        )
        (1): Residual(
          (residual_block): Sequential(
            (0): ReLU(inplace=True)
            (1): Conv2d(128, 32, kernel_size=(3, 3), stride=(1, 1), padding=(1, 1), bias=False)
            (2): ReLU(inplace=True)
            (3): Conv2d(32, 128, kernel_size=(1, 1), stride=(1, 1), bias=False)
          )
        )
      )
    )
    (sequential_trans_convs): Sequential(
      (conv2d_1): ConvTranspose2d(128, 64, kernel_size=(4, 4), stride=(2, 2), padding=(1, 1))
      (ReLU_1): ReLU(inplace=True)
      (conv2d_2): ConvTranspose2d(64, 32, kernel_size=(4, 4), stride=(2, 2), padding=(1, 1))
      (ReLU_2): ReLU(inplace=True)
      (conv2d_3): ConvTranspose2d(32, 16, kernel_size=(4, 4), stride=(2, 2), padding=(1, 1))
      (ReLU_3): ReLU(inplace=True)
      (conv2d_4): ConvTranspose2d(16, 8, kernel_size=(4, 4), stride=(2, 2), padding=(1, 1))
      (ReLU_4): ReLU(inplace=True)
      (conv2d_5): ConvTranspose2d(8, 3, kernel_size=(4, 4), stride=(2, 2), padding=(1, 1))
    )
  )
)


 Total Trainable Params in thousands: 693 

                                                         Module Name  # of params in thousands  # of params [%]
0                           encoder.sequential_convs.conv2d_1.weight                         0             0.00
1                           encoder.sequential_convs.conv2d_2.weight                         2             0.29
…
Finished [15:38:07 09.01.2023] 416) Finished running for K = 16 & D = 32 & M = 1 & beta = 0.25 & max_channel_number = 128 (i.e. bits = 16) change_channel_size_across_layers = True:
Total training time is = 0:1:30 h/m/s. 

--------------------------------------------------- 

Started [15:38:07 09.01.2023] 417) Finished running for K = 16 & D = 16 & M = 1 & beta = 0.25 & max_channel_number = 128 (i.e. bits = 16) change_channel_size_across_layers = True:

--------------------------------------------------- 


 PyTorch print of the model:

VQ_VAE(
  (encoder): Encoder(
    (sequential_convs): Sequential(
      (conv2d_1): Conv2d(3, 8, kernel_size=(4, 4), stride=(2, 2), padding=(1, 1))
      (ReLU_1): ReLU(inplace=True)
      (conv2d_2): Conv2d(8, 16, kernel_size=(4, 4), stride=(2, 2), padding=(1, 1))
      (ReLU_2): ReLU(inplace=True)
      (conv2d_3): Conv2d(16, 32, kernel_size=(4, 4), stride=(2, 2), padding=(1, 1))
      (ReLU_3): ReLU(inplace=True)
      (conv2d_4): Conv2d(32, 64, kernel_size=(4, 4), stride=(2, 2), padding=(1, 1))
      (ReLU_4): ReLU(inplace=True)
      (conv2d_5): Conv2d(64, 128, kernel_size=(4, 4), stride=(2, 2), padding=(1, 1))
      (ReLU_5): ReLU(inplace=True)
    )
    (pre_residual_stack): Conv2d(128, 128, kernel_size=(3, 3), stride=(1, 1), padding=(1, 1))
    (residual_stack): ResidualStack(
      (residual_blocks): ModuleList(
        (0): Residual(
          (residual_block): Sequential(
            (0): ReLU(inplace=True)
            (1): Conv2d(128, 32, kernel_size=(3, 3), stride=(1, 1), padding=(1, 1), bias=False)
            (2): ReLU(inplace=True)
            (3): Conv2d(32, 128, kernel_size=(1, 1), stride=(1, 1), bias=False)
          )
        )
        (1): Residual(
          (residual_block): Sequential(
            (0): ReLU(inplace=True)
            (1): Conv2d(128, 32, kernel_size=(3, 3), stride=(1, 1), padding=(1, 1), bias=False)
            (2): ReLU(inplace=True)
            (3): Conv2d(32, 128, kernel_size=(1, 1), stride=(1, 1), bias=False)
          )
        )
      )
    )
    (channel_adjusting_conv): Conv2d(128, 16, kernel_size=(1, 1), stride=(1, 1))
  )
  (VQ): VectorQuantizer(
    (E): Embedding(16, 16)
  )
  (decoder): Decoder(
    (channel_adjusting_conv): Conv2d(16, 128, kernel_size=(3, 3), stride=(1, 1), padding=(1, 1))
    (residual_stack): ResidualStack(
      (residual_blocks): ModuleList(
        (0): Residual(
          (residual_block): Sequential(
            (0): ReLU(inplace=True)
            (1): Conv2d(128, 32, kernel_size=(3, 3), stride=(1, 1), padding=(1, 1), bias=False)
            (2): ReLU(inplace=True)
            (3): Conv2d(32, 128, kernel_size=(1, 1), stride=(1, 1), bias=False)
          )
        )
        (1): Residual(
          (residual_block): Sequential(
            (0): ReLU(inplace=True)
            (1): Conv2d(128, 32, kernel_size=(3, 3), stride=(1, 1), padding=(1, 1), bias=False)
            (2): ReLU(inplace=True)
            (3): Conv2d(32, 128, kernel_size=(1, 1), stride=(1, 1), bias=False)
          )
        )
      )
    )
    (sequential_trans_convs): Sequential(
      (conv2d_1): ConvTranspose2d(128, 64, kernel_size=(4, 4), stride=(2, 2), padding=(1, 1))
      (ReLU_1): ReLU(inplace=True)
      (conv2d_2): ConvTranspose2d(64, 32, kernel_size=(4, 4), stride=(2, 2), padding=(1, 1))
      (ReLU_2): ReLU(inplace=True)
      (conv2d_3): ConvTranspose2d(32, 16, kernel_size=(4, 4), stride=(2, 2), padding=(1, 1))
      (ReLU_3): ReLU(inplace=True)
      (conv2d_4): ConvTranspose2d(16, 8, kernel_size=(4, 4), stride=(2, 2), padding=(1, 1))
      (ReLU_4): ReLU(inplace=True)
      (conv2d_5): ConvTranspose2d(8, 3, kernel_size=(4, 4), stride=(2, 2), padding=(1, 1))
    )
  )
)


 Total Trainable Params in thousands: 673 

                                                         Module Name  # of params in thousands  # of params [%]
0                           encoder.sequential_convs.conv2d_1.weight                         0             0.00
1                           encoder.sequential_convs.conv2d_2.weight                         2             0.30
…
Finished [16:28:36 09.01.2023] 417) Finished running for K = 16 & D = 16 & M = 1 & beta = 0.25 & max_channel_number = 128 (i.e. bits = 16) change_channel_size_across_layers = True:
Total training time is = 0:1:29 h/m/s. 

--------------------------------------------------- 

Started [16:28:36 09.01.2023] 418) Finished running for K = 16 & D = 8 & M = 1 & beta = 0.25 & max_channel_number = 128 (i.e. bits = 16) change_channel_size_across_layers = True:

--------------------------------------------------- 


 PyTorch print of the model:

VQ_VAE(
  (encoder): Encoder(
    (sequential_convs): Sequential(
      (conv2d_1): Conv2d(3, 8, kernel_size=(4, 4), stride=(2, 2), padding=(1, 1))
      (ReLU_1): ReLU(inplace=True)
      (conv2d_2): Conv2d(8, 16, kernel_size=(4, 4), stride=(2, 2), padding=(1, 1))
      (ReLU_2): ReLU(inplace=True)
      (conv2d_3): Conv2d(16, 32, kernel_size=(4, 4), stride=(2, 2), padding=(1, 1))
      (ReLU_3): ReLU(inplace=True)
      (conv2d_4): Conv2d(32, 64, kernel_size=(4, 4), stride=(2, 2), padding=(1, 1))
      (ReLU_4): ReLU(inplace=True)
      (conv2d_5): Conv2d(64, 128, kernel_size=(4, 4), stride=(2, 2), padding=(1, 1))
      (ReLU_5): ReLU(inplace=True)
    )
    (pre_residual_stack): Conv2d(128, 128, kernel_size=(3, 3), stride=(1, 1), padding=(1, 1))
    (residual_stack): ResidualStack(
      (residual_blocks): ModuleList(
        (0): Residual(
          (residual_block): Sequential(
            (0): ReLU(inplace=True)
            (1): Conv2d(128, 32, kernel_size=(3, 3), stride=(1, 1), padding=(1, 1), bias=False)
            (2): ReLU(inplace=True)
            (3): Conv2d(32, 128, kernel_size=(1, 1), stride=(1, 1), bias=False)
          )
        )
        (1): Residual(
          (residual_block): Sequential(
            (0): ReLU(inplace=True)
            (1): Conv2d(128, 32, kernel_size=(3, 3), stride=(1, 1), padding=(1, 1), bias=False)
            (2): ReLU(inplace=True)
            (3): Conv2d(32, 128, kernel_size=(1, 1), stride=(1, 1), bias=False)
          )
        )
      )
    )
    (channel_adjusting_conv): Conv2d(128, 8, kernel_size=(1, 1), stride=(1, 1))
  )
  (VQ): VectorQuantizer(
    (E): Embedding(16, 8)
  )
  (decoder): Decoder(
    (channel_adjusting_conv): Conv2d(8, 128, kernel_size=(3, 3), stride=(1, 1), padding=(1, 1))
    (residual_stack): ResidualStack(
      (residual_blocks): ModuleList(
        (0): Residual(
          (residual_block): Sequential(
            (0): ReLU(inplace=True)
            (1): Conv2d(128, 32, kernel_size=(3, 3), stride=(1, 1), padding=(1, 1), bias=False)
            (2): ReLU(inplace=True)
            (3): Conv2d(32, 128, kernel_size=(1, 1), stride=(1, 1), bias=False)
          )
        )
        (1): Residual(
          (residual_block): Sequential(
            (0): ReLU(inplace=True)
            (1): Conv2d(128, 32, kernel_size=(3, 3), stride=(1, 1), padding=(1, 1), bias=False)
            (2): ReLU(inplace=True)
            (3): Conv2d(32, 128, kernel_size=(1, 1), stride=(1, 1), bias=False)
          )
        )
      )
    )
    (sequential_trans_convs): Sequential(
      (conv2d_1): ConvTranspose2d(128, 64, kernel_size=(4, 4), stride=(2, 2), padding=(1, 1))
      (ReLU_1): ReLU(inplace=True)
      (conv2d_2): ConvTranspose2d(64, 32, kernel_size=(4, 4), stride=(2, 2), padding=(1, 1))
      (ReLU_2): ReLU(inplace=True)
      (conv2d_3): ConvTranspose2d(32, 16, kernel_size=(4, 4), stride=(2, 2), padding=(1, 1))
      (ReLU_3): ReLU(inplace=True)
      (conv2d_4): ConvTranspose2d(16, 8, kernel_size=(4, 4), stride=(2, 2), padding=(1, 1))
      (ReLU_4): ReLU(inplace=True)
      (conv2d_5): ConvTranspose2d(8, 3, kernel_size=(4, 4), stride=(2, 2), padding=(1, 1))
    )
  )
)


 Total Trainable Params in thousands: 663 

                                                         Module Name  # of params in thousands  # of params [%]
0                           encoder.sequential_convs.conv2d_1.weight                         0             0.00
1                           encoder.sequential_convs.conv2d_2.weight                         2             0.30
…
Finished [17:19:18 09.01.2023] 418) Finished running for K = 16 & D = 8 & M = 1 & beta = 0.25 & max_channel_number = 128 (i.e. bits = 16) change_channel_size_across_layers = True:
Total training time is = 0:1:41 h/m/s. 

--------------------------------------------------- 

Started [17:19:18 09.01.2023] 419) Finished running for K = 8 & D = 32 & M = 3 & beta = 0.25 & max_channel_number = 128 (i.e. bits = 48) change_channel_size_across_layers = True:

--------------------------------------------------- 


 PyTorch print of the model:

VQ_VAE(
  (encoder): Encoder(
    (sequential_convs): Sequential(
      (conv2d_1): Conv2d(3, 16, kernel_size=(4, 4), stride=(2, 2), padding=(1, 1))
      (ReLU_1): ReLU(inplace=True)
      (conv2d_2): Conv2d(16, 32, kernel_size=(4, 4), stride=(2, 2), padding=(1, 1))
      (ReLU_2): ReLU(inplace=True)
      (conv2d_3): Conv2d(32, 64, kernel_size=(4, 4), stride=(2, 2), padding=(1, 1))
      (ReLU_3): ReLU(inplace=True)
      (conv2d_4): Conv2d(64, 128, kernel_size=(4, 4), stride=(2, 2), padding=(1, 1))
      (ReLU_4): ReLU(inplace=True)
    )
    (pre_residual_stack): Conv2d(128, 128, kernel_size=(3, 3), stride=(1, 1), padding=(1, 1))
    (residual_stack): ResidualStack(
      (residual_blocks): ModuleList(
        (0): Residual(
          (residual_block): Sequential(
            (0): ReLU(inplace=True)
            (1): Conv2d(128, 32, kernel_size=(3, 3), stride=(1, 1), padding=(1, 1), bias=False)
            (2): ReLU(inplace=True)
            (3): Conv2d(32, 128, kernel_size=(1, 1), stride=(1, 1), bias=False)
          )
        )
        (1): Residual(
          (residual_block): Sequential(
            (0): ReLU(inplace=True)
            (1): Conv2d(128, 32, kernel_size=(3, 3), stride=(1, 1), padding=(1, 1), bias=False)
            (2): ReLU(inplace=True)
            (3): Conv2d(32, 128, kernel_size=(1, 1), stride=(1, 1), bias=False)
          )
        )
      )
    )
    (channel_adjusting_conv): Conv2d(128, 32, kernel_size=(1, 1), stride=(1, 1))
  )
  (VQ): VectorQuantizer(
    (E): Embedding(8, 32)
  )
  (decoder): Decoder(
    (channel_adjusting_conv): Conv2d(32, 128, kernel_size=(3, 3), stride=(1, 1), padding=(1, 1))
    (residual_stack): ResidualStack(
      (residual_blocks): ModuleList(
        (0): Residual(
          (residual_block): Sequential(
            (0): ReLU(inplace=True)
            (1): Conv2d(128, 32, kernel_size=(3, 3), stride=(1, 1), padding=(1, 1), bias=False)
            (2): ReLU(inplace=True)
            (3): Conv2d(32, 128, kernel_size=(1, 1), stride=(1, 1), bias=False)
          )
        )
        (1): Residual(
          (residual_block): Sequential(
            (0): ReLU(inplace=True)
            (1): Conv2d(128, 32, kernel_size=(3, 3), stride=(1, 1), padding=(1, 1), bias=False)
            (2): ReLU(inplace=True)
            (3): Conv2d(32, 128, kernel_size=(1, 1), stride=(1, 1), bias=False)
          )
        )
      )
    )
    (sequential_trans_convs): Sequential(
      (conv2d_1): ConvTranspose2d(128, 64, kernel_size=(4, 4), stride=(2, 2), padding=(1, 1))
      (ReLU_1): ReLU(inplace=True)
      (conv2d_2): ConvTranspose2d(64, 32, kernel_size=(4, 4), stride=(2, 2), padding=(1, 1))
      (ReLU_2): ReLU(inplace=True)
      (conv2d_3): ConvTranspose2d(32, 16, kernel_size=(4, 4), stride=(2, 2), padding=(1, 1))
      (ReLU_3): ReLU(inplace=True)
      (conv2d_4): ConvTranspose2d(16, 3, kernel_size=(4, 4), stride=(2, 2), padding=(1, 1))
    )
  )
)


 Total Trainable Params in thousands: 689 

                                                         Module Name  # of params in thousands  # of params [%]
0                           encoder.sequential_convs.conv2d_1.weight                         0             0.00
1                           encoder.sequential_convs.conv2d_2.weight                         8             1.16
…
Finished [18:07:36 09.01.2023] 419) Finished running for K = 8 & D = 32 & M = 3 & beta = 0.25 & max_channel_number = 128 (i.e. bits = 48) change_channel_size_across_layers = True:
Total training time is = 0:3:17 h/m/s. 

--------------------------------------------------- 

Started [18:07:36 09.01.2023] 420) Finished running for K = 8 & D = 16 & M = 3 & beta = 0.25 & max_channel_number = 128 (i.e. bits = 48) change_channel_size_across_layers = True:

--------------------------------------------------- 


 PyTorch print of the model:

VQ_VAE(
  (encoder): Encoder(
    (sequential_convs): Sequential(
      (conv2d_1): Conv2d(3, 16, kernel_size=(4, 4), stride=(2, 2), padding=(1, 1))
      (ReLU_1): ReLU(inplace=True)
      (conv2d_2): Conv2d(16, 32, kernel_size=(4, 4), stride=(2, 2), padding=(1, 1))
      (ReLU_2): ReLU(inplace=True)
      (conv2d_3): Conv2d(32, 64, kernel_size=(4, 4), stride=(2, 2), padding=(1, 1))
      (ReLU_3): ReLU(inplace=True)
      (conv2d_4): Conv2d(64, 128, kernel_size=(4, 4), stride=(2, 2), padding=(1, 1))
      (ReLU_4): ReLU(inplace=True)
    )
    (pre_residual_stack): Conv2d(128, 128, kernel_size=(3, 3), stride=(1, 1), padding=(1, 1))
    (residual_stack): ResidualStack(
      (residual_blocks): ModuleList(
        (0): Residual(
          (residual_block): Sequential(
            (0): ReLU(inplace=True)
            (1): Conv2d(128, 32, kernel_size=(3, 3), stride=(1, 1), padding=(1, 1), bias=False)
            (2): ReLU(inplace=True)
            (3): Conv2d(32, 128, kernel_size=(1, 1), stride=(1, 1), bias=False)
          )
        )
        (1): Residual(
          (residual_block): Sequential(
            (0): ReLU(inplace=True)
            (1): Conv2d(128, 32, kernel_size=(3, 3), stride=(1, 1), padding=(1, 1), bias=False)
            (2): ReLU(inplace=True)
            (3): Conv2d(32, 128, kernel_size=(1, 1), stride=(1, 1), bias=False)
          )
        )
      )
    )
    (channel_adjusting_conv): Conv2d(128, 16, kernel_size=(1, 1), stride=(1, 1))
  )
  (VQ): VectorQuantizer(
    (E): Embedding(8, 16)
  )
  (decoder): Decoder(
    (channel_adjusting_conv): Conv2d(16, 128, kernel_size=(3, 3), stride=(1, 1), padding=(1, 1))
    (residual_stack): ResidualStack(
      (residual_blocks): ModuleList(
        (0): Residual(
          (residual_block): Sequential(
            (0): ReLU(inplace=True)
            (1): Conv2d(128, 32, kernel_size=(3, 3), stride=(1, 1), padding=(1, 1), bias=False)
            (2): ReLU(inplace=True)
            (3): Conv2d(32, 128, kernel_size=(1, 1), stride=(1, 1), bias=False)
          )
        )
        (1): Residual(
          (residual_block): Sequential(
            (0): ReLU(inplace=True)
            (1): Conv2d(128, 32, kernel_size=(3, 3), stride=(1, 1), padding=(1, 1), bias=False)
            (2): ReLU(inplace=True)
            (3): Conv2d(32, 128, kernel_size=(1, 1), stride=(1, 1), bias=False)
          )
        )
      )
    )
    (sequential_trans_convs): Sequential(
      (conv2d_1): ConvTranspose2d(128, 64, kernel_size=(4, 4), stride=(2, 2), padding=(1, 1))
      (ReLU_1): ReLU(inplace=True)
      (conv2d_2): ConvTranspose2d(64, 32, kernel_size=(4, 4), stride=(2, 2), padding=(1, 1))
      (ReLU_2): ReLU(inplace=True)
      (conv2d_3): ConvTranspose2d(32, 16, kernel_size=(4, 4), stride=(2, 2), padding=(1, 1))
      (ReLU_3): ReLU(inplace=True)
      (conv2d_4): ConvTranspose2d(16, 3, kernel_size=(4, 4), stride=(2, 2), padding=(1, 1))
    )
  )
)


 Total Trainable Params in thousands: 669 

                                                         Module Name  # of params in thousands  # of params [%]
0                           encoder.sequential_convs.conv2d_1.weight                         0             0.00
1                           encoder.sequential_convs.conv2d_2.weight                         8             1.20
…
Finished [18:55:46 09.01.2023] 420) Finished running for K = 8 & D = 16 & M = 3 & beta = 0.25 & max_channel_number = 128 (i.e. bits = 48) change_channel_size_across_layers = True:
Total training time is = 0:3:9 h/m/s. 

--------------------------------------------------- 

Started [18:55:46 09.01.2023] 421) Finished running for K = 8 & D = 8 & M = 3 & beta = 0.25 & max_channel_number = 128 (i.e. bits = 48) change_channel_size_across_layers = True:

--------------------------------------------------- 


 PyTorch print of the model:

VQ_VAE(
  (encoder): Encoder(
    (sequential_convs): Sequential(
      (conv2d_1): Conv2d(3, 16, kernel_size=(4, 4), stride=(2, 2), padding=(1, 1))
      (ReLU_1): ReLU(inplace=True)
      (conv2d_2): Conv2d(16, 32, kernel_size=(4, 4), stride=(2, 2), padding=(1, 1))
      (ReLU_2): ReLU(inplace=True)
      (conv2d_3): Conv2d(32, 64, kernel_size=(4, 4), stride=(2, 2), padding=(1, 1))
      (ReLU_3): ReLU(inplace=True)
      (conv2d_4): Conv2d(64, 128, kernel_size=(4, 4), stride=(2, 2), padding=(1, 1))
      (ReLU_4): ReLU(inplace=True)
    )
    (pre_residual_stack): Conv2d(128, 128, kernel_size=(3, 3), stride=(1, 1), padding=(1, 1))
    (residual_stack): ResidualStack(
      (residual_blocks): ModuleList(
        (0): Residual(
          (residual_block): Sequential(
            (0): ReLU(inplace=True)
            (1): Conv2d(128, 32, kernel_size=(3, 3), stride=(1, 1), padding=(1, 1), bias=False)
            (2): ReLU(inplace=True)
            (3): Conv2d(32, 128, kernel_size=(1, 1), stride=(1, 1), bias=False)
          )
        )
        (1): Residual(
          (residual_block): Sequential(
            (0): ReLU(inplace=True)
            (1): Conv2d(128, 32, kernel_size=(3, 3), stride=(1, 1), padding=(1, 1), bias=False)
            (2): ReLU(inplace=True)
            (3): Conv2d(32, 128, kernel_size=(1, 1), stride=(1, 1), bias=False)
          )
        )
      )
    )
    (channel_adjusting_conv): Conv2d(128, 8, kernel_size=(1, 1), stride=(1, 1))
  )
  (VQ): VectorQuantizer(
    (E): Embedding(8, 8)
  )
  (decoder): Decoder(
    (channel_adjusting_conv): Conv2d(8, 128, kernel_size=(3, 3), stride=(1, 1), padding=(1, 1))
    (residual_stack): ResidualStack(
      (residual_blocks): ModuleList(
        (0): Residual(
          (residual_block): Sequential(
            (0): ReLU(inplace=True)
            (1): Conv2d(128, 32, kernel_size=(3, 3), stride=(1, 1), padding=(1, 1), bias=False)
            (2): ReLU(inplace=True)
            (3): Conv2d(32, 128, kernel_size=(1, 1), stride=(1, 1), bias=False)
          )
        )
        (1): Residual(
          (residual_block): Sequential(
            (0): ReLU(inplace=True)
            (1): Conv2d(128, 32, kernel_size=(3, 3), stride=(1, 1), padding=(1, 1), bias=False)
            (2): ReLU(inplace=True)
            (3): Conv2d(32, 128, kernel_size=(1, 1), stride=(1, 1), bias=False)
          )
        )
      )
    )
    (sequential_trans_convs): Sequential(
      (conv2d_1): ConvTranspose2d(128, 64, kernel_size=(4, 4), stride=(2, 2), padding=(1, 1))
      (ReLU_1): ReLU(inplace=True)
      (conv2d_2): ConvTranspose2d(64, 32, kernel_size=(4, 4), stride=(2, 2), padding=(1, 1))
      (ReLU_2): ReLU(inplace=True)
      (conv2d_3): ConvTranspose2d(32, 16, kernel_size=(4, 4), stride=(2, 2), padding=(1, 1))
      (ReLU_3): ReLU(inplace=True)
      (conv2d_4): ConvTranspose2d(16, 3, kernel_size=(4, 4), stride=(2, 2), padding=(1, 1))
    )
  )
)


 Total Trainable Params in thousands: 659 

                                                         Module Name  # of params in thousands  # of params [%]
0                           encoder.sequential_convs.conv2d_1.weight                         0             0.00
1                           encoder.sequential_convs.conv2d_2.weight                         8             1.21
…
Finished [19:43:33 09.01.2023] 421) Finished running for K = 8 & D = 8 & M = 3 & beta = 0.25 & max_channel_number = 128 (i.e. bits = 48) change_channel_size_across_layers = True:
Total training time is = 0:3:47 h/m/s. 

--------------------------------------------------- 

Started [19:43:33 09.01.2023] 422) Finished running for K = 8 & D = 32 & M = 1 & beta = 0.25 & max_channel_number = 128 (i.e. bits = 12) change_channel_size_across_layers = True:

--------------------------------------------------- 


 PyTorch print of the model:

VQ_VAE(
  (encoder): Encoder(
    (sequential_convs): Sequential(
      (conv2d_1): Conv2d(3, 8, kernel_size=(4, 4), stride=(2, 2), padding=(1, 1))
      (ReLU_1): ReLU(inplace=True)
      (conv2d_2): Conv2d(8, 16, kernel_size=(4, 4), stride=(2, 2), padding=(1, 1))
      (ReLU_2): ReLU(inplace=True)
      (conv2d_3): Conv2d(16, 32, kernel_size=(4, 4), stride=(2, 2), padding=(1, 1))
      (ReLU_3): ReLU(inplace=True)
      (conv2d_4): Conv2d(32, 64, kernel_size=(4, 4), stride=(2, 2), padding=(1, 1))
      (ReLU_4): ReLU(inplace=True)
      (conv2d_5): Conv2d(64, 128, kernel_size=(4, 4), stride=(2, 2), padding=(1, 1))
      (ReLU_5): ReLU(inplace=True)
    )
    (pre_residual_stack): Conv2d(128, 128, kernel_size=(3, 3), stride=(1, 1), padding=(1, 1))
    (residual_stack): ResidualStack(
      (residual_blocks): ModuleList(
        (0): Residual(
          (residual_block): Sequential(
            (0): ReLU(inplace=True)
            (1): Conv2d(128, 32, kernel_size=(3, 3), stride=(1, 1), padding=(1, 1), bias=False)
            (2): ReLU(inplace=True)
            (3): Conv2d(32, 128, kernel_size=(1, 1), stride=(1, 1), bias=False)
          )
        )
        (1): Residual(
          (residual_block): Sequential(
            (0): ReLU(inplace=True)
            (1): Conv2d(128, 32, kernel_size=(3, 3), stride=(1, 1), padding=(1, 1), bias=False)
            (2): ReLU(inplace=True)
            (3): Conv2d(32, 128, kernel_size=(1, 1), stride=(1, 1), bias=False)
          )
        )
      )
    )
    (channel_adjusting_conv): Conv2d(128, 32, kernel_size=(1, 1), stride=(1, 1))
  )
  (VQ): VectorQuantizer(
    (E): Embedding(8, 32)
  )
  (decoder): Decoder(
    (channel_adjusting_conv): Conv2d(32, 128, kernel_size=(3, 3), stride=(1, 1), padding=(1, 1))
    (residual_stack): ResidualStack(
      (residual_blocks): ModuleList(
        (0): Residual(
          (residual_block): Sequential(
            (0): ReLU(inplace=True)
            (1): Conv2d(128, 32, kernel_size=(3, 3), stride=(1, 1), padding=(1, 1), bias=False)
            (2): ReLU(inplace=True)
            (3): Conv2d(32, 128, kernel_size=(1, 1), stride=(1, 1), bias=False)
          )
        )
        (1): Residual(
          (residual_block): Sequential(
            (0): ReLU(inplace=True)
            (1): Conv2d(128, 32, kernel_size=(3, 3), stride=(1, 1), padding=(1, 1), bias=False)
            (2): ReLU(inplace=True)
            (3): Conv2d(32, 128, kernel_size=(1, 1), stride=(1, 1), bias=False)
          )
        )
      )
    )
    (sequential_trans_convs): Sequential(
      (conv2d_1): ConvTranspose2d(128, 64, kernel_size=(4, 4), stride=(2, 2), padding=(1, 1))
      (ReLU_1): ReLU(inplace=True)
      (conv2d_2): ConvTranspose2d(64, 32, kernel_size=(4, 4), stride=(2, 2), padding=(1, 1))
      (ReLU_2): ReLU(inplace=True)
      (conv2d_3): ConvTranspose2d(32, 16, kernel_size=(4, 4), stride=(2, 2), padding=(1, 1))
      (ReLU_3): ReLU(inplace=True)
      (conv2d_4): ConvTranspose2d(16, 8, kernel_size=(4, 4), stride=(2, 2), padding=(1, 1))
      (ReLU_4): ReLU(inplace=True)
      (conv2d_5): ConvTranspose2d(8, 3, kernel_size=(4, 4), stride=(2, 2), padding=(1, 1))
    )
  )
)


 Total Trainable Params in thousands: 693 

                                                         Module Name  # of params in thousands  # of params [%]
0                           encoder.sequential_convs.conv2d_1.weight                         0             0.00
1                           encoder.sequential_convs.conv2d_2.weight                         2             0.29
…
